model.pt (torch, 98391 bytes, 26 tensors)

convs.0.lin_m.weight f4 [96, 156]
000000 13 cc 48 bd 88 79 6e 3d 3c 48 50 3b be 54 b5 3d
       -0.049022745 0.05822137 0.0031781336 0.08854054
000010 a8 ae 86 3d e8 05 1f bc 82 49 0b bd 9a 47 b2 3d
       0.06576282 -0.009705998 -0.03400565 0.08705063
000020 22 15 30 3d bc d3 b2 3d 12 88 b2 bc 26 9f 70 3d
       0.042988904 0.087317914 -0.021793399 0.058745526
000030 0f 4e ce 3c cc c0 90 bd ac 90 6a bd 5f b9 d4 bc
       0.025183706 -0.07068023 -0.057266876 -0.025967298
000040 3b 65 39 3c da cc a2 bc 85 87 26 bc ed e5 90 3d
       0.011315639 -0.019873071 -0.010164146 0.07075105
000050 ef 0d 77 3c 55 00 fc bc ad 68 99 3c 49 26 6f bd
       0.015079006 -0.030761877 0.018726671 -0.05838612
000060 71 3c f2 3b f4 35 67 bd e7 c1 ff bc 6f a7 f5 39
       0.007392459 -0.056447938 -0.03122039 0.0004685479
000070 dc 46 85 3c cb 47 0a bd a4 ac b3 bd 04 d1 87 3d
       0.01626914 -0.033759873 -0.08773163 0.066316634
000080 06 21 02 bd c1 16 08 37 26 b5 20 3c 0a 81 4c 3a
       -0.031769775 8.1115295e-06 0.009808814 0.0007801211
000090 f1 b8 91 bc 90 c9 ec bc 41 10 e9 bc 07 39 77 3d
       -0.017788382 -0.028904706 -0.028450133 0.06035712
0000a0 09 15 1c bd 4a dc 0b 3d e0 4e cb bc cf a7 8c 3d
       -0.038106 0.03414563 -0.024817884 0.068679444
0000b0 b1 b7 53 bd 6a 74 e9 bc fc af a2 bc ca b3 b4 bd
       -0.051688854 -0.028497893 -0.019859307 -0.088233545
0000c0 2c 51 20 bc aa 56 41 bd 23 99 ad 3d 0b 91 14 3d
       -0.009784978 -0.04720179 0.08476474 0.036271136
0000d0 a2 b8 08 bd 1c f8 6c 3d 0f 19 87 bd 17 a5 a6 bc
       -0.033379205 0.057853803 -0.065965764 -0.020342393
0000e0 8a 00 a8 3d c7 9f a6 bd e5 cb 85 3d 35 ee 45 bd
       0.08203228 -0.08135944 0.065330304 -0.048322875
0000f0 5d 4d 24 bc 65 92 a6 bb 73 8e bf 3d 95 5b 95 bb
       -0.0100282105 -0.0050833696 0.09353342 -0.0045580366
000100 91 67 50 bc 7e 95 a9 3d 9c 76 85 bd cc 51 c2 3c
       -0.012720005 0.082804665 -0.065167636 0.023720644
000110 de 69 b1 b9 0c f4 23 3d 9e 98 6e bd 34 a5 4f 3d
       -0.00033838948 0.040027663 -0.058251016 0.05069466
000120 03 01 60 bc c7 09 3c 3d 23 78 38 bd 61 c1 69 3c
       -0.013672116 0.045907762 -0.045036446 0.0142672965
000130 82 ab 6d bb d3 a3 d6 bb be 7f 95 bd de a0 ac bd
       -0.0036265557 -0.006550291 -0.072997555 -0.084291205
000140 0c 6b 22 3c 37 37 bf bc e8 8d 14 bd 0f 3f b7 bc
       0.009913217 -0.023341758 -0.036268145 -0.022368936
000150 fb 03 2a bd b1 b5 9d 3c 3b 90 72 bd 82 a7 8b bd
       -0.041507702 0.019251676 -0.05921958 -0.06819059
000160 c1 8a 75 3c 6b fb 6b 3c 36 89 af bd 19 38 bc 3d
       0.014986695 0.014403204 -0.08571093 0.09190387
000170 cc 85 80 3c 49 f2 27 bd 64 34 5f 3d 04 4d a5 bc
       0.0156888 -0.041002546 0.054493323 -0.020178325
000180 8a 58 10 3d 97 33 91 3d 82 45 1e bd bf aa 41 bd
       0.035240687 0.07089918 -0.038640507 -0.047281977
000190 b7 92 9c bd 9f 25 88 bc e4 11 13 3d ab d4 22 bd
       -0.07645171 -0.016619502 0.035905734 -0.039753597
0001a0 0a fb 8a bd 78 10 a8 3d 93 2b 4d bd 68 61 fe 3c
       -0.06786163 0.08206266 -0.050090384 0.031052306
0001b0 12 de 76 bd 0c ce e9 3b 93 64 3f 3d ba 0d e4 3a
       -0.060270377 0.0071351584 0.046726774 0.001739911
0001c0 c8 92 66 bb 10 b4 07 bb e4 1c 2e bd b5 40 1a 3d
       -0.0035182703 -0.002070669 -0.04250802 0.037659366
0001d0 c2 13 85 bd 2a ad 6e 3c 01 f0 4d bd ab 0a ef bc
       -0.06497909 0.014567653 -0.050277714 -0.029179892
0001e0 06 c3 53 bd 92 bb 0a 3d 79 10 a6 bd 93 49 4c bd
       -0.05169966 0.033870287 -0.08108611 -0.049874853
0001f0 f0 d5 07 bc c8 48 3d 3d 95 75 84 3d c1 02 7e bd
       -0.008290753 0.046211988 0.064677395 -0.062014345
000200 69 ec 8e bd 92 b0 4e 3c 34 32 61 3c fe 63 f7 bc
       -0.069786854 0.01261534 0.0137448795 -0.030199047
000210 e9 be 24 3d be d5 77 bd 43 77 82 3d fc fa 65 bd
       0.04022113 -0.060506575 0.063704036 -0.05614756
000220 da f3 97 bc 33 68 bc 3c b2 08 c4 bc e8 78 e2 bc
       -0.018548895 0.022998905 -0.023929927 -0.027645543
000230 aa 62 91 bd 18 8d 97 3d 8d 35 6c bd 7b 03 34 bd
       -0.07098897 0.07399958 -0.057668258 -0.04394863
000240 d7 4d 86 bd b3 52 55 bd 03 e6 20 bd e1 e7 13 bd
       -0.065578155 -0.05208082 -0.039281856 -0.03610981
000250 94 dd 68 3d 04 d7 76 3d 72 76 a0 3b aa 88 92 bd
       0.05685194 0.06026365 0.0048969323 -0.07154973
000260 df 6c 2d 3d 2a ca a2 bd 3e 32 5e 3d 12 99 30 3d
       0.042340156 -0.07948716 0.054247133 0.04311473
000270 30 7e 55 ba 7b be 5e bd 37 e3 56 3d bd 4a e0 bc
       -0.00081441086 -0.054380875 0.052462783 -0.027379388
000280 a0 01 06 bb 05 d1 d3 ba a4 70 96 3c 80 ce 80 bd
       -0.0020447746 -0.0016160315 0.018364258 -0.06289387
000290 84 81 39 3d 85 c9 8f bd 5c 90 85 3c c0 e4 3b bc
       0.04528953 -0.07020859 0.016304187 -0.0114681125
0002a0 63 a9 dd 3c 5c 6e 26 bd 51 d9 63 3d d9 32 8e 3d
       0.027058309 -0.04063259 0.05562717 0.06943292
0002b0 8b b2 e0 b9 18 f7 8b bd aa 69 ff bc 23 e4 4d 3d
       -0.00042857634 -0.06834239 -0.031178314 0.050266396
0002c0 9f 36 2a 3d be 32 a1 3d a6 c4 5f 3b e4 24 03 3d
       0.041555997 0.078710064 0.0034144311 0.032017604
0002d0 fa 76 fc bc e6 8d 9c 3d da 0e 8d bc dc f9 8b 3b
       -0.030818451 0.076442525 -0.017218996 0.004271729
0002e0 01 6f 8d 3d 80 e1 8a 3d 6b e2 95 3d 18 12 a1 bd
       0.06905938 0.06781292 0.073185764 -0.07864779
0002f0 1f 45 b5 bc 0f a1 75 3d 35 de 3d bd 18 6c 97 3d
       -0.022127686 0.05996805 -0.04635449 0.07393664
000300 65 72 52 3d 1d 1f cd 3c c7 00 73 3d 8e 56 61 bd
       0.051378626 0.02503925 0.059326913 -0.055014186
000310 68 16 a4 3d 06 6a a2 bc e3 b5 c3 3c 10 6d 8e 3d
       0.08012086 -0.019825947 0.023890441 0.06954396
000320 fa 4a 20 bd bb 5d 78 3d 5c ae 4d 3d 43 f9 d1 bc
       -0.039134003 0.060636263 0.05021511 -0.025631553
000330 8e 83 01 bd 9b 92 45 3d 77 5e 92 bc 10 00 57 bd
       -0.0316196 0.048235517 -0.01786731 -0.052490294
000340 00 03 90 3c 70 b3 f2 3c 82 5a 02 bd d0 41 57 3d
       0.017579556 0.029626578 -0.031824596 0.052552998
000350 d5 d2 02 3c 68 64 61 3c 28 bc 9d 3d 81 17 da bc
       0.007984837 0.013756849 0.077019036 -0.026622536
000360 12 47 a6 bd 7b 78 47 3d 98 71 72 3d 19 6e 45 3c
       -0.08119024 0.048698884 0.059190363 0.012050175
000370 b7 92 b6 bd b8 18 17 bd 1e 50 77 bc 20 0f 91 3d
       -0.089147024 -0.036888808 -0.015094785 0.07082963
000380 8d 2f 23 bc cc 85 56 3d 13 be af 3a fa c4 b4 bc
       -0.009960067 0.052373692 0.0013408087 -0.022066582
000390 c9 47 8b 3d d1 42 73 3b 95 c4 01 bd 09 6d 7e bd
       0.06800801 0.0037118683 -0.031681616 -0.062115703
0003a0 46 b9 0a 3d 5c 21 9a bc 52 6a c4 3c 5c f2 55 3c
       0.033868097 -0.018814735 0.023976479 0.013058271
0003b0 47 dd e7 bc d7 2a e1 3b 68 c1 97 3d d2 1a 61 bd
       -0.028303755 0.006871562 0.07409936 -0.05495722
0003c0 aa b1 27 bd d7 af 33 bd 86 52 0a bc fa 7f dd bc
       -0.040940918 -0.043868866 -0.008442527 -0.027038563
0003d0 b4 8f 7d bd 18 e8 09 bd 6f 26 96 bd 39 11 3e 3d
       -0.061904624 -0.033668607 -0.073315494 0.046403144
0003e0 57 cd a5 3d 77 fd 46 3b fc eb 81 bd d2 fa 74 3d
       0.08095806 0.003036348 -0.063438386 0.059809513
0003f0 12 d3 cd bb a7 de a8 3c 32 13 48 bd 0d 97 ce bc
       -0.006281265 0.020613981 -0.04884643 -0.025218511

convs.0.lin_m.bias f4 [96]
000000 fc 3f 76 bd e8 e5 5a bd 85 e7 b7 3b 11 fe 70 bd
       -0.060119614 -0.053441912 0.005612316 -0.058836047
000010 78 4a 84 bd 46 2b 75 bd c0 ce fc 3c f8 c3 32 3d
       -0.06459516 -0.059855722 0.030860305 0.04364392
000020 a7 b6 80 3d 19 40 30 3d 2f 5c ea bb a3 9b 5f bd
       0.06284838 0.04302988 -0.0071521024 -0.054591786
000030 ce 8d 7c 3d 76 e4 85 3d 72 d6 c6 3c 5a 62 09 bd
       0.061658673 0.06537716 0.024272177 -0.03354106
000040 25 97 a0 3c cb a3 cf 3c ff 60 a8 3c 29 30 27 bb
       0.019603321 0.025346657 0.020554064 -0.0025510883
000050 42 ec 66 bd b9 b4 48 3d d7 16 7b 3d db a6 6d 38
       -0.056377657 0.049000476 0.06130108 5.66606e-05
000060 17 31 11 b9 53 6c 8b bd 68 33 9f bc 91 4d 76 bd
       -0.00013846565 -0.068077706 -0.019433692 -0.060132567
000070 83 21 c5 3c f6 0e ad bc 5e d6 a2 3c df db 1e bd
       0.024063831 -0.021125298 0.019877609 -0.038783904
000080 3e ad 07 bd 94 92 c0 3c 3b a5 41 bd fe c4 79 bd
       -0.0331242 0.023507394 -0.047276717 -0.060978882
000090 3a 1d 09 3c 08 85 a9 3b ac bf 5d bb 65 bd 44 3d
       0.008368785 0.0051733293 -0.003383617 0.048032183
0000a0 89 92 d2 bc 27 08 e5 ba cb 5a a2 3c 88 ac 80 bd
       -0.025704639 -0.0017473743 0.019818684 -0.06282908
0000b0 8c dc 58 bd da b4 82 bc f4 a4 41 3c 74 c6 a4 bc
       -0.052944705 -0.015955377 0.011819113 -0.020114161
0000c0 e8 6a 7b bd d1 32 29 3c b5 6b 80 3c 0a 9f 85 3d
       -0.06138125 0.010327057 0.015676359 0.06524475
0000d0 a4 94 5e 3d 06 4d 77 bd 21 9b 06 bc 7a a0 ba bc
       0.054340973 -0.06037619 -0.008215697 -0.0227816
0000e0 0e 8e 25 3d c4 70 17 bd e3 78 17 bd 4b 76 56 3a
       0.040418677 -0.036972776 -0.03698052 0.0008181079
0000f0 54 0c 74 bd ce 52 a5 3b 81 e8 86 bd 6f 76 f0 3b
       -0.05958207 0.0050452715 -0.06587315 0.007338337
000100 e8 da 31 bd 8a 2f cd bc 81 f6 4c 3d 33 e2 8c 3c
       -0.043421656 -0.025047082 0.050039772 0.017197704
000110 8c b3 53 bd e1 54 20 bd 2b 7b 3b 3d ec 0c bd bc
       -0.0516849 -0.039143447 0.04577176 -0.02307745
000120 78 28 18 3d ba 1f 89 bd c6 5e 37 3d 8e cb aa 3c
       0.03714797 -0.066955045 0.044768117 0.020849016
000130 59 f6 6a 3d cb 49 17 bd f3 ae 50 3d 3f d4 44 3d
       0.05736384 -0.03693561 0.050948095 0.048053976
000140 5d e0 e0 ba 49 8f 6a bc 32 24 dd 3c f8 49 cf 3c
       -0.0017156709 -0.014316388 0.026994798 0.025303826
000150 d2 6e 23 bb 11 22 89 3b 2f 25 6a bd ea e2 83 bd
       -0.002493788 0.0041849692 -0.057164367 -0.06439765
000160 07 96 eb 3c 00 05 91 3c bf 4e 93 bc 06 29 b3 bc
       0.028758062 0.01770258 -0.017981885 -0.021870147
000170 2a 1a b8 bc c4 e2 82 bb 7d 74 de 3c d4 07 34 bc
       -0.022473413 -0.0039943177 0.027155155 -0.0109881945

convs.0.gat.att_src f4 [1, 1, 96]
000000 76 28 95 bd a8 1d 33 3d 03 3d 25 3e 9a 2d 48 be
       -0.07283108 0.043729454 0.16136555 -0.19548646
000010 36 9b 4e be f6 55 1b be 65 9b c3 3d 94 78 bf bd
       -0.20176396 -0.1516951 0.095511235 -0.0934917
000020 86 f4 17 be a6 0b 48 3e fd 18 29 3d 8f c6 63 3e
       -0.14839372 0.19535694 0.041283596 0.22243713
000030 fb fc 8d bd 73 de 14 be b1 d9 9d 3c 7c 25 0a 3e
       -0.06933018 -0.14537983 0.019268842 0.13490862
000040 39 28 20 be 6a 3f 30 be 9d d2 e6 3d 37 88 c5 bd
       -0.15640344 -0.1721169 0.1127064 -0.096451215
000050 69 8f 0a be 11 a4 13 bd d3 e7 c2 3d 2d de 3d 3e
       -0.13531269 -0.036045138 0.09516873 0.18541785
000060 8a 18 7c be b9 6b 65 3e 32 76 48 be 1f 45 62 be
       -0.24618736 0.22404374 -0.19576338 -0.2209668
000070 6f f0 7c be 5e 2b a4 3d 17 6f 1b be 7b cf 43 bc
       -0.24701093 0.08016084 -0.15179096 -0.011951323
000080 28 b3 45 bd 3a 82 69 3e de 88 5d be 65 48 cd 3d
       -0.04826656 0.22803584 -0.21634242 0.10023574
000090 fb b2 a7 3d a0 66 77 be b7 6b 4f 3e c6 f0 10 b9
       0.08188435 -0.24160242 0.20255934 -0.00013822605
0000a0 75 fe 78 3e 9f fc 00 be 7a 8f 59 bc 9d 0a c0 3d
       0.24315818 -0.12596367 -0.013278836 0.09377024
0000b0 7e 65 64 3e 6b 27 b9 3d d1 c7 bc 3d a5 79 16 be
       0.22304341 0.090407215 0.092177995 -0.14694841
0000c0 bc af ee 3d 8a b8 62 3e ac 04 29 3e 80 c5 45 be
       0.116546124 0.22140709 0.16505688 -0.19313622
0000d0 c6 cf 7e bd f5 ae e4 bc 65 a0 11 3e cc 41 72 3e
       -0.062209867 -0.027915457 0.14221342 0.23657912
0000e0 06 84 59 bd ca 83 f9 bd 07 53 ef 3c 54 b8 27 be
       -0.053104423 -0.1218334 0.029214395 -0.1637891
0000f0 40 f9 01 be e9 17 06 be 31 13 44 3e 17 a5 00 3e
       -0.12692738 -0.13095059 0.19147946 0.12562977
000100 d2 ab 61 3e 89 82 b9 bc ae 99 82 be af 46 a3 3d
       0.220382 -0.022645252 -0.25507873 0.07972466
000110 8a 31 48 3e 7f 0e 66 be 8e 88 b1 bd 55 f1 c6 bd
       0.19550148 -0.22466467 -0.08668624 -0.09713999
000120 f5 29 a6 bd 3c b9 d3 bd fe 5d dd 3d be 52 36 bd
       -0.081134714 -0.10338065 0.10808943 -0.044512503
000130 9a ca 1f be 82 1a 4c bd ec ba a6 bd 13 1e 53 3e
       -0.1560463 -0.049829967 -0.08141121 0.20616941
000140 b0 12 28 bd 75 d4 2a be cc 5e 54 bd 6a bd a7 bd
       -0.041033447 -0.16682608 -0.051848218 -0.08190425
000150 8b 40 e3 bd a8 e4 0c 3d 34 97 37 3e 5b 32 28 be
       -0.11096295 0.03439775 0.17928773 -0.16425459
000160 03 4d 0a 3e cf c1 f4 bd 52 98 21 be 9c fc d2 3d
       0.1350594 -0.119510286 -0.15780762 0.10302088
000170 f1 8e 42 be 75 67 cf 3d 93 67 1e be 54 46 5c 3e
       -0.1899984 0.10127155 -0.15469198 0.21511203

convs.0.gat.att_dst f4 [1, 1, 96]
000000 f9 01 a8 bd d4 e1 80 3d c1 14 79 bd eb d1 47 be
       -0.08203501 0.06293073 -0.060810808 -0.19513671
000010 2e d9 ef 3d eb e0 4a be 12 ee 00 be ec b8 e4 bc
       0.117113456 -0.19812362 -0.12590817 -0.027920209
000020 9a 68 1f be e3 c1 21 3e 12 3a 19 3e 71 83 0e be
       -0.15567246 0.15796618 0.14963558 -0.13917328
000030 10 c2 6f 3e 66 33 3c be 90 e3 f0 bd 1b 8e 4d be
       0.23413873 -0.18378982 -0.11762154 -0.2007374
000040 aa 94 72 3e 8e 11 2e 3e 47 99 ae 3d 91 06 d1 bd
       0.23689523 0.16998884 0.08525329 -0.102063306
000050 65 1a 0f 3e 61 ff bb 3d 33 59 53 3e 66 77 17 3e
       0.13974912 0.09179569 0.20639496 0.1479164
000060 b8 ca 50 3e 17 f3 6d 3e 86 31 0e 3d dc 8f 75 3e
       0.20389831 0.23237263 0.034715198 0.23980659
000070 71 0f 8f 3d d6 81 02 3e 8a 05 aa 3d d8 14 66 be
       0.06985367 0.12744841 0.08301838 -0.22468889
000080 d4 31 91 bc ec 36 15 3e 54 46 f8 bc 16 84 07 be
       -0.017723955 0.14571732 -0.030306973 -0.1323398
000090 65 1a ed 3d 7f 95 42 be 6c 1a 0e bc aa 6f 45 bd
       0.115773 -0.1900234 -0.008673292 -0.048202194
0000a0 18 5d 9b 3d 4a 45 90 bd f1 b7 ec 3d 1a 40 b0 bd
       0.075861156 -0.07044466 0.115585215 -0.086059764
0000b0 bf 8c 99 3d d1 e4 1e bd 5e 9f 32 be 0b f6 36 be
       0.07497548 -0.038792435 -0.17443606 -0.17867295
0000c0 1f 7b 86 bd 39 1c 59 bd d4 95 48 be 96 a9 fb 3d
       -0.06566452 -0.05300543 -0.19588405 0.12288205
0000d0 db f3 15 3d 3f 79 82 3e 69 44 33 be dc 7a 5b 3e
       0.03660951 0.25483128 -0.17506565 0.21433586
0000e0 98 82 1a 3e b6 0c bc bd 55 5f d9 3d 54 2c 36 be
       0.1508888 -0.09182112 0.10613886 -0.17790347
0000f0 97 3e 0e be 6e 23 09 3e 50 ce 85 bd e8 a0 67 be
       -0.13891064 0.13392422 -0.065334916 -0.22619975
000100 34 6d 10 be 36 c2 84 3d cb 4d aa bc dd 66 cf bc
       -0.14104158 0.06482355 -0.020789048 -0.025317604
000110 f0 c3 c0 bd 6c 71 5e be c5 02 41 be 47 9c 36 3e
       -0.09412372 -0.21722955 -0.18848713 0.17833053
000120 c7 06 0a be e0 3e 2f 3d 24 cf 06 3e b5 6c 7a be
       -0.13479148 0.04278457 0.13164955 -0.24455531
000130 e7 d7 60 3e c9 fb 1e be b4 28 a4 3c 2b 58 03 3d
       0.2195736 -0.15525736 0.02003894 0.032066505
000140 20 9a 3b be 47 51 25 bd df 97 cf bd d9 28 34 bd
       -0.18320513 -0.040360715 -0.10136389 -0.043984268
000150 70 52 63 bd 3a 32 44 3e ee 2a 11 be c1 e7 18 3e
       -0.05549854 0.19159785 -0.14176533 0.14932157
000160 e8 94 c5 bc aa a0 3d 3d 0a 0e 96 3d 11 81 e0 bc
       -0.024118856 0.0462958 0.073268965 -0.027405294
000170 9a 5d c5 3c 99 b3 32 3d 5e a4 a2 3d 55 19 4b bd
       0.024092484 0.04362831 0.07941507 -0.049584705

convs.0.gat.bias f4 [96]
000000 0d ca 42 38 53 7b 82 b7 02 59 0f 38 1d 25 83 b7
       4.644138e-05 -1.5554635e-05 3.417675e-05 -1.56337e-05
000010 45 ba b2 38 a5 7c a8 36 ac 87 02 36 7f e4 f8 36
       8.522397e-05 5.0213007e-06 1.945048e-06 7.4175764e-06
000020 43 7d 1e b7 25 f9 2f 37 59 bb 92 b8 cd 9d 82 37
       -9.446699e-06 1.0488821e-05 -6.996719e-05 1.557069e-05
000030 2c 39 78 35 d0 59 59 b7 af 88 89 b6 f1 92 d7 b6
       9.2470395e-07 -1.2955119e-05 -4.0988302e-06 -6.4246055e-06
000040 db d6 19 38 d4 f2 ea b7 ae 86 23 37 e2 4e 96 37
       3.6678142e-05 -2.800805e-05 9.746915e-06 1.7918126e-05
000050 d6 2a 63 36 92 50 16 b7 e1 48 97 38 99 f9 31 b7
       3.385057e-06 -8.959456e-06 7.213816e-05 -1.0608136e-05
000060 7f 80 15 b8 6f 3b 17 b8 5c 09 05 36 63 a3 51 b7
       -3.564404e-05 -3.6056557e-05 1.9823992e-06 -1.2495412e-05
000070 e0 b5 17 b6 9e 01 d5 35 7c e5 27 37 e3 62 a5 37
       -2.2606619e-06 1.5870207e-06 1.0007407e-05 1.971558e-05
000080 0a 76 a9 35 0d d4 15 37 a7 0a 2a b7 2a 5c aa b8
       1.2625835e-06 8.930464e-06 -1.013527e-05 -8.1233986e-05
000090 73 c1 37 b7 e5 2e 6c 38 8a 69 d4 b7 81 ed 11 b8
       -1.0952691e-05 5.631046e-05 -2.5321515e-05 -3.4791887e-05
0000a0 25 fe 3f 36 80 df 9e 37 fe 5b 16 37 c6 75 0d b4
       2.860915e-06 1.8939143e-05 8.962115e-06 -1.3174494e-07
0000b0 7b 6d 8e b7 5c 08 94 b5 51 f5 c3 34 02 75 6d 35
       -1.69787e-05 -1.1029292e-06 3.6500072e-07 8.845965e-07
0000c0 53 0a f5 b8 86 9e 86 b8 13 da f6 37 62 75 5d b6
       -0.000116844334 -6.419145e-05 2.9427034e-05 -3.2999892e-06
0000d0 3e ab 60 37 0b 91 fc b8 7f 02 16 b8 de ba 9b b7
       1.3391311e-05 -0.00012043313 -3.576511e-05 -1.8564457e-05
0000e0 87 03 82 b6 6e 47 b5 35 c5 d4 90 37 cf 43 6c b6
       -3.8747125e-06 1.350634e-06 1.7265216e-05 -3.520621e-06
0000f0 ab b9 d8 37 47 6e cc b6 45 07 28 38 3e 18 57 b6
       2.5835665e-05 -6.0925117e-06 4.006109e-05 -3.2051607e-06
000100 8a 28 bf b5 b0 5d 78 36 a1 0c b3 38 0e 8b 89 36
       -1.4242407e-06 3.7009413e-06 8.5377374e-05 4.0991063e-06
000110 2f c4 d2 37 ef 2e 18 38 1e c8 9a 37 38 bc cb 37
       2.5125306e-05 3.6283334e-05 1.8451417e-05 2.4287132e-05
000120 d3 74 2c 35 66 f0 33 35 c5 3d 01 37 4e 74 e4 b6
       6.4244995e-07 6.703252e-07 7.703381e-06 -6.808469e-06
000130 b9 90 9b 36 08 ad b4 b7 4c 6e ed b8 1f ec 05 35
       4.636208e-06 -2.1538246e-05 -0.00011321585 4.988996e-07
000140 69 20 a4 b8 4d 90 7a 36 18 3c c6 37 ec 59 99 b7
       -7.826166e-05 3.7336897e-06 2.3631423e-05 -1.8280894e-05
000150 77 97 0f 36 c7 13 60 b8 08 39 c4 36 16 ba 3a b7
       2.1396825e-06 -5.342418e-05 5.8478945e-06 -1.112979e-05
000160 4b 49 7a b6 7d 4c 74 36 97 f2 97 37 64 85 32 37
       -3.7295565e-06 3.6403355e-06 1.8113567e-05 1.0640684e-05
000170 f9 dc 58 37 2d c6 44 b7 f1 26 61 b8 da f2 75 b7
       1.29260525e-05 -1.1728652e-05 -5.3680447e-05 -1.4659681e-05

convs.0.gat.lin_src.weight f4 [96, 56]
000000 de ea 25 3c 9e e3 34 bd c6 7f 24 bc 22 99 22 be
       0.0101267975 -0.044162385 -0.010040229 -0.15878728
000010 05 e9 af 3c 6e a3 bb 3d 4d f6 c3 bc 75 99 3b 3e
       0.021473417 0.09162031 -0.023921156 0.18320258
000020 a7 9e ce bd 46 8e 69 3c 92 16 cf 3d 94 d4 08 3d
       -0.10088854 0.014255112 0.10111727 0.033405855
000030 fb 6f 02 be 3c 76 2a 3d ca 8f 2d 3e c1 41 ab 3c
       -0.1273803 0.041616663 0.16949382 0.020905377
000040 93 44 3b 3e bd 80 ac bd df 53 93 bd 25 7f 45 3d
       0.18287878 -0.084229924 -0.071937315 0.048216958
000050 ca f5 01 be 0c e6 35 be af 35 27 be e7 fa fc 3c
       -0.12691417 -0.17763537 -0.16329072 0.030881358
000060 9e 6e 31 3e 9c df f6 3c 6a c4 f3 3d b1 12 13 be
       0.17327353 0.030135922 0.119026974 -0.14362599
000070 44 22 01 bd 04 9e 20 3d 13 6c c0 3d 37 d2 e2 3d
       -0.03152682 0.039213195 0.093956135 0.110752515
000080 de c8 f2 3d 18 3a 09 3e e0 d9 72 3d d0 38 2a 3e
       0.118547186 0.13401067 0.059289813 0.16623235
000090 cd 1c 17 be 61 9b 40 3d c2 e9 13 bd 87 cc 3b bd
       -0.1475708 0.04702318 -0.0361116 -0.04584935
0000a0 00 3d 42 be 8d 5d 3d 3e 6f 6c 32 3e 48 a3 02 3e
       -0.18968582 0.18492718 0.17424177 0.127576
0000b0 ec 94 f9 bc b7 c8 70 3d cc ad 80 bd 06 19 0b bd
       -0.03046652 0.058785167 -0.06283149 -0.03395941
0000c0 74 39 6e bd 9d 0f 41 3e 4e b9 49 3d 83 6d df 3d
       -0.05816026 0.18853612 0.049248986 0.109095596
0000d0 c2 a5 69 3d 53 2e 03 bd cf de 39 be 1e 16 2e be
       0.057042845 -0.0320266 -0.18151401 -0.17000625
0000e0 d7 96 b6 bd 0d 01 28 be 20 e7 be b9 e1 81 e5 3d
       -0.08915489 -0.16406651 -0.00036411826 0.11206413
0000f0 22 c8 e5 bd 50 b8 e3 3d 6b d6 36 be 8f 0c 9b bd
       -0.11219813 0.11119139 -0.17855231 -0.07570755
000100 44 c3 eb 3d 00 46 c2 bd f3 c7 cc 3d 3d cb d2 3d
       0.11511853 -0.09486008 0.09999075 0.10292671
000110 4b f7 c8 3c 45 a7 0c be 1c ab 9a 3d ca 09 c9 bd
       0.024531981 -0.13735683 0.07552168 -0.0981632
000120 30 fd 9d bd d9 0a 3a 3e ce 49 21 3e 4c 10 64 3d
       -0.07714307 0.181682 0.1575081 0.055679604
000130 74 33 96 bd 92 de 59 bc ad 18 ed bc 32 1d 25 bd
       -0.07334033 -0.013297694 -0.02894243 -0.040311046
000140 a9 12 d0 3d 63 a2 f6 bd 16 0b 3c 3e e2 57 ff 3d
       0.10159809 -0.120426916 0.18363604 0.12467934
000150 1a 1d 45 3d 18 02 95 3c 76 73 ea 3a 76 b5 fa bd
       0.048123457 0.018189475 0.0017887193 -0.12241642
000160 05 b6 29 3e 7c 16 7c bd f6 6a 19 3e 07 76 0f 3e
       0.16573341 -0.06154488 0.14982209 0.14009868
000170 71 8f 6f bd a2 09 f3 3d 05 c2 28 be 7a 84 ee 3d
       -0.058486406 0.11867072 -0.16480263 0.11646362
000180 aa 72 05 3c 79 3a 20 3e 15 ad a1 bd b0 5c 83 bd
       0.008145014 0.15647306 -0.07894341 -0.06414163
000190 8d fe 09 3e 6a ad b3 bd 48 56 0a bd a5 72 2f bb
       0.1347601 -0.087733105 -0.03377369 -0.0026771214
0001a0 49 db e9 3d 70 18 4b be ee ef 92 bd e6 da 1c 3e
       0.114187784 -0.19833541 -0.07174669 0.15317878
0001b0 e0 fd 1f 3d d3 22 2a 3e 77 a9 48 3a 91 24 82 bd
       0.039060473 0.16614847 0.0007654647 -0.06354631
0001c0 7b 6a 4a 3c d7 a4 de 3d 5f 82 54 be 1e 0e 8d bd
       0.0123544885 0.108712845 -0.20752858 -0.06887458
0001d0 31 82 e4 3d 93 6e 8e 3d a0 99 48 be 35 ba 57 3d
       0.111576445 0.06954684 -0.19589853 0.052667815
0001e0 26 1e bc 3c d5 e6 e0 3d 52 81 05 3e 5f 19 18 3d
       0.022963595 0.10981528 0.13037613 0.03713357
0001f0 a4 45 17 be 1c 85 14 bc 67 8b 8a 3d d6 5b 53 3c
       -0.1477266 -0.009064939 0.0676487 0.012900313
000200 c6 06 05 3e ac ba 8b 3d bc 0c e8 3d 73 59 d6 3d
       0.12990865 0.06822714 0.11330554 0.1046628
000210 d3 7e 4b be 6e ee 26 3e 8c 08 8c bd 87 dc 19 3e
       -0.19872598 0.16301891 -0.06837568 0.15025531
000220 9f 6b a7 bd 27 0a ea bd a4 13 e8 3d a8 61 f6 bd
       -0.08174824 -0.11427718 0.11331871 -0.12030345
000230 5c a2 d5 3d 7d 84 22 be 1f 08 bc bd a1 b1 02 be
       0.10431358 -0.15870853 -0.091812365 -0.12763073
000240 d8 77 9c 3d 98 2c 3b 3e 39 7d 43 be 75 6f 61 3d
       0.07640046 0.1827873 -0.19090737 0.055037934
000250 2b f7 0d be 5f be f5 bc 8e ed 37 bd 9b 54 31 3e
       -0.13863818 -0.029998003 -0.044904284 0.1731743
000260 a8 68 3d 3d f7 a5 a1 3d a8 75 4f 3d 59 80 d0 3d
       0.046242386 0.078929834 0.050649315 0.101807304
000270 9a 05 1d 3e 59 e8 28 be 2b 43 48 bd b1 74 19 3e
       0.15334168 -0.16494884 -0.04889218 0.1498592
000280 d7 8c 01 be cb 2f 45 3e 53 c7 dd bc e1 e8 f0 3d
       -0.12651382 0.19256513 -0.027072584 0.11763168
000290 8e 0a bc 3d 27 40 7b 3d 78 fa cc 3d 86 79 2c 3e
       0.09181701 0.061340477 0.100087106 0.16843233
0002a0 f2 d4 42 bd 1f 3c 29 be d8 b6 34 3e 40 98 4f 3d
       -0.04756636 -0.1652684 0.17647874 0.050682306
0002b0 64 ef de bd 3e 97 d2 bb d2 61 9a bc 54 6d 22 3d
       -0.10885504 -0.006426721 -0.018845472 0.039655045
0002c0 82 2a 1b 3d dc 0f 0b be 6e fe 17 be b4 a3 fa bd
       0.037882335 -0.13580269 -0.14843151 -0.12238255
0002d0 13 c0 42 bc c8 9f 4c 3e ea b2 0a 3e a2 6c 3b 3e
       -0.011886614 0.19982827 0.13544813 0.18303159
0002e0 8c 6a aa 3d ff 82 41 be 4e 7d 44 3d 86 43 e8 3d
       0.083211035 -0.18897627 0.047971062 0.11341004
0002f0 61 d2 eb bc f3 93 84 bc a7 ea 44 3e 51 8d 5a 3e
       -0.02878684 -0.016183829 0.19230138 0.2134297
000300 66 af 95 3d c1 1d c6 3d d1 f4 0f be b0 cd d3 3a
       0.07308845 0.09673644 -0.14058234 0.0016159322
000310 e6 28 2f 3e 36 e3 20 bd 9a 7e ea 3c f9 8a 07 be
       0.17105445 -0.039279185 0.028624821 -0.13236608
000320 08 e2 16 3e 20 7b f6 bd 13 c1 20 bd e3 bb ed 3d
       0.14734662 -0.12035203 -0.03924663 0.11608102
000330 0b 03 40 3d 4b d8 6d bd 65 7a a3 bd 88 c7 03 3e
       0.046877902 -0.0580676 -0.07982329 0.12869084
000340 47 2a 01 3e b9 bf 1c 3e 55 ed 1c be 13 9e f2 3d
       0.12613784 0.15307511 -0.1532491 0.118465565
000350 5d e4 64 3d 9c 6b 91 bd e1 4e 35 3e 70 a5 50 3d
       0.055881847 -0.07100603 0.17705871 0.050939023
000360 cf 10 96 bd e0 ac 46 be 25 9f fb 3d fc 4c 7e 3d
       -0.07327425 -0.19401884 0.12286214 0.062085137
000370 df e6 bd 3c 2c 3e cf 3d 32 37 e8 3c a6 98 e3 bd
       0.023181377 0.1011928 0.028346632 -0.111131
000380 e5 f6 02 3e bf 1c 2b bd 28 d0 a5 3d 94 4e 9b bd
       0.12789495 -0.04177546 0.08096343 -0.07583347
000390 15 13 21 be ff 48 37 be f2 5c 47 be 0d 36 27 be
       -0.15729935 -0.1789894 -0.1946905 -0.16329212
0003a0 b7 44 99 3d 76 9a b1 bd b3 3d 5b bd 1b 4f ad bd
       0.074838094 -0.08672039 -0.053525638 -0.08462354
0003b0 89 ff 0d be 14 62 a7 bd c3 c7 91 bd 3e 3f b4 bc
       -0.1386701 -0.08173004 -0.0711818 -0.022002812
0003c0 3c d9 b0 bc 6b 9f 10 3d da 92 d6 3a c7 6b 25 be
       -0.02158796 0.035308283 0.001637067 -0.16154395
0003d0 31 61 4f be c2 3f 04 3e 3c ec c4 bc a2 8b c8 3c
       -0.2025192 0.12914947 -0.024038427 0.024480645
0003e0 19 6b 24 3d 09 11 39 bd a5 87 8b bd 27 b7 ce 3d
       0.0401412 -0.04518226 -0.068129815 0.10093527
0003f0 8b 38 27 3e fc 0f b8 bd 58 bf de bd 0a 1e a5 bd
       0.16330163 -0.08987424 -0.1087634 -0.0806237

convs.0.gat.lin_dst.weight f4 [96, 56]
000000 de ea 25 3c 9e e3 34 bd c6 7f 24 bc 22 99 22 be
       0.0101267975 -0.044162385 -0.010040229 -0.15878728
000010 05 e9 af 3c 6e a3 bb 3d 4d f6 c3 bc 75 99 3b 3e
       0.021473417 0.09162031 -0.023921156 0.18320258
000020 a7 9e ce bd 46 8e 69 3c 92 16 cf 3d 94 d4 08 3d
       -0.10088854 0.014255112 0.10111727 0.033405855
000030 fb 6f 02 be 3c 76 2a 3d ca 8f 2d 3e c1 41 ab 3c
       -0.1273803 0.041616663 0.16949382 0.020905377
000040 93 44 3b 3e bd 80 ac bd df 53 93 bd 25 7f 45 3d
       0.18287878 -0.084229924 -0.071937315 0.048216958
000050 ca f5 01 be 0c e6 35 be af 35 27 be e7 fa fc 3c
       -0.12691417 -0.17763537 -0.16329072 0.030881358
000060 9e 6e 31 3e 9c df f6 3c 6a c4 f3 3d b1 12 13 be
       0.17327353 0.030135922 0.119026974 -0.14362599
000070 44 22 01 bd 04 9e 20 3d 13 6c c0 3d 37 d2 e2 3d
       -0.03152682 0.039213195 0.093956135 0.110752515
000080 de c8 f2 3d 18 3a 09 3e e0 d9 72 3d d0 38 2a 3e
       0.118547186 0.13401067 0.059289813 0.16623235
000090 cd 1c 17 be 61 9b 40 3d c2 e9 13 bd 87 cc 3b bd
       -0.1475708 0.04702318 -0.0361116 -0.04584935
0000a0 00 3d 42 be 8d 5d 3d 3e 6f 6c 32 3e 48 a3 02 3e
       -0.18968582 0.18492718 0.17424177 0.127576
0000b0 ec 94 f9 bc b7 c8 70 3d cc ad 80 bd 06 19 0b bd
       -0.03046652 0.058785167 -0.06283149 -0.03395941
0000c0 74 39 6e bd 9d 0f 41 3e 4e b9 49 3d 83 6d df 3d
       -0.05816026 0.18853612 0.049248986 0.109095596
0000d0 c2 a5 69 3d 53 2e 03 bd cf de 39 be 1e 16 2e be
       0.057042845 -0.0320266 -0.18151401 -0.17000625
0000e0 d7 96 b6 bd 0d 01 28 be 20 e7 be b9 e1 81 e5 3d
       -0.08915489 -0.16406651 -0.00036411826 0.11206413
0000f0 22 c8 e5 bd 50 b8 e3 3d 6b d6 36 be 8f 0c 9b bd
       -0.11219813 0.11119139 -0.17855231 -0.07570755
000100 44 c3 eb 3d 00 46 c2 bd f3 c7 cc 3d 3d cb d2 3d
       0.11511853 -0.09486008 0.09999075 0.10292671
000110 4b f7 c8 3c 45 a7 0c be 1c ab 9a 3d ca 09 c9 bd
       0.024531981 -0.13735683 0.07552168 -0.0981632
000120 30 fd 9d bd d9 0a 3a 3e ce 49 21 3e 4c 10 64 3d
       -0.07714307 0.181682 0.1575081 0.055679604
000130 74 33 96 bd 92 de 59 bc ad 18 ed bc 32 1d 25 bd
       -0.07334033 -0.013297694 -0.02894243 -0.040311046
000140 a9 12 d0 3d 63 a2 f6 bd 16 0b 3c 3e e2 57 ff 3d
       0.10159809 -0.120426916 0.18363604 0.12467934
000150 1a 1d 45 3d 18 02 95 3c 76 73 ea 3a 76 b5 fa bd
       0.048123457 0.018189475 0.0017887193 -0.12241642
000160 05 b6 29 3e 7c 16 7c bd f6 6a 19 3e 07 76 0f 3e
       0.16573341 -0.06154488 0.14982209 0.14009868
000170 71 8f 6f bd a2 09 f3 3d 05 c2 28 be 7a 84 ee 3d
       -0.058486406 0.11867072 -0.16480263 0.11646362
000180 aa 72 05 3c 79 3a 20 3e 15 ad a1 bd b0 5c 83 bd
       0.008145014 0.15647306 -0.07894341 -0.06414163
000190 8d fe 09 3e 6a ad b3 bd 48 56 0a bd a5 72 2f bb
       0.1347601 -0.087733105 -0.03377369 -0.0026771214
0001a0 49 db e9 3d 70 18 4b be ee ef 92 bd e6 da 1c 3e
       0.114187784 -0.19833541 -0.07174669 0.15317878
0001b0 e0 fd 1f 3d d3 22 2a 3e 77 a9 48 3a 91 24 82 bd
       0.039060473 0.16614847 0.0007654647 -0.06354631
0001c0 7b 6a 4a 3c d7 a4 de 3d 5f 82 54 be 1e 0e 8d bd
       0.0123544885 0.108712845 -0.20752858 -0.06887458
0001d0 31 82 e4 3d 93 6e 8e 3d a0 99 48 be 35 ba 57 3d
       0.111576445 0.06954684 -0.19589853 0.052667815
0001e0 26 1e bc 3c d5 e6 e0 3d 52 81 05 3e 5f 19 18 3d
       0.022963595 0.10981528 0.13037613 0.03713357
0001f0 a4 45 17 be 1c 85 14 bc 67 8b 8a 3d d6 5b 53 3c
       -0.1477266 -0.009064939 0.0676487 0.012900313
000200 c6 06 05 3e ac ba 8b 3d bc 0c e8 3d 73 59 d6 3d
       0.12990865 0.06822714 0.11330554 0.1046628
000210 d3 7e 4b be 6e ee 26 3e 8c 08 8c bd 87 dc 19 3e
       -0.19872598 0.16301891 -0.06837568 0.15025531
000220 9f 6b a7 bd 27 0a ea bd a4 13 e8 3d a8 61 f6 bd
       -0.08174824 -0.11427718 0.11331871 -0.12030345
000230 5c a2 d5 3d 7d 84 22 be 1f 08 bc bd a1 b1 02 be
       0.10431358 -0.15870853 -0.091812365 -0.12763073
000240 d8 77 9c 3d 98 2c 3b 3e 39 7d 43 be 75 6f 61 3d
       0.07640046 0.1827873 -0.19090737 0.055037934
000250 2b f7 0d be 5f be f5 bc 8e ed 37 bd 9b 54 31 3e
       -0.13863818 -0.029998003 -0.044904284 0.1731743
000260 a8 68 3d 3d f7 a5 a1 3d a8 75 4f 3d 59 80 d0 3d
       0.046242386 0.078929834 0.050649315 0.101807304
000270 9a 05 1d 3e 59 e8 28 be 2b 43 48 bd b1 74 19 3e
       0.15334168 -0.16494884 -0.04889218 0.1498592
000280 d7 8c 01 be cb 2f 45 3e 53 c7 dd bc e1 e8 f0 3d
       -0.12651382 0.19256513 -0.027072584 0.11763168
000290 8e 0a bc 3d 27 40 7b 3d 78 fa cc 3d 86 79 2c 3e
       0.09181701 0.061340477 0.100087106 0.16843233
0002a0 f2 d4 42 bd 1f 3c 29 be d8 b6 34 3e 40 98 4f 3d
       -0.04756636 -0.1652684 0.17647874 0.050682306
0002b0 64 ef de bd 3e 97 d2 bb d2 61 9a bc 54 6d 22 3d
       -0.10885504 -0.006426721 -0.018845472 0.039655045
0002c0 82 2a 1b 3d dc 0f 0b be 6e fe 17 be b4 a3 fa bd
       0.037882335 -0.13580269 -0.14843151 -0.12238255
0002d0 13 c0 42 bc c8 9f 4c 3e ea b2 0a 3e a2 6c 3b 3e
       -0.011886614 0.19982827 0.13544813 0.18303159
0002e0 8c 6a aa 3d ff 82 41 be 4e 7d 44 3d 86 43 e8 3d
       0.083211035 -0.18897627 0.047971062 0.11341004
0002f0 61 d2 eb bc f3 93 84 bc a7 ea 44 3e 51 8d 5a 3e
       -0.02878684 -0.016183829 0.19230138 0.2134297
000300 66 af 95 3d c1 1d c6 3d d1 f4 0f be b0 cd d3 3a
       0.07308845 0.09673644 -0.14058234 0.0016159322
000310 e6 28 2f 3e 36 e3 20 bd 9a 7e ea 3c f9 8a 07 be
       0.17105445 -0.039279185 0.028624821 -0.13236608
000320 08 e2 16 3e 20 7b f6 bd 13 c1 20 bd e3 bb ed 3d
       0.14734662 -0.12035203 -0.03924663 0.11608102
000330 0b 03 40 3d 4b d8 6d bd 65 7a a3 bd 88 c7 03 3e
       0.046877902 -0.0580676 -0.07982329 0.12869084
000340 47 2a 01 3e b9 bf 1c 3e 55 ed 1c be 13 9e f2 3d
       0.12613784 0.15307511 -0.1532491 0.118465565
000350 5d e4 64 3d 9c 6b 91 bd e1 4e 35 3e 70 a5 50 3d
       0.055881847 -0.07100603 0.17705871 0.050939023
000360 cf 10 96 bd e0 ac 46 be 25 9f fb 3d fc 4c 7e 3d
       -0.07327425 -0.19401884 0.12286214 0.062085137
000370 df e6 bd 3c 2c 3e cf 3d 32 37 e8 3c a6 98 e3 bd
       0.023181377 0.1011928 0.028346632 -0.111131
000380 e5 f6 02 3e bf 1c 2b bd 28 d0 a5 3d 94 4e 9b bd
       0.12789495 -0.04177546 0.08096343 -0.07583347
000390 15 13 21 be ff 48 37 be f2 5c 47 be 0d 36 27 be
       -0.15729935 -0.1789894 -0.1946905 -0.16329212
0003a0 b7 44 99 3d 76 9a b1 bd b3 3d 5b bd 1b 4f ad bd
       0.074838094 -0.08672039 -0.053525638 -0.08462354
0003b0 89 ff 0d be 14 62 a7 bd c3 c7 91 bd 3e 3f b4 bc
       -0.1386701 -0.08173004 -0.0711818 -0.022002812
0003c0 3c d9 b0 bc 6b 9f 10 3d da 92 d6 3a c7 6b 25 be
       -0.02158796 0.035308283 0.001637067 -0.16154395
0003d0 31 61 4f be c2 3f 04 3e 3c ec c4 bc a2 8b c8 3c
       -0.2025192 0.12914947 -0.024038427 0.024480645
0003e0 19 6b 24 3d 09 11 39 bd a5 87 8b bd 27 b7 ce 3d
       0.0401412 -0.04518226 -0.068129815 0.10093527
0003f0 8b 38 27 3e fc 0f b8 bd 58 bf de bd 0a 1e a5 bd
       0.16330163 -0.08987424 -0.1087634 -0.0806237

convs.1.lin_m.weight f4 [2, 196]
000000 8a 20 2e 3d 64 57 05 3a 42 9c c3 39 92 b2 e3 3c
       0.0425115 0.00050865696 0.0003730972 0.02779511
000010 1f a9 9c bc 07 a9 fd 3b 3b fc 5c bd 96 36 35 3c
       -0.019123612 0.007741097 -0.053951483 0.011060378
000020 67 02 59 ba 1b 0d 9d 3d a6 1e 37 bd b6 a0 43 3d
       -0.0008278251 0.07668515 -0.044706963 0.047760688
000030 77 54 67 3d d2 92 8c 3c 3c d6 cb bc 4d 20 67 3d
       0.056477036 0.017159853 -0.024882428 0.05642729
000040 4a d0 cd bb d1 b0 38 bd b0 96 12 bc e4 10 c0 bc
       -0.0062809335 -0.0450905 -0.0089470595 -0.023445554
000050 fc 3f 87 bd c6 fe f3 bc e2 bb 2f bd 33 a1 3e 3d
       -0.06604001 -0.029784571 -0.04290379 0.04654045
000060 24 1e 5a bd ef b5 01 bc 41 98 0a 3d 97 fa 89 3d
       -0.0532514 -0.0079169115 0.033836607 0.06737249
000070 d6 16 23 bc 1d 52 02 3b 47 d1 3e 3d 59 69 94 3c
       -0.009954175 0.001988537 0.0465863 0.01811664
000080 85 f7 6a 3d 7f 48 76 3d de be 87 3d 71 a5 1f bd
       0.05736496 0.06012773 0.06628202 -0.038976137
000090 b3 09 2e 3c d2 f2 3c 3d b3 2e ee 3c dd 5d e6 3c
       0.01062243 0.04613001 0.029075002 0.02812093
0000a0 6f 72 c5 3c e4 86 65 bc ad 7a 7b bd ed f4 1f bb
       0.024102418 -0.014009211 -0.06139629 -0.0024407462
0000b0 db f5 2e bd 45 9e c9 3a 29 18 fb 3b fe 7f 59 3d
       -0.042714935 0.0015382251 0.007662792 0.05310058
0000c0 ed 75 30 bd 78 72 31 3d 79 0c 69 3d 42 67 61 3c
       -0.043081213 0.043322057 0.05689666 0.013757529
0000d0 41 a9 64 bb f8 09 e5 ba c4 c4 8a 3d e6 ac 1e bd
       -0.0034890922 -0.0017474284 0.06775811 -0.038739108
0000e0 37 0d dc bc 90 af 5d 3c 20 d8 39 3c 82 c4 6f 3c
       -0.02686177 0.013530627 0.011343032 0.014634253
0000f0 4a 97 a4 39 ff 40 05 3d 0c 8a 8c bb af ea 48 3d
       0.00031393237 0.03253269 -0.0042889174 0.049051937
000100 93 4b 59 3c 02 61 fc 3b 16 30 46 bd 99 d3 5e bd
       0.013262647 0.007701994 -0.048385702 -0.054401014
000110 48 3e 81 bd 6e a1 87 3d 66 45 14 bc f9 fa f0 3c
       -0.06310707 0.06622587 -0.009049749 0.029416548
000120 63 07 aa 3b 96 31 60 3c 38 2f 84 3d 8c 65 11 bd
       0.005188869 0.013683697 0.06454319 -0.035497233
000130 26 c9 1b 3d ea 13 68 3d 4d 78 16 bd 02 61 96 3d
       0.038033627 0.056659617 -0.03673582 0.073427215
000140 df 34 6a bc d9 c7 86 3d f8 93 87 bc da d3 8f bd
       -0.014294832 0.06581087 -0.01655005 -0.07022829
000150 3c 29 37 bc 12 aa a6 3d dc 96 8a 3c d7 82 34 bc
       -0.011179265 0.08137907 0.016917638 -0.011017523
000160 33 36 89 3d 13 34 87 3d 85 f1 e3 3c 3e 15 55 3d
       0.06699791 0.06601729 0.027825126 0.05202221
000170 f0 b9 a6 3d fd 94 ac 3c 7b ea 43 3d 16 a3 7d 3c
       0.081409335 0.021067137 0.04783104 0.015480777
000180 0d 5f a5 bd 34 a2 56 bd 31 2c 95 bc 02 64 55 3d
       -0.0807477 -0.052400783 -0.018209549 0.052097328
000190 fa 2b 65 bd d7 20 27 3d 96 8b 45 3c 36 e0 56 bd
       -0.055950142 0.040802803 0.012057206 -0.052459918
0001a0 0a a1 00 bd 65 9a 0d 3d 37 0e 83 3c 59 d4 3e 3d
       -0.03140358 0.03457107 0.01599799 0.04658923
0001b0 67 a8 10 3d 76 18 40 3d 6e fc f1 3c 1d 2b 63 bd
       0.03531685 0.046898328 0.029539313 -0.055461038
0001c0 f2 49 4e bd b2 80 9a bb 3f 24 00 bd 58 5c 1c 3d
       -0.05036349 -0.0047150487 -0.031284567 0.038174003
0001d0 fd dc ca 3b b0 f0 ad bb 5e a8 6e 3a dc 1a 66 3d
       0.0061908946 -0.005308233 0.0009104068 0.05617796
0001e0 a6 91 5a bc 22 c4 21 3a 3c b5 e7 3c c1 a3 2c bc
       -0.013340389 0.00061708887 0.028284661 -0.010537089
0001f0 d2 f8 6a bd c3 f9 12 bd af 38 ef bc 61 1f ae 3c
       -0.0573662 -0.035882723 -0.029201834 0.021255197
000200 ce 11 c8 3c fa 28 ab bc 31 89 9b bd 15 3a 03 3d
       0.024422552 -0.020893563 -0.075945266 0.032037813
000210 29 fa 02 3d 69 39 c8 bc 21 3d 12 3d e5 56 85 3d
       0.031976853 -0.024441438 0.03570283 0.065107144
000220 61 c0 31 3d 96 0c 5c bb 99 0f 44 bd 90 9c 1f 3d
       0.043396357 -0.0033576838 -0.047866438 0.03896767
000230 07 fa ba 3c 80 1a bb bb 97 2c 68 bc ac bd ea bc
       0.0228243 -0.005709946 -0.014170787 -0.028654896
000240 eb a8 5f 3d 6d 19 4b bd cd 63 28 3d aa 84 0b 3d
       0.054604452 -0.049584795 0.041110802 0.034062065
000250 f1 01 4e bd aa 88 0f bd a2 20 4c bd 7f ab 8b bb
       -0.05029482 -0.035042442 -0.04983581 -0.0042623873
000260 a3 86 29 3c 72 e1 71 3d 87 02 63 3d fc 18 fd 3c
       0.010347041 0.059052892 0.055422332 0.030895703
000270 95 0d 28 bd f6 bf 8b bd 04 ad 87 bc f8 3b 53 bd
       -0.041028578 -0.06823723 -0.016561992 -0.051570863
000280 ea f9 3b 3c 53 59 2f 3d 34 42 7d bd f5 2e be bc
       0.011473158 0.042809796 -0.061830714 -0.02321575
000290 a8 9c 0d 3c cc 8b c6 3c 33 7a 6e bd 8a ad a1 3d
       0.008643307 0.024236582 -0.058222007 0.07894428
0002a0 0b 7e 3e 3d b7 68 5e bc 37 f6 91 3d b9 2e c5 3c
       0.046506923 -0.013574771 0.0712704 0.02407013
0002b0 88 c0 d7 bc 69 f8 1a 3d cf 43 95 3d c7 2b 19 bd
       -0.026336923 0.03783456 0.07288324 -0.037395265
0002c0 4e 82 4c bd 2c ac 33 bd db 28 87 3d 53 ed 35 bc
       -0.049928956 -0.043865368 0.065995894 -0.011103946
0002d0 b1 3c 44 3c 4b ba 99 3c 51 54 3a bc 13 12 c9 3c
       0.011977361 0.01876559 -0.011372642 0.024544751
0002e0 0f 26 69 3d 23 f3 29 3d 84 97 7d 3b f7 f6 1e bd
       0.05692106 0.04149164 0.0038695047 -0.038809743
0002f0 69 71 31 3c 25 40 96 3d 2b 80 3e 3b 0e 31 61 3c
       0.010830262 0.07336453 0.0029068093 0.013744606
000300 0c f4 1f bd 35 62 7d 3c 61 6c 31 3b b1 36 69 3d
       -0.0390511 0.015465309 0.0027072656 0.056936923
000310 67 7c a5 bb 55 30 34 3d 3a 97 aa 3c 0a a6 92 bd
       -0.0050502303 0.043991406 0.020824064 -0.07160576
000320 3e 9c 81 bd 03 fd a0 3c a1 86 41 bc 1d a6 e6 3c
       -0.06328629 0.019651895 -0.011811883 0.02815538
000330 cc 83 d4 3a 4b f1 d0 3c 31 fe 8f 3c 60 29 2c 3d
       0.0016213595 0.025505682 0.017577263 0.042031646
000340 24 44 4a 3c 0b 96 81 3d 64 b5 33 3d 62 3b 5f 3c
       0.012345348 0.063274466 0.04387416 0.013624998
000350 ca 4a 2c bd 4a cf ad 3c 9d 34 77 bd f4 5d 3e bc
       -0.042063512 0.021217007 -0.06035291 -0.01161908
000360 7c 41 3a bd eb 65 07 bd 7c 24 57 bd db 09 9a ba
       -0.045472607 -0.03305618 -0.05252503 -0.0011752205
000370 a7 1a 5c bd 19 e8 78 3c e6 5d 38 3d 11 74 04 bc
       -0.053736355 0.015192055 0.045011424 -0.008084313
000380 08 8f 4e bd 38 ac 02 3c d3 52 84 ba 46 19 79 3d
       -0.050429374 0.00797563 -0.0010095484 0.06081512
000390 d0 28 30 3c 84 43 8e bc 74 a2 00 bd 72 06 c9 3c
       0.010751918 -0.017366178 -0.031404927 0.024539206
0003a0 9f 66 a1 3c 49 d4 68 3c 97 50 94 3c 82 4f e7 bb
       0.019702254 0.014210769 0.018104834 -0.0070590386
0003b0 ee 00 7f bd e8 a5 2e bc fb 02 61 bc 32 41 05 3d
       -0.062256746 -0.010659672 -0.013733621 0.03253288
0003c0 2c d6 99 bb 87 65 6c 3d 41 5f a9 3c bc 0e 72 bd
       -0.0046947207 0.05771401 0.020675303 -0.059096083
0003d0 7b 2f 70 3c 63 5a aa bc 9c 13 9a 3c 68 50 32 3d
       0.014659758 -0.020795053 0.018808179 0.043533713
0003e0 96 b4 42 3c b6 72 8d bd 06 a2 14 3b e6 a0 5c bc
       0.011883875 -0.06906645 0.0022679581 -0.013466096
0003f0 f4 b2 77 bd e7 6e 67 3d 41 47 cc 3b 70 44 93 bd
       -0.060473397 0.05650225 0.00623408 -0.07190788

convs.1.lin_m.bias f4 [2]
000000 f2 ab 43 3d fb dc 53 bb
       0.0477714 -0.003232776

convs.1.gat.att_src f4 [1, 1, 2]
000000 15 ee 96 bf d8 1a 91 bf
       -1.1791407 -1.1336317

convs.1.gat.att_dst f4 [1, 1, 2]
000000 1f 5c 90 bf e8 69 6e 3e
       -1.1278113 0.23282588

convs.1.gat.bias f4 [2]
000000 86 bd 20 b9 0e 2d a8 b9
       -0.00015329392 -0.00032077025

convs.1.gat.lin_src.weight f4 [2, 96]
000000 38 f0 08 3e 40 b9 5a 3e 26 38 2c be 29 f4 0c bd
       0.13372886 0.2135973 -0.16818294 -0.034412537
000010 10 fb 01 3e ad c7 d7 3d 53 85 75 bd 80 e7 c6 bd
       0.12693429 0.10536132 -0.0599416 -0.09712124
000020 4c f5 82 be a4 27 78 bd 27 43 5c 3e 27 e8 7a be
       -0.25577772 -0.06058468 0.21509992 -0.24502622
000030 17 ee 3c 3d da 6b 67 3e 53 ac 8d 3d 86 f0 c9 3b
       0.046125498 0.22599736 0.06917634 0.006162706
000040 81 15 83 bd 40 41 55 3e 71 09 2a 3e dd 94 84 3e
       -0.06400586 0.20825672 0.16605164 0.25894824
000050 f7 2d d7 3d 79 9d 88 bd 72 d4 f7 3d ef d7 a2 3b
       0.10506814 -0.066706605 0.121010676 0.004969589
000060 bf ed 88 3d 56 d3 75 be 9d 28 ae bd 78 7e 4f bc
       0.066859715 -0.240064 -0.0850384 -0.01266443
000070 b6 41 28 3e 26 95 81 3d 7c c7 2f 3e f7 bb 48 bd
       0.16431317 0.06327276 0.17165941 -0.049007382
000080 89 49 0c be 69 39 07 3e bf 4e 25 be 55 28 18 be
       -0.13699926 0.13205494 -0.1614332 -0.14859135
000090 e0 45 51 3d ef fe 67 be c3 33 5b be a9 6a 29 bd
       0.05109203 -0.22655843 -0.21406464 -0.041361485
0000a0 00 ee 22 bd 75 9c 6f 3e 7f 20 46 bd 64 d7 ef bd
       -0.039777756 0.23399527 -0.048370834 -0.117110044
0000b0 6c 5c 3a bd c2 92 4d 3e ed db 1b 3e de a6 98 3d
       -0.045498297 0.20075515 0.15220614 0.074537024
0000c0 bb 42 9f 3b 3f e1 d8 3d 0c 08 fd 3d 5c a5 e1 bd
       0.00486025 0.10589837 0.123550504 -0.11017868
0000d0 fd 2f 1a 3e e9 5e 49 3e c5 3f 31 3d 97 d9 4f 3e
       0.15057369 0.19665112 0.043273706 0.20297848
0000e0 b0 3c 38 bd 65 a3 0b be 3a ad 2f 3e 52 f6 2a be
       -0.04497975 -0.13636549 0.17155924 -0.16695526
0000f0 01 04 70 3e 93 43 60 be ad c1 13 be 83 0b 2a bc
       0.23439027 -0.21900778 -0.1442935 -0.010378721
000100 0a 6d c3 3d 0d f6 fb 3d 71 ac 5d bd 3d 51 ee 3d
       0.09542282 0.1230279 -0.05411953 0.11636589
000110 fd 93 4a be 7f a5 9f bd 6d 9e 4e be bb ef e3 3d
       -0.19783016 -0.07795238 -0.20177622 0.11129709
000120 b2 60 c3 3b 02 4a 43 be 23 17 1b 3d a7 74 b5 3d
       0.0059624547 -0.190712 0.03786386 0.0886014
000130 9e 42 79 be a2 8f 67 be 38 f3 29 be 71 b8 2a be
       -0.24341819 -0.22613385 -0.16596687 -0.16671921
000140 53 f1 2e be 78 12 2e 3d 04 ac 0c 3e e6 0d 64 3e
       -0.17084245 0.042498082 0.13737494 0.22270927
000150 a7 58 98 bd 3c a9 97 3d aa 4b 99 3d 9f 63 3a 3e
       -0.07438784 0.07405326 0.07485135 0.18202065
000160 41 16 1d bd 1f d5 09 be 97 ca 27 3d b3 78 40 3e
       -0.0383513 -0.13460205 0.04096469 0.18796043
000170 da 4a ea 3d 9d 47 dd 3b 83 e2 7f 3c 8e 6d 61 3b
       0.11440058 0.0067529217 0.015617969 0.0034397575
000180 7a 3e 5a be 74 0c bd bb 46 4f 40 bc 9b 7d 57 3e
       -0.21312895 -0.005769307 -0.01173765 0.21044008
000190 36 60 7f 3e 8d ba 89 3d 51 4e 8b bd ee 1a 68 bd
       0.24939045 0.06725035 -0.06802047 -0.056666307
0001a0 e4 a1 bc bd d0 6c ca bd f8 1e 45 be cd 6c 72 bc
       -0.09210566 -0.098840356 -0.19250095 -0.014796448
0001b0 b2 e7 35 3e 9d f7 52 bd b0 6a fe 3d 41 aa e6 bd
       0.17764166 -0.051505674 0.12422693 -0.11262942
0001c0 59 7f 69 be d1 d0 59 3e a9 39 1b be d1 27 0e be
       -0.22802486 0.21271063 -0.15158714 -0.13882376
0001d0 ff cf 50 3e d8 e7 14 be 3f 81 41 be 31 29 48 3e
       0.20391844 -0.14541566 -0.1889696 0.19546963
0001e0 cc a4 59 be a9 97 24 bd b2 ba d6 bd 19 b9 1d 3d
       -0.21254271 -0.040183697 -0.10484828 0.0385066
0001f0 8b 26 5b 3e d6 f6 88 bd 25 e5 03 be 24 4c 61 3e
       0.21401422 -0.06687705 -0.1288038 0.22001702
000200 0c f9 02 3e fa d2 d9 3d 47 12 2f 3e 92 38 3f 3e
       0.12790316 0.10635944 0.17096816 0.18673924
000210 7b 09 08 be 6c 69 c2 3b f7 8c 8d 3d 89 aa ff 3d
       -0.13284867 0.0059329774 0.069116525 0.12483699
000220 89 ca f9 bd db 5d 58 bd 66 9e 20 3d 1a ac ce bd
       -0.12196834 -0.052823883 0.03921356 -0.100914195
000230 86 52 1b 3e 51 85 bb bd 0c ac 22 be 89 f4 b7 bc
       0.15168199 -0.091562875 -0.15885943 -0.02245547
000240 e7 22 4d 3e cb 7e 3a be 69 d5 06 be 28 73 d0 bd
       0.20032845 -0.1821243 -0.13167347 -0.10178214
000250 76 7a 58 bd 33 75 3d be b3 a6 03 be 80 9d 45 be
       -0.052851163 -0.18501739 -0.1285656 -0.19298363
000260 88 41 c1 3d da 1e d5 bd 03 a1 08 be 5a 0c 25 bd
       0.09436327 -0.10406275 -0.13342671 -0.040294982
000270 8b 87 ed bd 41 84 f3 3d b4 90 fd 3c 0c a3 9f 3d
       -0.115981184 0.1189046 0.030952789 0.077947706
000280 0f 65 24 3d 1c e4 76 be 0d 9c 6e 3e fa 23 49 bd
       0.04013544 -0.24110454 0.23301716 -0.049106576
000290 37 d1 9a 3d 86 ce 1d 3e 33 30 81 be ac d5 37 be
       0.07559436 0.15410814 -0.25232086 -0.17952603
0002a0 9f 50 8f 3d f4 8c ef 3b 89 b4 71 be f7 56 0d bd
       0.06997799 0.007310504 -0.23604025 -0.034506764
0002b0 a9 8d 20 be 88 8a 7c 3d 43 77 73 3e 4e 13 42 bd
       -0.15679039 0.06165555 0.23775963 -0.04738169
0002c0 1f 5b 5f be 4a 86 84 3d 17 35 d6 bd 1c 0a 60 3c
       -0.21812104 0.06470926 -0.10459345 0.013674285
0002d0 77 28 1e 3d 16 5a 5b be 0d c9 1b 3e e9 42 0b be
       0.03861281 -0.21421084 0.15213414 -0.13599743
0002e0 d0 5f 9a bc 34 54 75 3d 10 ec d5 bc ea 1d 21 3e
       -0.018844515 0.059894755 -0.02611354 0.15734068
0002f0 cc 18 42 3e 7c 7e 38 be 67 8d 69 be e1 7f 4d be
       0.18954772 -0.18017 -0.22807847 -0.20068313

convs.1.gat.lin_dst.weight f4 [2, 96]
000000 38 f0 08 3e 40 b9 5a 3e 26 38 2c be 29 f4 0c bd
       0.13372886 0.2135973 -0.16818294 -0.034412537
000010 10 fb 01 3e ad c7 d7 3d 53 85 75 bd 80 e7 c6 bd
       0.12693429 0.10536132 -0.0599416 -0.09712124
000020 4c f5 82 be a4 27 78 bd 27 43 5c 3e 27 e8 7a be
       -0.25577772 -0.06058468 0.21509992 -0.24502622
000030 17 ee 3c 3d da 6b 67 3e 53 ac 8d 3d 86 f0 c9 3b
       0.046125498 0.22599736 0.06917634 0.006162706
000040 81 15 83 bd 40 41 55 3e 71 09 2a 3e dd 94 84 3e
       -0.06400586 0.20825672 0.16605164 0.25894824
000050 f7 2d d7 3d 79 9d 88 bd 72 d4 f7 3d ef d7 a2 3b
       0.10506814 -0.066706605 0.121010676 0.004969589
000060 bf ed 88 3d 56 d3 75 be 9d 28 ae bd 78 7e 4f bc
       0.066859715 -0.240064 -0.0850384 -0.01266443
000070 b6 41 28 3e 26 95 81 3d 7c c7 2f 3e f7 bb 48 bd
       0.16431317 0.06327276 0.17165941 -0.049007382
000080 89 49 0c be 69 39 07 3e bf 4e 25 be 55 28 18 be
       -0.13699926 0.13205494 -0.1614332 -0.14859135
000090 e0 45 51 3d ef fe 67 be c3 33 5b be a9 6a 29 bd
       0.05109203 -0.22655843 -0.21406464 -0.041361485
0000a0 00 ee 22 bd 75 9c 6f 3e 7f 20 46 bd 64 d7 ef bd
       -0.039777756 0.23399527 -0.048370834 -0.117110044
0000b0 6c 5c 3a bd c2 92 4d 3e ed db 1b 3e de a6 98 3d
       -0.045498297 0.20075515 0.15220614 0.074537024
0000c0 bb 42 9f 3b 3f e1 d8 3d 0c 08 fd 3d 5c a5 e1 bd
       0.00486025 0.10589837 0.123550504 -0.11017868
0000d0 fd 2f 1a 3e e9 5e 49 3e c5 3f 31 3d 97 d9 4f 3e
       0.15057369 0.19665112 0.043273706 0.20297848
0000e0 b0 3c 38 bd 65 a3 0b be 3a ad 2f 3e 52 f6 2a be
       -0.04497975 -0.13636549 0.17155924 -0.16695526
0000f0 01 04 70 3e 93 43 60 be ad c1 13 be 83 0b 2a bc
       0.23439027 -0.21900778 -0.1442935 -0.010378721
000100 0a 6d c3 3d 0d f6 fb 3d 71 ac 5d bd 3d 51 ee 3d
       0.09542282 0.1230279 -0.05411953 0.11636589
000110 fd 93 4a be 7f a5 9f bd 6d 9e 4e be bb ef e3 3d
       -0.19783016 -0.07795238 -0.20177622 0.11129709
000120 b2 60 c3 3b 02 4a 43 be 23 17 1b 3d a7 74 b5 3d
       0.0059624547 -0.190712 0.03786386 0.0886014
000130 9e 42 79 be a2 8f 67 be 38 f3 29 be 71 b8 2a be
       -0.24341819 -0.22613385 -0.16596687 -0.16671921
000140 53 f1 2e be 78 12 2e 3d 04 ac 0c 3e e6 0d 64 3e
       -0.17084245 0.042498082 0.13737494 0.22270927
000150 a7 58 98 bd 3c a9 97 3d aa 4b 99 3d 9f 63 3a 3e
       -0.07438784 0.07405326 0.07485135 0.18202065
000160 41 16 1d bd 1f d5 09 be 97 ca 27 3d b3 78 40 3e
       -0.0383513 -0.13460205 0.04096469 0.18796043
000170 da 4a ea 3d 9d 47 dd 3b 83 e2 7f 3c 8e 6d 61 3b
       0.11440058 0.0067529217 0.015617969 0.0034397575
000180 7a 3e 5a be 74 0c bd bb 46 4f 40 bc 9b 7d 57 3e
       -0.21312895 -0.005769307 -0.01173765 0.21044008
000190 36 60 7f 3e 8d ba 89 3d 51 4e 8b bd ee 1a 68 bd
       0.24939045 0.06725035 -0.06802047 -0.056666307
0001a0 e4 a1 bc bd d0 6c ca bd f8 1e 45 be cd 6c 72 bc
       -0.09210566 -0.098840356 -0.19250095 -0.014796448
0001b0 b2 e7 35 3e 9d f7 52 bd b0 6a fe 3d 41 aa e6 bd
       0.17764166 -0.051505674 0.12422693 -0.11262942
0001c0 59 7f 69 be d1 d0 59 3e a9 39 1b be d1 27 0e be
       -0.22802486 0.21271063 -0.15158714 -0.13882376
0001d0 ff cf 50 3e d8 e7 14 be 3f 81 41 be 31 29 48 3e
       0.20391844 -0.14541566 -0.1889696 0.19546963
0001e0 cc a4 59 be a9 97 24 bd b2 ba d6 bd 19 b9 1d 3d
       -0.21254271 -0.040183697 -0.10484828 0.0385066
0001f0 8b 26 5b 3e d6 f6 88 bd 25 e5 03 be 24 4c 61 3e
       0.21401422 -0.06687705 -0.1288038 0.22001702
000200 0c f9 02 3e fa d2 d9 3d 47 12 2f 3e 92 38 3f 3e
       0.12790316 0.10635944 0.17096816 0.18673924
000210 7b 09 08 be 6c 69 c2 3b f7 8c 8d 3d 89 aa ff 3d
       -0.13284867 0.0059329774 0.069116525 0.12483699
000220 89 ca f9 bd db 5d 58 bd 66 9e 20 3d 1a ac ce bd
       -0.12196834 -0.052823883 0.03921356 -0.100914195
000230 86 52 1b 3e 51 85 bb bd 0c ac 22 be 89 f4 b7 bc
       0.15168199 -0.091562875 -0.15885943 -0.02245547
000240 e7 22 4d 3e cb 7e 3a be 69 d5 06 be 28 73 d0 bd
       0.20032845 -0.1821243 -0.13167347 -0.10178214
000250 76 7a 58 bd 33 75 3d be b3 a6 03 be 80 9d 45 be
       -0.052851163 -0.18501739 -0.1285656 -0.19298363
000260 88 41 c1 3d da 1e d5 bd 03 a1 08 be 5a 0c 25 bd
       0.09436327 -0.10406275 -0.13342671 -0.040294982
000270 8b 87 ed bd 41 84 f3 3d b4 90 fd 3c 0c a3 9f 3d
       -0.115981184 0.1189046 0.030952789 0.077947706
000280 0f 65 24 3d 1c e4 76 be 0d 9c 6e 3e fa 23 49 bd
       0.04013544 -0.24110454 0.23301716 -0.049106576
000290 37 d1 9a 3d 86 ce 1d 3e 33 30 81 be ac d5 37 be
       0.07559436 0.15410814 -0.25232086 -0.17952603
0002a0 9f 50 8f 3d f4 8c ef 3b 89 b4 71 be f7 56 0d bd
       0.06997799 0.007310504 -0.23604025 -0.034506764
0002b0 a9 8d 20 be 88 8a 7c 3d 43 77 73 3e 4e 13 42 bd
       -0.15679039 0.06165555 0.23775963 -0.04738169
0002c0 1f 5b 5f be 4a 86 84 3d 17 35 d6 bd 1c 0a 60 3c
       -0.21812104 0.06470926 -0.10459345 0.013674285
0002d0 77 28 1e 3d 16 5a 5b be 0d c9 1b 3e e9 42 0b be
       0.03861281 -0.21421084 0.15213414 -0.13599743
0002e0 d0 5f 9a bc 34 54 75 3d 10 ec d5 bc ea 1d 21 3e
       -0.018844515 0.059894755 -0.02611354 0.15734068
0002f0 cc 18 42 3e 7c 7e 38 be 67 8d 69 be e1 7f 4d be
       0.18954772 -0.18017 -0.22807847 -0.20068313
