model.pt (torch, 98391 bytes, 26 tensors)

convs.0.lin_m.weight f4 [96, 156]
-0.14086717 0.0019119733 0.10580233 -0.06317081 -0.04770118 0.12422392 0.043522004 -0.08455102
0.0017157324 -0.00784038 0.02738535 -0.109670684 0.012966029 -0.011342652 -0.15079463 -0.18559976
-0.110231295 0.02930904 0.029925935 0.051878713 0.007952226 0.093067914 -0.018688992 0.03867358
-0.15139748 -0.14012387 -0.17749484 -0.0023369608 -0.026735462 -0.04204265 0.043717794 -0.03417159
-0.019424297 0.004394204 0.15193474 0.1104424 0.0057398668 0.07085121 0.07309636 0.045270078
0.049304217 -0.055897 0.050846968 -0.071824186 -1.5169977e-09 0.0010245508 0.058852553 -0.030772422
0.008139201 -0.0015498132 0.019741515 0.025473403 -0.00928764 0.08045809 6.806577e-11 -0.05911024
0.057075463 -0.056031197 0.057298504 0.0735399 -0.014658363 -0.090844445 -0.028145827 -0.022982987
-0.027519332 0.007073936 0.0036920835 0.085352056 0.05695518 -0.034249235 0.077032335 0.07528167
-0.07220827 -0.006492674 -0.012936434 0.004770323 -0.05649135 -0.0061318767 0.03642087 0.08845302
-0.06498359 0.049921047 -0.11472917 -0.07108969 0.07006557 0.0045302724 -0.01481787 -0.07289362
-0.05415921 0.008873652 0.04656107 -0.045064654 -0.072040394 0.013288809 0.051960167 0.0050142333
0.039740074 -0.012583596 0.003472352 0.045776602 -0.047808543 0.06799283 0.003266516 0.031760637
-0.027835755 0.03215892 0.06977338 -0.024504658 0.04108342 -0.041447923 0.029167093 -0.083911575
0.063408785 0.018028637 -0.0472542 -0.07277254 -0.0131986365 -0.0077615483 0.03290488 -0.066967376
0.03324635 -0.08518222 -0.021854479 0.01603331 -0.12090989 -0.07636617 -0.026889684 0.011629231
0.045452073 -0.068304025 0.009813713 -0.1024966 -0.043632295 0.04429103 -0.09860525 0.014091501
0.001030831 0.03579038 -0.06273149 -0.050761126 -0.0540325 -0.059309058 -0.038793713 -0.04266609
0.051332396 0.044475216 -0.082804754 -0.0014133371 0.024600979 -0.038430046 -0.045286115 -0.074644886
-0.006480212 0.046461813 0.04172359 -0.091695935 -0.042205155 -0.041634105 0.03130734 0.08478038
-0.06383699 0.038339 0.037218712 0.069685355 -0.08571144 -0.107982986 -0.06233444 -0.06298548
-0.15313292 -0.16198145 0.028893951 -0.0675361 0.06355871 -0.0014420053 -0.039360534 -0.065906845
-0.013083896 -0.016432062 -0.020301078 0.040434547 0.040927634 -0.06437331 -0.14461273 0.037873626
-0.11619226 0.087257124 -0.039305475 -0.011570162 -0.06568128 -0.053143654 0.06095134 0.056146886
0.06664752 0.037267443 0.07083896 0.028814457 -0.038716685 0.07151313 0.031157965 0.073749974
-3.278406e-13 -0.03703819 0.03469172 0.093044 0.09117956 0.08776216 0.025938617 0.030266687
-0.0021602034 -0.10108779 3.1091168e-11 0.09709916 -0.016482519 0.091280706 -0.07143104 0.13596392
0.022249332 0.041873712 -0.06746523 -0.016654411 -0.024724603 0.012576502 -0.18295665 0.0069152084
-0.023344284 0.05865339 0.018909512 0.13173261 -0.074340224 0.005119549 0.0045477278 0.08550267
-0.010631092 -0.027128961 0.0867916 -0.012900258 0.039089054 0.07859506 -0.110494755 -0.06307612
0.09855022 -0.052036982 -0.052117396 0.021829108 0.10415234 0.010608185 0.08888738 0.011511123
-0.058389463 0.043120928 0.04400507 -0.07383851 0.0059756497 0.0031995252 0.05010479 0.10321474
00000000: 7c3f 10be 2e9b fa3a e4ae d83d b35f 81bd
00000010: 5062 43bd 1c69 fe3d 2144 323d 1629 adbd
00000020: 6de2 e03a f074 00bc 3e57 e03c 069b e0bd
00000030: 786f 543c 88d6 39bc e869 1abe dd0d 3ebe
00000040: f2c0 e1bd 8319 f03c 3c27 f53c c67e 543d
00000050: 0e4a 023c 649a be3d a819 99bc 3068 1e3d
00000060: f107 1bbe a27c 0fbe 35c1 35be b227 19bb
00000070: 5404 dbbc ea34 2cbd 6e11 333d 82f7 0bbd
00000080: b41f 9fbc 41fd 8f3b c894 1b3e a02f e23d
00000090: 7e15 bc3b 701a 913d 8bb3 953d 1e6d 393d
000000a0: 38f3 493d 41f4 64bd e944 503d 8f18 93bd
000000b0: 9d7e d0b0 384a 863a 600f 713d 7216 fcbc
000000c0: 495a 053c 1a23 cbba f5b8 a13c 99ad d03c
000000d0: 302b 18bc 36c7 a43d 9fad 952e 941d 72bd
000000e0: f6c7 693d f880 65bd d6b1 6a3d 169c 963d
000000f0: a129 70bc a70c babd 1492 e6bc d146 bcbc
00000100: 3970 e1bc 7acc e73b e2f6 713b 0fcd ae3d
00000110: d649 693d ed48 0cbd 21c3 9d3d 472d 9a3d
00000120: eee1 93bd 7fc0 d4bb 56f3 53bc 5f50 9c3b
00000130: 7963 67bd e9ed c8bb 0d2e 153d db26 b53d
00000140: 1e16 85bd 037a 4c3d 21f7 eabd 7997 91bd
00000150: 8a7e 8f3d ae72 943b a7c6 72bc 4049 95bd
00000160: 0cd6 5dbd cb62 113c d2b6 3e3d b795 38bd
00000170: ea89 93bd 4eb9 593c 2fd4 543d 704e a43b
00000180: 7dc6 223d 6d2b 4ebc 6690 633b 3f80 3b3d
00000190: e4d2 43bd d33f 8b3d 0b13 563b 7117 023d
000001a0: cf07 e4bc 12b9 033d 59e5 8e3d febd c8bc
000001b0: 1747 283d 4cc5 29bd d4ef ee3c d5d9 abbd
000001c0: 77dc 813d cbb0 933c 9f8d 41bd c509 95bd
000001d0: 183f 58bc 9654 febb 44c7 063d 3126 89bd
000001e0: 532d 083d 0474 aebd 2a08 b3bc 4a58 833c
000001f0: 9b9f f7bd de65 9cbd c147 dcbc 8888 3e3c
00000200: f42b 3a3d fbe2 8bbd b2c9 203c bde9 d1bd
00000210: c7b7 32bd 836a 353d 8df1 c9bd 0ae0 663c
00000220: f31c 873a ef98 123d 5e79 80bd e6ea 4fbd
00000230: 2f51 5dbd 0eee 72bd 28e6 1ebd a3c2 2ebd
00000240: eb41 523d a52b 363d 8a95 a9bd b93f b9ba
00000250: fe87 c93c d368 1dbd ef7d 39bd 6bdf 98bd
00000260: f557 d4bb be4e 3e3d 5be6 2a3d 14cb bbbd
00000270: 50df 2cbd 8688 2abd 203c 003d 56a1 ad3d
00000280: f8bc 82bd 5b09 1d3d a672 183d 32b7 8e3d
00000290: 7b89 afbd 2f26 ddbd 6652 7fbd 88fe 80bd
000002a0: e0ce 1cbe 77de 25be 02b3 ec3c 5e50 8abd
000002b0: 122b 823d ab01 bdba 8338 21bd 2bfa 86bd
000002c0: d65d 56bc 889c 86bc 724e a6bc b29e 253d
000002d0: bca3 273d 27d6 83bd 5c15 14be 6021 1b3d
000002e0: 35f6 edbd ddb3 b23d c7fe 20bd c790 3dbc
000002f0: e883 86bd 29ad 59bd 1da8 793d 47fa 653d
00000300: 7f7e 883d bfa5 183d 0414 913d 4c0c ec3c
00000310: 6395 1ebd 7a75 923d fd3e ff3c 3a0a 973d
00000320: cf8e b8aa 5bb5 17bd e818 0e3d da8d be3d
00000330: 59bc ba3d a6bc b33d 397d d43c d8f1 f73c
00000340: 3392 0dbb 1e07 cfbd 8bbd 082e eddb c63d
00000350: 5906 87bc 61f1 ba3d 704a 92bd 203a 0b3e
00000360: 3b44 b63c c583 2b3d 362b 8abd d56e 88bc
00000370: 408b cabc ac0d 4e3c fd58 3bbe f998 e23b
00000380: 833c bfbc 893e 703d 1fe8 9a3c eae4 063e
00000390: b03f 98bd e4c1 a73b 1b05 953b 061c af3d
000003a0: 082e 2ebc 8e3d debc cbbf b13d 9b5b 53bc
000003b0: d81b 203d 72f6 a03d 134b e2bd 0e2e 81bd
000003c0: b3d4 c93d bb24 55bd 0d79 55bd f5d2 b23c
000003d0: d24d d53d f4cd 2d3c 960a b63d 2699 3c3c
000003e0: ca29 6fbd 929f 303d a93e 343d a538 97bd
000003f0: 62cf c33b 20af 513b ae3a 4d3d 4062 d33d

convs.0.lin_m.bias f4 [96]
-0.00019191994 3.926985e-06 -2.691538e-05 -3.6415158e-06 -7.774535e-06 -4.7249505e-05 9.281817e-06 4.778101e-05
-1.4965368e-05 4.3794684e-05 -0.00012181348 7.886946e-05 -3.692254e-05 -1.313041e-05 0.00012420292 -5.271058e-06
-4.210184e-07 -2.110703e-05 0.00015803565 2.268522e-05 3.0421717e-05 -1.489233e-05 -4.6853215e-06 4.850563e-06
-1.6643762e-06 5.3147025e-05 -3.4001092e-05 -1.1911712e-05 -5.4928416e-05 5.2438274e-05 0.00012345942 -7.1567585e-05
1.7305852e-05 -1.6993024e-08 -1.9006311e-05 6.715778e-06 0.000103415754 -2.1495116e-06 6.134294e-05 -1.7876659e-05
-1.6210824e-05 6.8932495e-05 3.7900195e-06 -0.00044837926 8.752833e-07 -1.6462971e-05 1.1329855e-05 1.387616e-05
0.0010616353 -0.0002992836 2.4782034e-06 -0.00010640676 2.7713826e-05 8.700624e-05 -2.519239e-05 -2.4529138e-05
-0.00031905613 -0.0001441835 -1.187488e-06 2.2926699e-05 -5.870361e-07 -6.365969e-05 2.7078404e-05 2.4891211e-05
3.32311e-06 1.7224318e-05 -1.9489325e-05 -1.3732576e-07 7.122074e-05 -2.189725e-05 2.4950783e-05 5.5901893e-07
-4.0994455e-05 4.2617003e-06 1.1122402e-05 5.142522e-05 -0.00030624724 -1.6906228e-05 1.2189135e-05 -5.551762e-05
7.1475886e-05 1.4494326e-05 0.0001070269 2.2053755e-05 0.00011756891 -1.2973268e-05 -2.4753277e-05 0.00015495437
-7.871669e-05 -5.6302206e-06 -0.0006768612 0.00036944178 1.1407952e-05 -5.645154e-05 7.831892e-05 1.9968029e-05
00000000: 1e3e 49b9 8bc4 8336 57c8 e1b7 c460 74b6
00000010: 606f 02b7 c52d 46b8 1ab9 1b37 7868 4838
00000020: c413 7bb7 2fb0 3738 1d76 ffb8 b866 a538
00000030: 47dd 1ab8 ae4a 5cb7 783c 0239 0bde b0b6
00000040: 5408 e2b4 000f b1b7 5fb6 2539 244c be37
00000050: 2432 ff37 12da 79b7 9b36 9db6 05c2 a236
00000060: 8863 dfb5 2fea 5e38 659c 0eb8 6ad8 47b7
00000070: f062 66b8 2bf1 5b38 e374 0139 8e16 96b8
00000080: 092c 9137 0ef8 91b2 be6f 9fb7 1858 e136
00000090: e9e0 d838 5440 10b6 3da5 8038 d5f5 95b7
000000a0: 7bfc 87b7 da8f 9038 0a58 7e36 7214 ebb9
000000b0: 03f5 6a35 f619 8ab7 5b15 3e37 a7cd 6837
000000c0: 9226 8b3a 2ae9 9cb9 364f 2636 b226 dfb8
000000d0: fd7a e837 1f77 b638 3f54 d3b7 ecc3 cdb7
000000e0: fd46 a7b9 f72f 17b9 c761 9fb5 b652 c037
000000f0: d094 1db5 0981 85b8 6e26 e337 78cd d037
00000100: 9802 5f36 f17c 9037 027d a3b7 d173 13b4
00000110: 585c 9538 fcaf b7b7 664d d137 7d0f 1635
00000120: 76f1 2bb8 baff 8e36 5a9a 3a37 69b1 5738
00000130: cf8f a0b9 d9d1 8db7 f07f 4c37 97db 68b8
00000140: 53e5 9538 a82c 7337 a173 e038 1400 b937
00000150: 548f f638 c3a7 59b7 42a5 cfb7 3f7b 2239
00000160: b314 a5b8 3aeb bcb6 636f 31ba a3b1 c139
00000170: c864 3f37 61c6 6cb8 263f a438 0481 a737

convs.0.gat.att_src f4 [1, 1, 96]
-0.029151548 0.2129214 0.17725025 0.1664 -0.20574598 -0.19904035 0.028371565 -0.04945554
-0.14894553 -0.08012199 0.18351883 0.103646316 -0.24713667 -0.12881427 -0.18991412 0.09342739
0.24038938 0.099088304 0.03101965 -0.0041334545 -0.020472687 0.14336683 0.054814108 -0.18338323
0.1806918 0.18188311 0.028676342 -0.06837754 0.1795047 -0.10282029 0.17883167 0.118403845
0.11660179 0.104356624 0.09227702 0.15290841 -0.06486927 0.099671565 0.2184492 0.19661151
-0.2020517 -0.033456314 0.11954184 0.25827876 -0.12615117 0.15158956 0.27248928 0.094528675
-0.032372974 0.11564681 0.17825942 5.632625e-05 0.03965614 0.057836834 0.009106645 -0.02966159
0.16590689 -0.12743145 -0.25009906 0.064792976 -0.06526088 -0.22151618 0.023562882 0.117584005
-0.13087623 0.088769995 -0.18329178 0.058927417 -0.16523384 0.23190114 0.15324788 -0.08385934
0.04644299 -0.01220871 -0.08906365 0.20262408 0.01332765 0.026650619 0.14217739 -0.062403742
0.0025992575 0.1807819 0.14916731 -0.18633635 -0.018874038 -0.017421983 -0.10336409 0.035088837
0.02503107 -0.174111 0.28451958 0.07517673 -0.07992695 0.166791 -0.11741979 0.17094551
00000000: 3acf eebc 1108 5a3e 1781 353e c364 2a3e
00000010: 13af 52be 3cd1 4bbe 7c6b e83c e491 4abd
00000020: 2d85 18be ff16 a4bd 5cec 3b3e 8544 d43d
00000030: 6511 7dbe e3e7 03be d978 42be dc56 bf3d
00000040: a228 763e cfee ca3d ec1c fe3c ee71 87bb
00000050: 56b6 a7bc c1ce 123e c284 603d d0c8 3bbe
00000060: 4507 393e 913f 3a3e a6ea ea3c 8609 8cbd
00000070: 14d0 373e 7293 d2bd a61f 373e b77d f23d
00000080: ebcc ee3d edb8 d53d bcfb bc3d 0694 1c3e
00000090: 2eda 84bd 9b20 cc3d 26b1 5f3e 8754 493e
000000a0: a4e6 4ebe 7d09 09bd 5ad2 f43d 1d3d 843e
000000b0: c62d 01be 4b3a 1b3e b783 8b3e 4098 c13d
000000c0: 8699 04bd 3cd8 ec3d a389 363e da3f 6c38
000000d0: 7a6e 223d 51e6 6c3d 0a34 153c ddfc f2bc
000000e0: 7fe3 293e 647d 02be fc0c 80be 2eb2 843d
000000f0: 7fa7 85bd 23d5 62be f206 c13c e2cf f03d
00000100: 6b04 06be 0bcd b53d d7b0 3bbe e05d 713d
00000110: 0f33 29be 7e77 6d3e 03ed 1c3e 72be abbd
00000120: 013b 3e3d 0b07 48bc 0167 b6bd b07c 4f3e
00000130: 375c 5a3c 6652 da3c f396 113e 119b 7fbd
00000140: 4e58 2a3b e41e 393e 51bf 183e f5ce 3ebe
00000150: ba9d 9abc 8cb8 8ebc 8db0 d3bd 50b9 0f3d
00000160: f50d cd3c 274a 32be 8dac 913e 42f6 993d
00000170: beb0 a3bd 43cb 2a3e c979 f0bd 570c 2f3e

convs.0.gat.att_dst f4 [1, 1, 96]
-0.039800998 0.22349845 0.19491336 0.07872404 -0.04408985 -0.101444796 -0.12559433 0.07484837
-0.2495929 -0.28261065 0.0102208415 0.09153293 0.23580645 0.00043413363 0.16987011 -0.13083462
-0.0150949685 0.046729464 0.089685924 0.18227868 -0.12597343 0.14592564 0.17563383 0.001694792
-0.26987517 -0.13722345 -0.08578671 -0.21940626 0.1657468 0.014595941 -0.030368468 0.070555374
0.13774951 0.0041761342 0.07199678 -0.09268173 -0.2678774 -0.21205795 -0.23159644 -0.09352262
-0.08983232 -0.20032048 -0.17994638 -0.16658841 0.065148495 0.02830599 0.13137513 -0.15198709
0.14359707 0.18080708 -0.16066156 -0.06440952 0.24404271 0.1593085 -0.16491161 0.01659878
-0.22066274 0.10906444 0.07870723 0.20339197 -0.07246067 0.24133697 -0.24317628 -0.0150275305
-0.08569408 -0.13417253 0.10245498 0.24700275 0.23600811 0.12141272 -0.2746956 -0.1961024
0.011933644 0.1611424 -0.10558962 0.1398313 0.15483864 0.27192357 0.18756643 -0.065659635
0.015215987 0.16273738 0.2194445 0.039630905 0.06813303 -0.089874774 -0.13667765 -0.17522757
-0.07136127 0.16233864 -0.17563298 0.20913972 -0.22493304 0.05798421 -0.30876002 0.0005259966
00000000: 5f06 23bd c7dc 643e 5e97 473e 123a a13d
00000010: 8f97 34bd 4ac2 cfbd cd9b 00be 1a4a 993d
00000020: 4895 7fbe 58b2 90be 5175 273c 9e75 bb3d
00000030: 3f77 713e 6e9c e339 6ef2 2d3e 83f9 05be
00000040: e350 77bc 6567 3f3d 41ad b73d 43a7 3a3e
00000050: 2eff 00be 886d 153e 5bd9 333e c823 de3a
00000060: 142d 8abe 4e84 0cbe f1b0 afbd 09ac 60be
00000070: 87b9 293e d023 6f3c 4bc7 f8bc 567f 903d
00000080: 350e 0d3e f4d7 883b 0c73 933d ebcf bdbd
00000090: 3a27 89be b825 59be 9e27 6dbe ca88 bfbd
000000a0: 02fa b7bd d020 4dbe dd43 38be 2796 2abe
000000b0: 936c 853d f7e1 e73c 3487 063e 81a2 1bbe
000000c0: 1c0b 133e 7e25 393e 7784 24be 23e9 83bd
000000d0: 55e6 793e c421 233e 97de 28be 2afa 873c
000000e0: 6af5 61be 2d5d df3d 4231 a13d fc45 503e
000000f0: 4266 94bd 0a21 773e 3403 79be 0836 76bc
00000100: 6180 afbd 8664 09be ebd3 d13d 4aee 7c3e
00000110: 1cac 713e 3ba7 f83d e7a4 8cbe 11cf 48be
00000120: 5585 433c 8302 253e 5f3f d8bd f02f 0f3e
00000130: 058e 1e3e 9139 8b3e 6a11 403e 8f78 86bd
00000140: 7a4c 793c a1a4 263e 0fb6 603e 0454 223d
00000150: 5489 8b3d 4410 b8bd 3af5 0bbe db6e 33be
00000160: dc25 92bd 1a3c 263e 22d9 33be b928 563e
00000170: d954 66be da80 6d3d cb15 9ebe 09e3 093a

convs.0.gat.bias f4 [96]
-0.0003901746 1.2420061e-05 -5.2846586e-05 2.253823e-05 -1.5408805e-05 -0.00014480337 1.7709443e-05 5.5411645e-05
-1.8801848e-05 9.036989e-05 -0.00024114497 0.0001517117 -0.00014110137 -2.669724e-05 0.00026225272 -2.7583432e-05
-1.4963768e-05 -5.1127743e-05 0.00024870687 0.0003841473 5.813281e-05 -2.3567563e-05 2.37107e-05 -9.009286e-06
2.1047505e-05 0.00011640112 -8.355765e-05 -4.877678e-05 -0.000121476034 0.00010500895 0.0003047972 -0.0002261177
3.6193334e-05 -1.5281645e-05 -4.198567e-05 1.4358113e-05 0.0002227342 2.75761e-05 9.6059724e-05 -3.7503367e-05
-2.8134005e-05 8.022434e-05 2.5558331e-06 -0.00080141023 -2.7471966e-05 -7.874687e-05 -1.792088e-05 2.798009e-05
0.0024139695 -0.000612889 1.1566696e-05 -0.0002227715 5.1888037e-05 0.00022236355 -0.00010171026 -7.4315794e-05
-0.0008121156 -0.0004994468 -1.0868969e-05 5.5034823e-05 2.7776089e-06 -0.00014762949 4.5282653e-05 4.8132635e-05
-1.5507505e-06 3.906584e-05 -5.7585996e-05 -4.7259667e-07 0.00017696567 -6.313827e-05 5.1732615e-05 2.3039538e-06
-8.796875e-05 2.302873e-06 -1.9871843e-05 0.0002063978 -0.0006763849 -3.1254272e-05 -7.359909e-05 -0.00027875137
0.00028473567 1.4053262e-05 0.00027362903 8.1004466e-05 0.00032563205 -3.122098e-05 -5.910372e-05 0.0003358004
-0.00029113164 -8.515284e-06 -0.0014591957 0.0011581269 2.128535e-05 -0.000118331074 0.00026692232 7.114493e-05
00000000: 5990 ccb9 c15f 5037 97a7 5db8 7b10 bd37
00000010: 2842 81b7 5cd6 17b9 bd8e 9437 cd69 6838
00000020: a9b8 9db7 f784 bd38 dcdb 7cb9 cd14 1f39
00000030: 9cf4 13b9 e3f3 dfb7 f77e 8939 f862 e7b7
00000040: e50c 7bb7 ff71 56b8 df64 8239 6167 c939
00000050: a1d3 7338 f5b2 c5b7 57e6 c637 9726 17b7
00000060: 2c8f b037 601c f438 ac3b afb8 ab95 4cb8
00000070: f3c0 feb8 4038 dc38 30cd 9f39 021a 6db9
00000080: 4cce 1738 1531 80b7 c519 30b8 a0e3 7037
00000090: c28d 6939 3953 e737 ac73 c938 ef4c 1db8
000000a0: 5101 ecb7 1d3e a838 e184 2b36 bb15 52ba
000000b0: 9973 e6b7 e724 a5b8 cc54 96b7 c9b6 ea37
000000c0: b033 1e3b 49aa 20ba 950e 4237 c597 69b9
000000d0: 5ba2 5938 432a 6939 484d d5b8 fdd9 9bb8
000000e0: 28e4 54ba 4fed 02ba de59 36b7 31d5 6638
000000f0: f566 3a36 fdcc 1ab9 e1ed 3d38 06e2 4938
00000100: 6223 d0b5 a0da 2338 7e88 71b8 31b9 fdb4
00000110: dc8f 3939 1a69 84b8 79fb 5838 a09d 1a36
00000120: dd7b b8b8 0f8b 1a36 75b2 a6b7 7d6c 5839
00000130: 6c4f 31ba 0517 03b8 3659 9ab8 6025 92b9
00000140: 9348 9539 4dc6 6b37 de75 8f39 f1e0 a938
00000150: 98b9 aa39 46f3 02b8 23e6 77b8 5e0e b039
00000160: 07a3 98b9 dedc 0eb7 7c42 bfba 4acc 973a
00000170: f18d b237 8328 f8b8 b5f1 8b39 a533 9538

convs.0.gat.lin_src.weight f4 [96, 56]
-0.19232202 0.07466875 0.08320193 -0.054724168 0.13347529 -0.013462366 0.022635981 -0.08177725
0.06183707 -0.08211748 -0.15222518 -0.1163251 0.04624113 0.23245932 -0.22213061 -0.30438203
-0.121730335 -0.07862231 -0.007957529 0.19310074 0.18476924 0.048029885 0.013608466 0.16418761
-0.0846578 -0.15000427 0.03441379 0.050598536 -0.118220866 -0.08982278 -0.03424492 0.066635996
-0.10153513 0.14259169 -0.15290318 0.14006478 -0.10975524 0.026022961 0.21186945 0.11866419
0.07898255 0.035333004 0.03349782 -0.01567129 -2.6268435e-07 0.025516178 -0.028432386 0.018292677
0.0061985753 0.12924938 0.048649766 0.054022685 -0.053780686 -0.18908074 -0.0014655191 -0.21012653
0.13618429 0.069034666 -0.020418389 -0.10625198 -0.08059411 0.0093903085 -0.19915524 0.13145728
0.14648056 0.106156714 0.07012382 -0.20996177 -0.20330374 0.052558236 0.10840664 -0.15206571
-0.15002793 -0.011745322 -0.04234833 -0.16619591 0.11687205 -0.05431554 0.1289867 -0.022329852
-0.012119042 0.14956056 0.04673675 0.10478991 -0.0945848 0.062234286 -0.11912913 -0.08906858
0.08390164 0.118110225 -0.087790675 0.061224733 -0.01355489 -0.09257686 0.061539844 -0.18770978
0.1506114 -0.16733359 0.09245692 0.023862481 6.401449e-10 -0.114490554 0.0050379005 0.1758118
-0.026291726 -0.05385722 -0.16756469 0.12533946 -0.03311599 0.16564034 0.0010890509 0.045353215
-0.15854454 -0.08637488 0.04992884 -0.17595924 0.06403932 0.19278698 -0.022701463 0.04288633
0.13653162 0.007970039 0.031089148 -0.09127374 -0.117492214 -0.12404067 0.22225006 -0.28251246
-0.18728682 0.070816025 -0.0768738 0.04255818 -0.11634788 -0.15237843 -0.10412546 0.155958
0.14296149 0.04729628 -0.1773192 -0.21737371 -0.06330548 0.14764327 -0.12826484 0.1553663
0.20640709 0.17782746 -0.0415508 0.012762563 0.14550416 -0.17320368 -0.22109118 -0.01891076
0.11184322 0.009079757 -0.19084877 -0.03046908 -4.442838e-06 0.044439618 0.12722954 -0.08589073
0.0414549 -0.14162426 0.01945359 -0.19881591 -0.022821557 0.07916615 -2.2302122e-09 0.07767333
-0.0034762723 0.058876008 0.137574 0.095689625 0.05694143 0.14691865 -0.19832236 0.045236718
-0.11380389 0.053954154 -0.14951122 0.022594133 0.23512167 -0.15207964 -0.09065598 -0.16903202
0.013344888 0.16597976 0.19029422 0.0997266 -0.015739888 -0.1969997 0.091124535 0.0018969412
-0.18388228 0.031061955 -0.18608463 0.108695954 -0.022451209 0.033963237 0.12844652 0.1300812
-0.16242106 0.03463618 0.21785489 -0.118114606 0.1755579 0.010324444 -0.16111423 -0.03932483
0.19890931 -0.09936121 -0.08238324 0.03128799 0.00010146501 -0.13181734 -0.089673445 0.08577456
-0.17406327 0.099784486 0.12830651 -0.035432592 -0.011746457 0.1756302 3.9691105e-05 -0.14474866
0.029741848 0.14865372 -0.11894703 -0.03246913 -0.12103151 0.015621807 -0.10310937 0.19024149
0.0009408609 0.09117592 0.031819027 0.013679342 -0.0040762853 0.103529505 0.042164464 -0.08365575
-0.16068056 0.19154783 -0.04244502 0.10579354 0.16115844 0.02859546 -0.19094191 0.17540872
-0.019550357 -0.045763053 -0.08236446 -0.11922937 0.019599332 -0.09256727 -0.07175077 0.056037772
00000000: 10f0 44be eeeb 983d c665 aa3d 7326 60bd
00000010: bfad 083e 4191 5cbc 186f b93c d57a a7bd
00000020: de48 7d3d 362d a8bd ebe0 1bbe db3b eebd
00000030: 5767 3d3d d109 6e3e 3576 63be f6d7 9bbe
00000040: c14d f9bd bc04 a1bd 4c60 02bc 33bc 453e
00000050: 2634 3d3e fcba 443d 0bf6 5e3c cc20 283e
00000060: 1261 adbd b89a 19be 79f5 0c3d 6940 4f3d
00000070: c81d f2bd 01f5 b7bd 6744 0cbd 7478 883d
00000080: a6f1 cfbd 8e03 123e a792 1cbe 246d 0f3e
00000090: 5bc7 e0bd 1b2e d53c 4ef4 583e 3606 f33d
000000a0: 9ac1 a13d 57b9 103d 0335 093d 1461 80bc
000000b0: 1007 8db4 4e07 d13c 09eb e8bc 86da 953c
000000c0: 6b1d cb3b f359 043e fa44 473d e446 5d3d
000000d0: 2349 5cbd 629e 41be a916 c0ba 692b 57be
000000e0: e573 0b3e 0c62 8d3d 7744 a7bc a39a d9bd
000000f0: 860e a5bd cfd9 193c 5aef 4bbe bd9c 063e
00000100: 00ff 153e b168 d93d 149d 8f3d 3800 57be
00000110: db2e 50be 4e47 573d 4d04 de3d 1db7 1bbe
00000120: eca0 19be 736f 40bc 7175 2dbd 432f 2abe
00000130: 9d5a ef3d f979 5ebd 1715 043e 18ed b6bc
00000140: f28e 46bc 6726 193e 096f 3f3d 189c d63d
00000150: adb5 c1bd 61e9 7e3d f9f9 f3bd 9669 b6bd
00000160: 9fd4 ab3d c6e3 f13d 99cb b3bd c9c6 7a3d
00000170: 5415 5ebc f098 bdbd 3411 7c3d fe36 40be
00000180: e039 1a3e 7f59 2bbe 0e5a bd3d 407b c33c
00000190: 31f6 2f30 067a eabd f914 a53b 0208 343e
000001a0: bf61 d7bc 6399 5cbd 1496 2bbe fd58 003e
000001b0: a2a4 07bd 9f9d 293e 7cbe 8e3a 4bc4 393d
000001c0: 8059 22be 50e5 b0bd 2f82 4c3d a92e 34be
000001d0: 0c27 833d f369 453e 6bf8 b9bc 94a9 2f3d
000001e0: f2ce 0b3e c494 023c abae fe3c baed babd
000001f0: c29f f0bd 0909 febd 8595 633e 79a5 90be
00000200: 1ec8 3fbe fe07 913d 0370 9dbd 7c51 2e3d
00000210: cc47 eebd 1709 1cbe bb3f d5bd 74b3 1f3e
00000220: 7f64 123e beb9 413d 2a93 35be 3797 5ebe
00000230: 4ea6 81bd cc2f 173e dc57 03be 5818 1f3e
00000240: 615c 533e 6718 363e 2c31 2abd 121a 513c
00000250: 0bff 143e 4e5c 31be ba65 62be bdea 9abc
00000260: 0f0e e53d 43c3 143c dc6d 43be 4b9a f9bc
00000270: b013 95b6 5106 363d 7648 023e 7be7 afbd
00000280: 9dcc 293d f305 11be 235d 9f3c 6696 4bbe
00000290: 46f4 babc dd21 a23d 4f42 19b1 3213 9f3d
000002a0: 2cd2 63bb f827 713d 33e0 0c3e ecf8 c33d
000002b0: 6b3b 693d d871 163e 0415 4bbe 234a 393d
000002c0: 0412 e9bd 08ff 5c3d 7819 19be 5517 b93c
000002d0: bcc3 703e c4ba 1bbe d8a9 b9bd bb16 2dbe
000002e0: 84a4 5a3c 99f6 293e 7ddc 423e 763d cc3d
000002f0: f0f0 80bc 4aba 49be 809f ba3d c9a2 f83a
00000300: a34b 3cbe a475 fe3c f88c 3ebe fc9b de3d
00000310: 99eb b7bc 091d 0b3d 7c87 033e 0234 053e
00000320: b551 26be abde 0d3d 5a15 5f3e 12e6 f1bd
00000330: 73c5 333e db27 293c 21fb 24be 1313 21bd
00000340: e2ae 4b3e e47d cbbd 8bb8 a8bd d627 003d
00000350: 9dc9 d438 20fb 06be b6a6 b7bd 93aa af3d
00000360: a43d 32be cf5b cc3d c862 033e c421 11bd
00000370: 3674 40bc 67d8 333e 007a 2638 fe38 14be
00000380: 2da5 f33c ae38 183e 809a f3bd 5afe 04bd
00000390: 5edf f7bd 9cf2 7f3c 012b d3bd aace 423e
000003a0: 1ba4 763a 71ba ba3d ab54 023d 521f 603c
000003b0: 5c92 85bb 4707 d43d a5b4 2c3d b553 abbd
000003c0: 7289 24be 1d25 443e d4da 2dbd 49aa d83d
000003d0: b806 253e 0741 ea3c 4786 43be 589e 333e
000003e0: 1228 a0bc 0a72 3bbd b3ae a8bd 872e f4bd
000003f0: c78e a03c e993 bdbd 11f2 92bd dd87 653d

convs.0.gat.lin_dst.weight f4 [96, 56]
-0.19232202 0.07466875 0.08320193 -0.054724168 0.13347529 -0.013462366 0.022635981 -0.08177725
0.06183707 -0.08211748 -0.15222518 -0.1163251 0.04624113 0.23245932 -0.22213061 -0.30438203
-0.121730335 -0.07862231 -0.007957529 0.19310074 0.18476924 0.048029885 0.013608466 0.16418761
-0.0846578 -0.15000427 0.03441379 0.050598536 -0.118220866 -0.08982278 -0.03424492 0.066635996
-0.10153513 0.14259169 -0.15290318 0.14006478 -0.10975524 0.026022961 0.21186945 0.11866419
0.07898255 0.035333004 0.03349782 -0.01567129 -2.6268435e-07 0.025516178 -0.028432386 0.018292677
0.0061985753 0.12924938 0.048649766 0.054022685 -0.053780686 -0.18908074 -0.0014655191 -0.21012653
0.13618429 0.069034666 -0.020418389 -0.10625198 -0.08059411 0.0093903085 -0.19915524 0.13145728
0.14648056 0.106156714 0.07012382 -0.20996177 -0.20330374 0.052558236 0.10840664 -0.15206571
-0.15002793 -0.011745322 -0.04234833 -0.16619591 0.11687205 -0.05431554 0.1289867 -0.022329852
-0.012119042 0.14956056 0.04673675 0.10478991 -0.0945848 0.062234286 -0.11912913 -0.08906858
0.08390164 0.118110225 -0.087790675 0.061224733 -0.01355489 -0.09257686 0.061539844 -0.18770978
0.1506114 -0.16733359 0.09245692 0.023862481 6.401449e-10 -0.114490554 0.0050379005 0.1758118
-0.026291726 -0.05385722 -0.16756469 0.12533946 -0.03311599 0.16564034 0.0010890509 0.045353215
-0.15854454 -0.08637488 0.04992884 -0.17595924 0.06403932 0.19278698 -0.022701463 0.04288633
0.13653162 0.007970039 0.031089148 -0.09127374 -0.117492214 -0.12404067 0.22225006 -0.28251246
-0.18728682 0.070816025 -0.0768738 0.04255818 -0.11634788 -0.15237843 -0.10412546 0.155958
0.14296149 0.04729628 -0.1773192 -0.21737371 -0.06330548 0.14764327 -0.12826484 0.1553663
0.20640709 0.17782746 -0.0415508 0.012762563 0.14550416 -0.17320368 -0.22109118 -0.01891076
0.11184322 0.009079757 -0.19084877 -0.03046908 -4.442838e-06 0.044439618 0.12722954 -0.08589073
0.0414549 -0.14162426 0.01945359 -0.19881591 -0.022821557 0.07916615 -2.2302122e-09 0.07767333
-0.0034762723 0.058876008 0.137574 0.095689625 0.05694143 0.14691865 -0.19832236 0.045236718
-0.11380389 0.053954154 -0.14951122 0.022594133 0.23512167 -0.15207964 -0.09065598 -0.16903202
0.013344888 0.16597976 0.19029422 0.0997266 -0.015739888 -0.1969997 0.091124535 0.0018969412
-0.18388228 0.031061955 -0.18608463 0.108695954 -0.022451209 0.033963237 0.12844652 0.1300812
-0.16242106 0.03463618 0.21785489 -0.118114606 0.1755579 0.010324444 -0.16111423 -0.03932483
0.19890931 -0.09936121 -0.08238324 0.03128799 0.00010146501 -0.13181734 -0.089673445 0.08577456
-0.17406327 0.099784486 0.12830651 -0.035432592 -0.011746457 0.1756302 3.9691105e-05 -0.14474866
0.029741848 0.14865372 -0.11894703 -0.03246913 -0.12103151 0.015621807 -0.10310937 0.19024149
0.0009408609 0.09117592 0.031819027 0.013679342 -0.0040762853 0.103529505 0.042164464 -0.08365575
-0.16068056 0.19154783 -0.04244502 0.10579354 0.16115844 0.02859546 -0.19094191 0.17540872
-0.019550357 -0.045763053 -0.08236446 -0.11922937 0.019599332 -0.09256727 -0.07175077 0.056037772
00000000: 10f0 44be eeeb 983d c665 aa3d 7326 60bd
00000010: bfad 083e 4191 5cbc 186f b93c d57a a7bd
00000020: de48 7d3d 362d a8bd ebe0 1bbe db3b eebd
00000030: 5767 3d3d d109 6e3e 3576 63be f6d7 9bbe
00000040: c14d f9bd bc04 a1bd 4c60 02bc 33bc 453e
00000050: 2634 3d3e fcba 443d 0bf6 5e3c cc20 283e
00000060: 1261 adbd b89a 19be 79f5 0c3d 6940 4f3d
00000070: c81d f2bd 01f5 b7bd 6744 0cbd 7478 883d
00000080: a6f1 cfbd 8e03 123e a792 1cbe 246d 0f3e
00000090: 5bc7 e0bd 1b2e d53c 4ef4 583e 3606 f33d
000000a0: 9ac1 a13d 57b9 103d 0335 093d 1461 80bc
000000b0: 1007 8db4 4e07 d13c 09eb e8bc 86da 953c
000000c0: 6b1d cb3b f359 043e fa44 473d e446 5d3d
000000d0: 2349 5cbd 629e 41be a916 c0ba 692b 57be
000000e0: e573 0b3e 0c62 8d3d 7744 a7bc a39a d9bd
000000f0: 860e a5bd cfd9 193c 5aef 4bbe bd9c 063e
00000100: 00ff 153e b168 d93d 149d 8f3d 3800 57be
00000110: db2e 50be 4e47 573d 4d04 de3d 1db7 1bbe
00000120: eca0 19be 736f 40bc 7175 2dbd 432f 2abe
00000130: 9d5a ef3d f979 5ebd 1715 043e 18ed b6bc
00000140: f28e 46bc 6726 193e 096f 3f3d 189c d63d
00000150: adb5 c1bd 61e9 7e3d f9f9 f3bd 9669 b6bd
00000160: 9fd4 ab3d c6e3 f13d 99cb b3bd c9c6 7a3d
00000170: 5415 5ebc f098 bdbd 3411 7c3d fe36 40be
00000180: e039 1a3e 7f59 2bbe 0e5a bd3d 407b c33c
00000190: 31f6 2f30 067a eabd f914 a53b 0208 343e
000001a0: bf61 d7bc 6399 5cbd 1496 2bbe fd58 003e
000001b0: a2a4 07bd 9f9d 293e 7cbe 8e3a 4bc4 393d
000001c0: 8059 22be 50e5 b0bd 2f82 4c3d a92e 34be
000001d0: 0c27 833d f369 453e 6bf8 b9bc 94a9 2f3d
000001e0: f2ce 0b3e c494 023c abae fe3c baed babd
000001f0: c29f f0bd 0909 febd 8595 633e 79a5 90be
00000200: 1ec8 3fbe fe07 913d 0370 9dbd 7c51 2e3d
00000210: cc47 eebd 1709 1cbe bb3f d5bd 74b3 1f3e
00000220: 7f64 123e beb9 413d 2a93 35be 3797 5ebe
00000230: 4ea6 81bd cc2f 173e dc57 03be 5818 1f3e
00000240: 615c 533e 6718 363e 2c31 2abd 121a 513c
00000250: 0bff 143e 4e5c 31be ba65 62be bdea 9abc
00000260: 0f0e e53d 43c3 143c dc6d 43be 4b9a f9bc
00000270: b013 95b6 5106 363d 7648 023e 7be7 afbd
00000280: 9dcc 293d f305 11be 235d 9f3c 6696 4bbe
00000290: 46f4 babc dd21 a23d 4f42 19b1 3213 9f3d
000002a0: 2cd2 63bb f827 713d 33e0 0c3e ecf8 c33d
000002b0: 6b3b 693d d871 163e 0415 4bbe 234a 393d
000002c0: 0412 e9bd 08ff 5c3d 7819 19be 5517 b93c
000002d0: bcc3 703e c4ba 1bbe d8a9 b9bd bb16 2dbe
000002e0: 84a4 5a3c 99f6 293e 7ddc 423e 763d cc3d
000002f0: f0f0 80bc 4aba 49be 809f ba3d c9a2 f83a
00000300: a34b 3cbe a475 fe3c f88c 3ebe fc9b de3d
00000310: 99eb b7bc 091d 0b3d 7c87 033e 0234 053e
00000320: b551 26be abde 0d3d 5a15 5f3e 12e6 f1bd
00000330: 73c5 333e db27 293c 21fb 24be 1313 21bd
00000340: e2ae 4b3e e47d cbbd 8bb8 a8bd d627 003d
00000350: 9dc9 d438 20fb 06be b6a6 b7bd 93aa af3d
00000360: a43d 32be cf5b cc3d c862 033e c421 11bd
00000370: 3674 40bc 67d8 333e 007a 2638 fe38 14be
00000380: 2da5 f33c ae38 183e 809a f3bd 5afe 04bd
00000390: 5edf f7bd 9cf2 7f3c 012b d3bd aace 423e
000003a0: 1ba4 763a 71ba ba3d ab54 023d 521f 603c
000003b0: 5c92 85bb 4707 d43d a5b4 2c3d b553 abbd
000003c0: 7289 24be 1d25 443e d4da 2dbd 49aa d83d
000003d0: b806 253e 0741 ea3c 4786 43be 589e 333e
000003e0: 1228 a0bc 0a72 3bbd b3ae a8bd 872e f4bd
000003f0: c78e a03c e993 bdbd 11f2 92bd dd87 653d

convs.1.lin_m.weight f4 [2, 196]
0.096150145 0.01568969 -0.005286283 -0.045877438 0.09319709 0.010899957 -0.043970503 0.01962227
-0.050091024 -0.031474214 -0.0560957 0.101723045 0.042679317 -0.00254448 0.013888757 -0.037017662
-0.03746143 -0.013251216 -0.041233677 -0.013735849 0.020221882 0.07095265 0.03952724 -0.03512068
0.03905949 0.0054455944 -0.02333392 -0.03208024 -0.00037944823 -0.03717355 0.044917937 0.02006961
0.008710516 -0.04558087 -0.02788627 0.037475377 -0.06661271 0.032767344 0.043110766 0.023911173
-0.07851242 -0.13895674 0.02526273 0.014800031 -0.025951445 0.07017578 -0.007545382 -0.01866822
-0.055044286 0.116588935 -0.056575257 -0.061026797 -0.055649277 0.05816391 -0.05010212 -0.009048386
-0.09689256 -0.011382691 -0.060135197 0.081319414 -0.05062031 -0.028709807 0.041933037 -0.056329623
-0.033915322 -0.004292567 0.05637469 -0.0047979783 -0.01059736 0.030183276 0.03728293 0.028999263
-0.05731056 0.055354066 0.022443304 0.062981375 -0.024954766 0.06493509 -0.043065157 0.06452212
0.013303021 0.0141677465 0.008171768 -0.03736413 -0.016913945 -0.06680924 -0.06396712 -0.01649334
-0.015821382 0.046493962 -0.00453635 0.13678545 -0.007759597 -0.0029456506 -0.012172968 0.08684157
0.010460519 0.016227854 0.008160335 0.053508207 -0.08651041 -0.042435452 -0.031477105 -0.025619041
0.0040739733 0.040665407 -0.022302749 -0.018929048 0.07065387 0.00951282 0.06485077 -0.062190782
-0.0010118057 -0.032786876 -0.0064256513 0.015363745 0.016436296 -0.073041245 -0.015155279 -0.04569582
0.032817423 0.065825015 0.006794134 0.093473874 0.010522213 -0.006883405 0.032780405 -0.07238654
-0.048278954 -0.035562996 0.020377733 -0.010780312 -0.02516593 0.015499822 -0.019179067 0.045510948
0.060496993 0.04882319 0.04294276 0.05399215 0.06462923 0.025627518 0.040835254 -0.014162069
0.031003026 -0.013891736 -0.025201216 -0.061627965 -0.056769874 0.005729123 -0.027139165 0.049423814
-0.04919468 0.02880684 0.0069124284 0.003882456 0.02947252 0.027554292 0.040379636 -0.058409836
-0.026122639 -0.03761857 0.021067875 0.045182906 0.023567595 0.04848166 0.018651037 -0.033228718
-0.03710464 0.03723185 0.023482075 0.058540184 -0.051655628 0.060710084 0.02946208 0.007899014
0.06688403 0.014700889 -0.05274458 -0.009673209 -0.015758568 -0.0636468 0.06766853 -0.0067313137
0.029159678 -0.059030388 0.049606476 -0.018730374 -0.012942268 0.022732535 -0.06482094 0.022479173
0.07504487 0.008803741 0.0051068324 0.029087668 -0.00831976 0.008608209 0.0030681447 -0.004286018
0.05199707 -0.044283867 0.048594907 -0.02435826 0.00894771 -0.057382625 0.07893819 -0.07332738
0.041867193 0.025964245 -0.058226317 0.06196865 0.053192858 0.060737733 0.11761788 -0.0032744398
-0.061081965 -0.0572594 0.03673033 0.04735825 0.023314923 -0.057785284 -0.048477117 0.028477758
-0.05454756 0.044830184 0.00037146467 -0.06286856 0.00658119 0.025372174 -0.031340335 -0.04382835
-0.017096328 -0.04354506 0.062000487 0.011654015 -0.022689138 0.08155216 0.0432777 0.03811613
0.058413442 0.024852503 0.009681566 0.012952033 0.042396046 -0.07108947 0.04291825 0.059766922
0.0026559553 -0.06088676 0.061055906 -0.015294031 0.08199053 0.016995227 -0.022809004 -0.045757927
00000000: 5eea c43d aa87 803c 8e38 adbb fbe9 3bbd
00000010: 1ede be3d bc95 323c 6a1a 34bd e2be a03c
00000020: 3f2c 4dbd 1beb 00bd 9bc4 65bd 2c54 d03d
00000030: 82d0 2e3d 4ac1 26bb ab8d 633c d59f 17bd
00000040: 2871 19bd a11b 59bc a5e4 28bd 540c 61bc
00000050: 5ca8 a53c 9f4f 913d 51e7 213d b4da 0fbd
00000060: d8fc 1f3d f570 b23b c726 bfbc 9266 03bd
00000070: aef0 c6b9 4b43 18bd dffb 373d 0669 a43c
00000080: 8db6 0e3c 02b3 3abd bf71 e4bc c87f 193d
00000090: 3f6c 88bd 0d37 063d ea94 303d 5de1 c33c
000000a0: 1fcb a0bd ad4a 0ebe c9f3 ce3c d47b 723c
000000b0: 2098 d4bc 52b8 8f3d 403f f7bb 18ee 98bc
000000c0: 1e76 61bd 2ec6 ee3d 75bb 67bd 3cf7 79bd
000000d0: 7ff0 63bd 483d 6e3d e137 4dbd ae3f 14bc
000000e0: 9b6f c6bd 777e 3abc 5350 76bd cb8a a63d
000000f0: 3e57 4fbd d430 ebbc fac1 2b3d e4b9 66bd
00000100: cbea 0abd a9a8 8cbb 26e9 663d 5c38 9dbb
00000110: 8da0 2dbc eb42 f73c fcb5 183d dd8f ed3c
00000120: 7abe 6abd f2ba 623d 05db b73c 61fc 803d
00000130: f06d ccbc b0fc 843d 1765 30bd 2c24 843d
00000140: eaf4 593c d61f 683c e1e2 053c 210b 19bd
00000150: 1d8f 8abc 48d3 88bd 3201 83bd 0a1d 87bc
00000160: d89b 81bc 7470 3e3d a9a5 94bb 7c11 0c3e
00000170: 3844 febb d10b 41bb 2171 47bc fed9 b13d
00000180: 9962 2b3c 47f0 843c edb2 053c 6c2b 5b3d
00000190: 5f2c b1bd ccd0 2dbd 23ee 00bd 06df d1bc
000001a0: f77e 853b c590 263d 41b4 b6bc 1711 9bbc
000001b0: fab2 903d a9db 1b3c 7bd0 843d c3bb 7ebd
000001c0: 919e 84ba 884b 06bd 458e d2bb 38b8 7b3c
000001d0: 69a5 863c a696 95bd d94d 78bc 8a2b 3bbd
000001e0: 906b 063d 44cf 863d 54a1 de3b 3b6f bf3d
000001f0: 5c65 2c3c 308e e1bb bf44 063d 653f 94bd
00000200: 27c0 45bd 81aa 11bd 34ef a63c e89f 30bc
00000210: c828 cebc f7f2 7d3c 6b1d 9dbc b069 3a3d
00000220: b2cb 773d d3fa 473d bfe4 2f3d df26 5d3d
00000230: 545c 843d cdf0 d13c de42 273d 0608 68bc
00000240: 0ffa fd3c 2a9a 63bc c872 cebc 9b6d 7cbd
00000250: 8787 68bd 5ebb bb3b f452 debc a070 4a3d
00000260: 5c80 49bd 52fc eb3c a781 e23b ce70 7e3b
00000270: 5b70 f13c 8ab9 e13c 1e65 253d 273f 6fbd
00000280: 25ff d5bc ee15 1abd 8996 ac3c b611 393d
00000290: d410 c13c b594 463d 0fca 983c d61a 08bd
000002a0: 09fb 17bd 6d80 183d 7b5d c03c d5c7 6f3d
000002b0: da94 53bd 23ab 783d 765a f13c de6a 013c
000002c0: 7ffa 883d ffdb 703c b30a 58bd 617c 1ebc
000002d0: 1d18 81bc 4159 82bd cc95 8a3d 5a92 dcbb
000002e0: 47e0 ee3c d9c9 71bd 2930 4b3d 7170 99bc
000002f0: ce0b 54bc 9539 ba3c d7c0 84bd 3e26 b83c
00000300: 20b1 993d 913d 103c 3757 a73b 4349 ee3c
00000310: 9a4f 08bc 7209 0d3c ed12 493b ba71 8cbb
00000320: e1fa 543d 0063 35bd 740b 473d f98a c7bc
00000330: 6a99 123c 0b0a 6bbd 59aa a13d aa2c 96bd
00000340: ef7c 2b3d f8b2 d43c b87e 6ebd d7d2 7d3d
00000350: c1e0 593d 21c8 783d a5e1 f03d fc97 56bb
00000360: 1531 7abd d588 6abd 8b72 163d b9fa 413d
00000370: f0fe be3c 43b0 6cbd f18f 46bd 304a e93c
00000380: 436d 5fbd db9f 373d 25c1 c239 3bc1 80bd
00000390: 06a7 d73b 4ed9 cf3c b95e 00bd 5b85 33bd
000003a0: 990d 8cbc 4e5c 32bd 39f4 7d3d 7bf0 3e3c
000003b0: 92de b9bc d204 a73d f543 313d a91f 1c3d
000003c0: ef42 6f3d 7a97 cb3c 6e9f 1e3c c434 543c
000003d0: 7aa7 2d3d 5b97 91bd 0ccb 2f3d 29ce 743d
000003e0: 890f 2e3b 6564 79bd c215 7a3d d193 7abc
000003f0: a7ea a73d 9339 8b3c f3d9 babc aa6c 3bbd

convs.1.lin_m.bias f4 [2]
0.00076360366 -0.0004384084
00000000: 932c 483a 2eda e5b9

convs.1.gat.att_src f4 [1, 1, 2]
-0.39292935 -0.64868975
00000000: 092e c9be 8810 26bf

convs.1.gat.att_dst f4 [1, 1, 2]
-0.59906244 -0.75609183
00000000: 285c 19bf 3c8f 41bf

convs.1.gat.bias f4 [2]
0.0016194251 -0.0011523427
00000000: e442 d43a 340a 97ba

convs.1.gat.lin_src.weight f4 [2, 96]
0.09146037 -0.20519437 -0.023725472 -0.15970823 0.022700349 0.23720111 0.01996398 -0.2406509
0.13653685 -0.15059467 -0.017343262 -0.026966777 0.032117765 0.21804088 -0.06292464 -0.09124069
-0.032913692 -0.19331571 0.24541736 0.21641397 0.13714431 -0.057822227 -0.18888184 0.012795965
-0.0460911 -0.14705217 0.061769113 0.13061355 0.12381509 -0.100674175 -0.33639404 -0.033529833
0.3036598 0.020761982 -0.13991547 -0.10607928 -0.22699784 -0.18713367 0.046721414 -0.1174091
0.16307878 -0.08944119 0.18022501 0.16385901 0.20961368 0.11393442 -0.24030384 0.12767951
-0.29123476 -0.20192793 0.0802806 0.30606562 -0.13894098 0.27152762 0.07607717 0.14864014
0.15482163 -0.020500673 -0.1369434 -0.15133484 0.03692603 -0.07846005 0.003417847 -0.10585085
0.06611839 0.2536533 -0.005312021 0.049544103 0.22726145 0.17655706 0.047371805 -0.10651197
-0.18733723 0.15159933 -0.15884608 0.095956355 -0.26995203 -0.03115289 0.050141476 0.04535469
-0.11936885 0.22337332 0.094653346 0.07107103 0.24808292 0.07078392 -0.09596737 -0.31354573
0.011756534 0.27506936 -0.19047071 -0.1589389 -0.19960353 0.023327976 0.12747347 -0.0827534
-0.045493823 -0.080714084 -0.1942443 -0.15177378 -0.21973784 0.20262448 -0.052166194 0.11158159
0.17457509 0.06271319 0.020588102 -0.087805904 -0.1996624 -0.0923824 0.29180953 0.09850704
-0.10667392 -0.21841069 -0.20433345 -0.0313197 0.1434573 -0.004298516 0.26351106 0.12341252
-0.19574028 0.13864698 -0.008293654 -0.15999024 -0.006718249 -0.116759665 0.09688737 -0.09837669
-0.07473007 0.079841584 0.049697 -0.029933855 0.06988806 -0.1745059 -0.11084903 0.041576974
-0.02658465 -0.107524745 -0.0023334187 -0.19437048 0.0052316473 0.2109598 -0.09251343 0.16735189
0.1954576 0.15273543 -0.0075979554 0.019399568 0.041698795 -0.044969533 0.24991427 0.2076115
0.089202106 0.21807268 -0.15503743 -0.09226523 -0.02561612 -0.17256324 0.10475554 0.07284229
0.0932156 -0.098371156 0.06312846 0.05875117 -0.18502393 0.17454378 -0.09018433 -0.08311018
0.028680425 0.14281784 0.19550665 -0.056858055 -0.08743107 -0.1957979 0.19414192 -0.17631203
0.21257544 0.18171127 -0.15067668 0.2392427 -0.17467181 0.14363779 -0.15140215 0.03138221
-0.19929832 0.10237267 0.2748339 -0.19587414 0.056999356 0.2403872 -0.1320801 0.1515009
00000000: 934f bb3d 791e 52be ec5b c2bc 8e8a 23be
00000010: 15f6 b93c d9e4 723e 808b a33c 316d 76be
00000020: 51d0 0b3e 7d35 1abe 7513 8ebc 6ee9 dcbc
00000030: eb8d 033d 1c46 5f3e a2de 80bd 66dc babd
00000040: 82d0 06bd 8ef4 45be b04e 7b3e a09b 5d3e
00000050: 8f6f 0c3e 00d7 6cbd 3e6a 41be 2ba6 513c
00000060: 05ca 3cbd d894 16be 9c01 7d3d 8fbf 053e
00000070: c492 fd3d 432e cebd d73b acbe 9456 09bd
00000080: 4c79 9b3e 0815 aa3c 0046 0fbe 1840 d9bd
00000090: 1f72 68be f89f 3fbe f45e 3f3d 2f74 f0bd
000000a0: 20fe 263e f12c b7bd e88c 383e a8ca 273e
000000b0: f8a4 563e 7356 e93d 3612 76be 6bbe 023e
000000c0: b91c 95be 32c6 4ebe 286a a43d a2b4 9c3e
000000d0: 8b46 0ebe ab05 8b3e 59ce 9b3d 1f35 183e
000000e0: 9089 1e3e 07f1 a7bc e43a 0cbe 85f7 1abe
000000f0: c03f 173d aaaf a0bd f5fd 5f3b 55c8 d8bd
00000100: 1469 873d d8de 813e 7610 aebb c2ee 4a3d
00000110: 3ab7 683e 60cb 343e f008 423d f322 dabd
00000120: 55d5 3fbe db3c 1b3e 8ca8 22be c484 c43d
00000130: 2737 8abe 5834 ffbc 2661 4d3d d7c5 393d
00000140: a877 f4bd fabb 643e 9dd9 c13d b08d 913d
00000150: 7309 7e3e 29f7 903d 8a8a c4bd 1189 a0be
00000160: 7a9e 403c e4d5 8c3e c10a 43be e1c0 22be
00000170: de64 4cbe 501a bf3c 6888 023e 9d7a a9bd
00000180: bb57 3abd 6d4d a5bd fae7 46be 966a 1bbe
00000190: f502 61be cb7c 4f3e 38ac 55bd e384 e43d
000001a0: d0c3 323e c66f 803d 61a8 a83c 95d3 b3bd
000001b0: 4d74 4cbe fc32 bdbd 0f68 953e 0fbe c93d
000001c0: db77 dabd 0da7 5fbe ca3c 51be 1649 00bd
000001d0: 78e6 123e 91da 8cbb ecea 863e b4bf fc3d
000001e0: 2470 48be 79f9 0d3e 1be2 07bc 7bd4 23be
000001f0: c224 dcbb b11f efbd e36c c63d b879 c9bd
00000200: 140c 99bd fc83 a33d 158f 4b3d d837 f5bc
00000210: 7921 8f3d adb1 32be d104 e3bd 9e4c 2a3d
00000220: 0dc8 d9bc ef35 dcbd 45ec 18bb 0e09 47be
00000230: 3d6e ab3b d905 583e ae77 bdbd 4b5e 2b3e
00000240: 0926 483e ad66 1c3e 45f8 f8bb d8eb 9e3c
00000250: 5bcc 2a3d f931 38bd 87e9 7f3e 1c98 543e
00000260: 98af b63d 724e 5f3e 22c2 1ebe 8ef5 bcbd
00000270: e6d8 d1bc 6bb4 30be 138a d63d 572e 953d
00000280: d2e7 be3d d176 c9bd 7e49 813d 11a5 703d
00000290: ea76 3dbe 9bbb 323e 90b2 b8bd ac35 aabd
000002a0: 36f3 ea3c d73e 123e e532 483e fee3 68bd
000002b0: 100f b3bd 3f7f 48be 24cd 463e 248b 34be
000002c0: 60ad 593e 8512 3a3e fd4a 1abe 0afc 743e
000002d0: 2bdd 32be c915 133e 2a09 1bbe a28a 003d
000002e0: dc14 4cbe c3a8 d13d 07b7 8c3e 3b93 48be
000002f0: 2878 693d 1028 763e 0140 07be 0d23 1b3e

convs.1.gat.lin_dst.weight f4 [2, 96]
0.09146037 -0.20519437 -0.023725472 -0.15970823 0.022700349 0.23720111 0.01996398 -0.2406509
0.13653685 -0.15059467 -0.017343262 -0.026966777 0.032117765 0.21804088 -0.06292464 -0.09124069
-0.032913692 -0.19331571 0.24541736 0.21641397 0.13714431 -0.057822227 -0.18888184 0.012795965
-0.0460911 -0.14705217 0.061769113 0.13061355 0.12381509 -0.100674175 -0.33639404 -0.033529833
0.3036598 0.020761982 -0.13991547 -0.10607928 -0.22699784 -0.18713367 0.046721414 -0.1174091
0.16307878 -0.08944119 0.18022501 0.16385901 0.20961368 0.11393442 -0.24030384 0.12767951
-0.29123476 -0.20192793 0.0802806 0.30606562 -0.13894098 0.27152762 0.07607717 0.14864014
0.15482163 -0.020500673 -0.1369434 -0.15133484 0.03692603 -0.07846005 0.003417847 -0.10585085
0.06611839 0.2536533 -0.005312021 0.049544103 0.22726145 0.17655706 0.047371805 -0.10651197
-0.18733723 0.15159933 -0.15884608 0.095956355 -0.26995203 -0.03115289 0.050141476 0.04535469
-0.11936885 0.22337332 0.094653346 0.07107103 0.24808292 0.07078392 -0.09596737 -0.31354573
0.011756534 0.27506936 -0.19047071 -0.1589389 -0.19960353 0.023327976 0.12747347 -0.0827534
-0.045493823 -0.080714084 -0.1942443 -0.15177378 -0.21973784 0.20262448 -0.052166194 0.11158159
0.17457509 0.06271319 0.020588102 -0.087805904 -0.1996624 -0.0923824 0.29180953 0.09850704
-0.10667392 -0.21841069 -0.20433345 -0.0313197 0.1434573 -0.004298516 0.26351106 0.12341252
-0.19574028 0.13864698 -0.008293654 -0.15999024 -0.006718249 -0.116759665 0.09688737 -0.09837669
-0.07473007 0.079841584 0.049697 -0.029933855 0.06988806 -0.1745059 -0.11084903 0.041576974
-0.02658465 -0.107524745 -0.0023334187 -0.19437048 0.0052316473 0.2109598 -0.09251343 0.16735189
0.1954576 0.15273543 -0.0075979554 0.019399568 0.041698795 -0.044969533 0.24991427 0.2076115
0.089202106 0.21807268 -0.15503743 -0.09226523 -0.02561612 -0.17256324 0.10475554 0.07284229
0.0932156 -0.098371156 0.06312846 0.05875117 -0.18502393 0.17454378 -0.09018433 -0.08311018
0.028680425 0.14281784 0.19550665 -0.056858055 -0.08743107 -0.1957979 0.19414192 -0.17631203
0.21257544 0.18171127 -0.15067668 0.2392427 -0.17467181 0.14363779 -0.15140215 0.03138221
-0.19929832 0.10237267 0.2748339 -0.19587414 0.056999356 0.2403872 -0.1320801 0.1515009
00000000: 934f bb3d 791e 52be ec5b c2bc 8e8a 23be
00000010: 15f6 b93c d9e4 723e 808b a33c 316d 76be
00000020: 51d0 0b3e 7d35 1abe 7513 8ebc 6ee9 dcbc
00000030: eb8d 033d 1c46 5f3e a2de 80bd 66dc babd
00000040: 82d0 06bd 8ef4 45be b04e 7b3e a09b 5d3e
00000050: 8f6f 0c3e 00d7 6cbd 3e6a 41be 2ba6 513c
00000060: 05ca 3cbd d894 16be 9c01 7d3d 8fbf 053e
00000070: c492 fd3d 432e cebd d73b acbe 9456 09bd
00000080: 4c79 9b3e 0815 aa3c 0046 0fbe 1840 d9bd
00000090: 1f72 68be f89f 3fbe f45e 3f3d 2f74 f0bd
000000a0: 20fe 263e f12c b7bd e88c 383e a8ca 273e
000000b0: f8a4 563e 7356 e93d 3612 76be 6bbe 023e
000000c0: b91c 95be 32c6 4ebe 286a a43d a2b4 9c3e
000000d0: 8b46 0ebe ab05 8b3e 59ce 9b3d 1f35 183e
000000e0: 9089 1e3e 07f1 a7bc e43a 0cbe 85f7 1abe
000000f0: c03f 173d aaaf a0bd f5fd 5f3b 55c8 d8bd
00000100: 1469 873d d8de 813e 7610 aebb c2ee 4a3d
00000110: 3ab7 683e 60cb 343e f008 423d f322 dabd
00000120: 55d5 3fbe db3c 1b3e 8ca8 22be c484 c43d
00000130: 2737 8abe 5834 ffbc 2661 4d3d d7c5 393d
00000140: a877 f4bd fabb 643e 9dd9 c13d b08d 913d
00000150: 7309 7e3e 29f7 903d 8a8a c4bd 1189 a0be
00000160: 7a9e 403c e4d5 8c3e c10a 43be e1c0 22be
00000170: de64 4cbe 501a bf3c 6888 023e 9d7a a9bd
00000180: bb57 3abd 6d4d a5bd fae7 46be 966a 1bbe
00000190: f502 61be cb7c 4f3e 38ac 55bd e384 e43d
000001a0: d0c3 323e c66f 803d 61a8 a83c 95d3 b3bd
000001b0: 4d74 4cbe fc32 bdbd 0f68 953e 0fbe c93d
000001c0: db77 dabd 0da7 5fbe ca3c 51be 1649 00bd
000001d0: 78e6 123e 91da 8cbb ecea 863e b4bf fc3d
000001e0: 2470 48be 79f9 0d3e 1be2 07bc 7bd4 23be
000001f0: c224 dcbb b11f efbd e36c c63d b879 c9bd
00000200: 140c 99bd fc83 a33d 158f 4b3d d837 f5bc
00000210: 7921 8f3d adb1 32be d104 e3bd 9e4c 2a3d
00000220: 0dc8 d9bc ef35 dcbd 45ec 18bb 0e09 47be
00000230: 3d6e ab3b d905 583e ae77 bdbd 4b5e 2b3e
00000240: 0926 483e ad66 1c3e 45f8 f8bb d8eb 9e3c
00000250: 5bcc 2a3d f931 38bd 87e9 7f3e 1c98 543e
00000260: 98af b63d 724e 5f3e 22c2 1ebe 8ef5 bcbd
00000270: e6d8 d1bc 6bb4 30be 138a d63d 572e 953d
00000280: d2e7 be3d d176 c9bd 7e49 813d 11a5 703d
00000290: ea76 3dbe 9bbb 323e 90b2 b8bd ac35 aabd
000002a0: 36f3 ea3c d73e 123e e532 483e fee3 68bd
000002b0: 100f b3bd 3f7f 48be 24cd 463e 248b 34be
000002c0: 60ad 593e 8512 3a3e fd4a 1abe 0afc 743e
000002d0: 2bdd 32be c915 133e 2a09 1bbe a28a 003d
000002e0: dc14 4cbe c3a8 d13d 07b7 8c3e 3b93 48be
000002f0: 2878 693d 1028 763e 0140 07be 0d23 1b3e

bns.0.weight f4 [96]
1.0790746 1.0188922 1.1092365 1.0267591 0.9970662 1.0018276 0.98865855 1.0053407
0.9852971 0.98887575 1.0324985 1.2072864 0.99920225 0.9753769 1.1686802 0.9679017
0.9167531 0.98526967 1.0574656 1.1223923 1.0115505 1.0397658 1.0307437 0.9983631
0.9772175 0.9818234 1.0176011 0.9963063 1.0081854 1.0736948 1.1716481 1.0002986
1.1897142 1.0011519 0.9758651 0.96111214 1.0038652 1.0360144 0.98820746 0.97097915
0.97799146 1.1647222 0.9891706 0.99840105 1.0103092 1.0049633 0.9806814 0.9779267
1.2577969 1.0829884 0.98891467 1.0710279 0.9875282 1.0384922 1.0121636 1.0028207
1.1046461 1.0113761 0.9928298 1.012519 1.0268602 0.99532443 1.0069702 0.990891
0.991463 1.020513 0.9984964 0.9866641 1.0181031 1.1201961 0.97363746 1.0011439
0.9898632 0.98993397 0.99043643 1.2042798 1.1275839 0.9999898 1.0429411 1.0290275
0.9964022 1.01746 1.0136777 0.99920714 1.2234209 1.0106301 1.0214828 1.144937
1.0462316 1.0013124 1.132194 1.1603651 0.9887511 1.0231872 1.0669105 1.0545832
00000000: 1e1f 8a3f 0f6b 823f 76fb 8d3f d86c 833f
00000010: bb3f 7f3f e33b 803f ba18 7d3f 01af 803f
00000020: 6e3c 7c3f f626 7d3f e928 843f 5c88 9a3f
00000030: b8cb 7f3f 4db2 793f 5097 953f 68c8 773f
00000040: 55b0 6a3f a23a 7c3f 085b 873f 8daa 8f3f
00000050: 7d7a 813f 0c17 853f 69ef 833f b994 7f3f
00000060: ed2a 7a3f c758 7b3f c140 823f ee0d 7f3f
00000070: 380c 813f d56e 893f 91f8 953f c909 803f
00000080: 8e48 983f bf25 803f 4cd2 793f 720b 763f
00000090: a87e 803f 1f9c 843f 2afb 7c3f 1792 783f
000000a0: a65d 7a3f 9e15 953f 493a 7d3f 3697 7f3f
000000b0: d051 813f a3a2 803f f00d 7b3f 6759 7a3f
000000c0: 7dff a03f 5d9f 8a3f 8329 7d3f 7117 893f
000000d0: a6ce 7c3f 50ed 843f 948e 813f 6e5c 803f
000000e0: 0b65 8d3f c674 813f 182a 7e3f 399a 813f
000000f0: 2870 833f 95cd 7e3f 66e4 803f 08ab 7d3f
00000100: 85d0 7d3f 2ca0 823f 769d 7f3f 0596 7c3f
00000110: 3451 823f 9662 8f3f 4e40 793f 7c25 803f
00000120: ad67 7d3f 506c 7d3f 3e8d 7d3f d725 9a3f
00000130: ab54 903f 55ff 7f3f 187f 853f 2cb7 833f
00000140: 3714 7f3f 213c 823f 31c0 813f 0acc 7f3f
00000150: 0e99 9c3f 545c 813f f3bf 823f 4c8d 923f
00000160: ebea 853f 012b 803f bceb 903f d886 943f
00000170: cb1e 7d3f ccf7 823f 8690 883f 95fc 863f

bns.0.bias f4 [96]
-0.035828102 0.030068869 0.03371662 0.022537727 0.026381494 -0.023533868 -0.00040357333 -0.06123551
-0.05503451 -0.020533018 -0.0626579 -0.0869059 0.030387051 -0.03405499 -0.01672141 -0.0040643928
0.014244578 0.021289375 -0.0074021234 -0.11416995 -0.014995608 -0.008521773 -0.01857273 -0.05023957
0.011623005 -0.009232892 -0.025289854 0.05466087 -0.059072793 0.019051872 -0.09390702 0.017888382
-0.1858915 -0.034649044 0.0017380591 0.012963141 -0.0052911546 0.042944055 0.002721382 0.025971258
-0.0152002545 -0.015033463 -0.105651364 0.08578722 -0.042696264 -0.045545373 -0.007508132 -0.07368859
-0.20356862 0.014610553 -0.0033357868 -0.039164882 -0.0020085855 -0.06514369 -0.09071193 -0.05745203
-0.026602427 -0.031005226 0.035928115 0.009214001 0.036756948 0.025230125 -0.06468483 -0.004509844
-0.024296891 -0.046834104 -0.016047612 -0.031374447 -0.0071883635 -0.014267917 0.019298377 0.022559652
-0.012706734 -0.039574225 -0.0380988 -0.102872886 0.018795915 0.018885963 -0.08231935 -0.026456712
-0.094651856 -0.012296901 -0.00940512 -0.07729347 -0.159469 -0.07624064 0.0055256365 -0.05761243
0.024577577 -0.0452248 -0.049986098 0.03180839 0.042926777 -0.16247833 -0.01434416 -0.043319255
00000000: 7dc0 12bd fd52 f63c 701a 0a3d 0aa1 b83c
00000010: 011e d83c 19ca c0bc b296 d3b9 16d2 7abd
00000020: de6b 61bd dc34 a8bc c952 80bd b8fb b1bd
00000030: 44ee f83c 3f7d 0bbd 57fb 88bc 992e 85bb
00000040: 1762 693c 0e67 ae3c 838d f2bb efd1 e9bd
00000050: 23b0 75bc e89e 0bbc d625 98bc 02c8 4dbd
00000060: 6b6e 3e3c 8e45 17bc ab2c cfbc 14e4 5f3d
00000070: 50f6 71bd ac12 9c3c 5352 c0bd a88a 923c
00000080: 575a 3ebe 28ec 0dbd 96cf e33a 5b63 543c
00000090: 6c61 adbb 1be6 2f3d 3759 323b adc1 d43c
000000a0: 7d0a 79bc ea4e 76bc be5f d8bd 36b1 af3d
000000b0: 47e2 2ebd c98d 3abd c706 f6bb 0bea 96bd
000000c0: 4b74 50be 1a61 6f3c 379d 5abb 5b6b 20bd
000000d0: 79a2 03bb 0e6a 85bd 2dc7 b9bd d252 6bbd
000000e0: 55ed d9bc acfe fdbc 5c29 133d 52f6 163c
000000f0: 748e 163d 68af ce3c 7b79 84bd 50c7 93bb
00000100: 460a c7bc 1ed5 3fbd 4876 83bc 7e82 00bd
00000110: 5d8c ebbb fbc3 69bc a117 9e3c 05cf b83c
00000120: e82f 50bc 9518 22bd 7d0d 1cbd 05af d2bd
00000130: e4f9 993c bcb6 9a3c 0c97 a8bd bfbb d8bc
00000140: d5d8 c1bd f178 49bc ef17 1abc 0a4c 9ebd
00000150: d74b 23be 0d24 9cbd 6610 b53b 03fb 6bbd
00000160: ea56 c93c a43d 39bd 39be 4cbd 8449 023d
00000170: fdd3 2f3d b860 26be c503 6bbc 886f 31bd
