model.pt (torch, 52111 bytes, 10 tensors)

convs.0.att_src f4 [1, 4, 128]
00000000: 51c2 2fbe 0239 293e 533c 81bd b763 1c3e
00000010: 6b23 3abe a920 163e d851 69be 2fea 853d
00000020: 54b9 183e f901 19be 3dd3 26be eb11 2c3e
00000030: a440 a83d 0eb4 833e 0c13 53bd 0d8b cd3d
00000040: 11aa 83bd 8323 5ebe db4c 06be 41d6 31be
00000050: fbe8 643e a3ea 07be 9d5d 833e a5d0 cebd
00000060: 5e00 993d ae8e edbc ddc0 6ebe 8853 d3bd
00000070: 5970 743e fd5c 2dbe 0592 81bd 068d 6dbd
00000080: fb94 053e cd21 af3d 37a2 04be 8aff f4bc
00000090: 5227 1bbe 427d 4d3e 5634 97bd 2f2d 583e
000000a0: 0eb6 353e 8a36 7ebd b8d7 6c3d 0d54 b0bd
000000b0: ae03 ae3d 6e63 7ebe 3a8d 55bd 0b57 f23d
000000c0: fa43 43bb bd56 863e 282f 9fbd 6e5e 163e
000000d0: f580 893e 0e41 063d 09c8 333e 36e9 0abe
000000e0: 0543 9fbd f4c9 f63d b334 e9bd 06f2 4d3e
000000f0: db8b 93bc 808a 323d cd98 0dbe 8993 433e
00000100: 4cb4 48be 7cae 3ebe 26c1 05be a1f8 babd
00000110: 99a6 4e3e 075e 433e 256f 953d 01a5 583e
00000120: e618 6abc db90 e03c 9138 55be 1403 04bd
00000130: 9def 1cbe f8d2 1b3e ff0c 303e 2b36 57bc
00000140: 9e0f 143d 855a 543d 07aa 3ebe 42f8 06be
00000150: 2c71 023e 1c55 a63d 1e09 f53d a65b e43d
00000160: f008 79bd 8c9c 1a3e 84a4 9b3d f489 573d
00000170: 4270 ee3c a331 293e dc1f d8bc a679 b0bd
00000180: 4c85 34be 8146 cabb fe78 9e3d 4c6d ae3d
00000190: 7782 0d3e 234d 873b 9320 9cbd 37e8 263e
000001a0: 2e95 7c3d 5443 fcbd 5040 983d 3746 99bd
000001b0: d7ed 99bd 448b bc3c 6ead f03c 73e3 75be
000001c0: 937a 9bbd d56a ccbc 2616 16bd f95b 49be
000001d0: cf2a 723d 5ac6 ddbd 00ea 7ebe 2af1 d4bd
000001e0: 87fd ef3c c8d8 543e f38f 3b3e c322 4ebe
000001f0: 1689 87bd 9106 403e cfb3 24be 7a9c 013e
00000200: 6394 3cbe 3791 553e 9a09 f93d bb11 18bd
00000210: dafa d33c 385f 523e 61ad a5bd 3b4b 9b3c
00000220: f5ee 73bd e35a 593e ad35 c23d 6c20 073d
00000230: beb1 793e 3a89 fd3d 5098 80bd 1b99 eebd
00000240: 5c0d 7dbe d859 c63d 170c 87bd bdba 6e3e
00000250: 7eeb ad3c 1d76 523e 1fd7 bd3c 1686 a93d
00000260: a950 54be 12e8 64be 1189 2cbe d514 873e
00000270: d7a9 9bbc f4f1 d7bd 1fd8 de3d 5102 893e
00000280: a766 0abe 2fb6 3fbe b7aa eabd 769a 8d3d
00000290: fea9 ae3c 21f1 cd3b e599 d1bd e547 4a3a
000002a0: 1581 2b3e 9e00 373e 2f7c 383d b459 49bd
000002b0: e020 a9bd bd86 4bbe 1c92 053e e91e 1b3e
000002c0: 3acb 1abc ef2c cc3d 8f87 203e 1af6 263e
000002d0: 5f40 173e 089d 493e 1bc4 f83d c9c4 a5bd
000002e0: df12 78be 5cf0 163e d6bf e73c 1edc b73d
000002f0: 08bf 2f3e 14a7 213e 24ef 8e3d cdb6 81be
00000300: 5042 9f3d d331 e3bd 5f20 72bd 8e8b 213e
00000310: 5ef1 a5bd 03cd 1fbc aadc 163e 9b0e 4abe
00000320: ba5c 413e 9556 473d e3ed 323e f44f 35ba
00000330: b553 02be 8780 1d3e 2c09 e8bd af8a 6abe
00000340: 9927 813e 75e2 23be fbcf 623e 424f 3d3e
00000350: 5279 8a3b a8be 893e 209d 8b3e 227a 01be
00000360: 1b0e 393e 83fb 193e 1bfa 41be eb76 6ebe
00000370: e8d1 06be c5eb e13d 709f 5a3e 968b 4bbe
00000380: 3883 72be f111 04be ad2f e8bc 07b4 15be
00000390: 5e23 79be cde8 afbd 8a10 80be 68df 9f3c
000003a0: 1231 94bd 4e93 76be 2768 043d 91b1 4d3d
000003b0: b17c ccbc a6ac 21bc 9de7 213d 8ed9 063e
000003c0: 2145 563e 5626 38be f2b1 a33d 8d7a 183e
000003d0: 5e5a 563e 80c1 063e b9a4 e7bd a668 eb3d
000003e0: 9489 bf3d b58f 82bd e6f4 cabd b0fa 7fbe
000003f0: b9e4 1e3d 293f ca3c 71a1 813e de4d 61be
-0.1716397 0.16525653 -0.06310334 0.15272413 -0.18177573 0.14660896 -0.22785127 0.065388076
0.14914447 -0.14942159 -0.16291519 0.1680371 0.08215454 0.25723308 -0.051531836 0.100362875
-0.06428922 -0.21693234 -0.13115256 -0.17366888 0.223545 -0.132731 0.2565736 -0.100983895
0.07470773 -0.028998699 -0.23315759 -0.10318667 0.23870982 -0.16930003 -0.06326679 -0.05799582
0.13045113 0.08551369 -0.12952505 -0.029907007 -0.15151718 0.20067313 -0.07383029 0.21110986
0.1774523 -0.06206373 0.057822913 -0.086097814 0.084967956 -0.24842617 -0.052136637 0.118330084
-0.0029795156 0.2623805 -0.07772666 0.1468446 0.268562 0.032776885 0.17556776 -0.13565525
-0.07776455 0.12050238 -0.11387005 0.20111856 -0.018011024 0.043589115 -0.1382782 0.19099249
-0.19600028 -0.18621248 -0.13061962 -0.091294535 0.2018074 0.19078837 0.0729659 0.21156694
-0.014288163 0.027412822 -0.2082236 -0.032229498 -0.1532578 0.15217197 0.17192458 -0.013135473
0.036147706 0.05184414 -0.18619548 -0.1318064 0.12738484 0.08121702 0.119646296 0.11150293
-0.06079954 0.1509878 0.07599738 0.052621797 0.029106263 0.16522841 -0.02638238 -0.086169526
-0.17628974 -0.0061729555 0.07737921 0.085169405 0.138193 0.0041290685 -0.076234005 0.1629952
0.061665706 -0.12317529 0.07434142 -0.074840955 -0.075160675 0.023015626 0.029379573 -0.24012546
-0.075917386 -0.024953285 -0.036642216 -0.19663991 0.059122857 -0.10828848 -0.24893951 -0.10397561
0.029295696 0.2078582 0.18316631 -0.20130448 -0.06617944 0.18752505 -0.16084217 0.12657347
-0.1841598 0.20856176 0.121600345 -0.037126284 0.025876451 0.20544136 -0.0808971 0.018956771
-0.05955406 0.21226077 0.09482894 0.032989904 0.2438421 0.123796895 -0.06279051 -0.11650296
-0.24712127 0.09685105 -0.06594103 0.23313423 0.021230455 0.20552869 0.023173867 0.08277528
-0.20733894 -0.22354153 -0.16849162 0.2638308 -0.019001884 -0.10544196 0.108810656 0.2675958
-0.13515721 -0.18721841 -0.114583425 0.06914227 0.021321293 0.0062848483 -0.10234431 0.00077164016
0.1674846 0.17871329 0.045040306 -0.049157813 -0.082582235 -0.19875617 0.13044018 0.1514851
-0.009447867 0.09969508 0.15676711 0.16304818 0.1477065 0.19688809 0.12146779 -0.080941744
-0.24225949 0.14740127 0.028289717 0.08977531 0.17162716 0.15786391 0.06979206 -0.25334778
0.0777632 -0.110934876 -0.059112903 0.15775892 -0.08102678 -0.009753468 0.14732614 -0.19732134
0.18883029 0.048666555 0.17473559 -0.0006916516 -0.12727244 0.1538106 -0.113298744 -0.22904466
0.25225523 -0.16004355 0.22149651 0.18487266 0.0042258883 0.26903272 0.27268314 -0.12644246
0.18071787 0.1503735 -0.18943064 -0.23287551 -0.1316601 0.110312976 0.21349883 -0.19877467
-0.23682868 -0.12897469 -0.028343046 -0.14619456 -0.24329898 -0.08589325 -0.25012618 0.019515708
-0.07235922 -0.2407963 0.03232589 0.05021817 -0.024961801 -0.009867823 0.039527524 0.13168928
0.20924808 -0.17983374 0.07992925 0.148905 0.2093291 0.13159752 -0.11310715 0.114945695
0.09352413 -0.06375066 -0.09909992 -0.24997973 0.038792346 0.02468832 0.25318483 -0.2200236

convs.0.att_dst f4 [1, 4, 128]
00000000: 4771 463e aaad 96bd 4d85 48be 7726 d93d
00000010: 7142 943e 7e32 223e 7cac 4d3d 801a 1c3e
00000020: 33e5 873e d563 113e 3f07 9fbe f332 07bd
00000030: b57c 2b3d aa88 ffbd 3496 953e 97f0 283e
00000040: 33ee 8abc 0ea3 1f3e 0291 c03e 3767 d4bb
00000050: c03e ddbd 7e06 803e 5424 853e ca53 543d
00000060: 63cf a8bc 271b 82bd f764 9fbd ee16 af3d
00000070: 84b3 ac3d e6a2 143e 227b c8bd af9b c7be
00000080: 91a2 863b 30f8 d938 06a8 453e 4688 29be
00000090: 4f73 b13e 837c 87be 47b8 6dbe 3d7f e2bc
000000a0: 9ccd 0d3e 6130 c63d 100c 61be bd1c 0ebe
000000b0: 138d c23d 5f02 cb3d f52e ad3d dd73 7fbe
000000c0: f359 933e a559 6e3e 5f1b bb3c edbb e03d
000000d0: 2534 6cbd 6e90 46be dad4 053d 5b08 263d
000000e0: 904f 77be f411 d2be a081 fb3d fc9b 3a3e
000000f0: 5787 323d 9e16 40bd 3b57 03bd 8fbc 34be
00000100: aef8 4c3d 545c 213c db0a 493e 0e1c a43d
00000110: f35d e03d a601 223e ffe3 8fbe 3dbf 20be
00000120: 7df0 953d 1e49 053e 4014 8e3e 5ab4 373e
00000130: 6b0c b5bd defe 2f3e f6f0 49bd 2b1f 6a3e
00000140: d1ad ce3c 4d61 3e3e cd4b 84be dd02 573e
00000150: 1e50 683d ec4a af3e 715f cbbd 1b47 a83d
00000160: 48ad 903e 9f3d b2ba 66ea 393e 15e4 933e
00000170: f490 43be f4f8 e3bd 1c48 d83c 96ed b83c
00000180: 0bda dcbc acb9 8e3e 0bfe cf3c 808b 2bbd
00000190: ced1 dcbd 6711 aa3e f16f d03d c307 273e
000001a0: 3b20 e1bd c7cf 013d e332 18be d31d 8c3e
000001b0: b6dd 423e 3630 adbe f58d b83d 6b09 dfbd
000001c0: 3638 c83d 1390 90bd 70bb 393d b563 203e
000001d0: 6ec5 b03d 6f21 a13e 59c3 21be a38f 873c
000001e0: 0072 0d3e 6c8d 1ebe ada0 69be f8aa 1c3e
000001f0: 18d6 5d3e 7dc2 f3bc 061b 4ebe c5da 02bb
00000200: 772d 393c 8483 32be a6d4 61be fa9b 9abd
00000210: b591 35be 4f88 24be 933a 2abe 3e52 523e
00000220: 0299 b1bd e708 053e 5199 fabd 1109 bfbd
00000230: 4879 fd3d 2b14 3b3e c33e 9a3d a1f1 413e
00000240: 9ee5 d63d cef3 0cbe 5ae1 18be bc44 a73d
00000250: f88c f23d 9421 0dbe 8bd4 14be 4735 e2bd
00000260: bb8a 28be 5301 823c 5ac4 9a3c df3a 4fbe
00000270: f561 283e ecfe 463e 43cd 35bd d716 ef3d
00000280: 1eb5 46bd 5712 93bd bbdd eabd 2546 2e3e
00000290: 1edf 893c 9eb3 8a3e f6f0 173d 4d1c cabd
000002a0: 5163 023e eb80 09bd aa11 8abc da33 df3d
000002b0: 09ac d9bd c81c 483e c933 4fbe 33c5 86be
000002c0: 7755 fcbc 677c 383e da8a 8cbd 8d40 053d
000002d0: 658f 8fbe 2e6b 49be cd1b 3dbe 1ee6 3e3d
000002e0: 677c b13d ff4b e7bd 660e ee3d f71a b0bc
000002f0: 162f 813d ad66 abbd 760f 81bd c769 0fbe
00000300: 8615 91bd 2085 dc3c 958c 41bc d256 513b
00000310: 2aee 823d 3481 64bc 902a 80be e742 8d3c
00000320: eb8d a33d bda2 443e dc17 2abe 501a 1dbe
00000330: 4e40 02bd 02d9 22be 0f9e 09be 4009 bcbc
00000340: 1737 80be 074a 653c 2d58 1e3c bc7b 04be
00000350: 1ed3 ebbd 718b c83d 578c bdbc d967 ee3c
00000360: ef0c 17be 31e9 0dbe 7c95 993b 7f39 40be
00000370: 3355 a63c fb99 24bb 05d1 03bd 1235 833d
00000380: ad4c 4abd 7c01 633e f733 c0bd ac81 4abe
00000390: e148 003e c173 a13d 7110 143e 5fda 123e
000003a0: b80e 2d3e b069 133e b81c 863d c487 e23d
000003b0: eaba b8bd 1c11 e63d bdf1 65be a1c8 013e
000003c0: 741c 0a3e 915c 3fbe c4c5 c8bd a927 46bd
000003d0: cde7 693d ece0 c1bc 74a5 923e 6048 aabc
000003e0: 7a95 ab3c f5c1 33be da71 14bc 4f4c 30be
000003f0: 66fd 113e 7750 84bc 6f13 403d 3910 863d
0.1937915 -0.073573425 -0.195821 0.1060304 0.2895694 0.15839574 0.050213322 0.15244484
0.26542053 0.14198239 -0.31060216 -0.033007573 0.041866977 -0.124772385 0.29216158 0.16498028
-0.016959285 0.15589544 0.37610632 -0.0064820307 -0.10802984 0.25004953 0.2600428 0.05183772
-0.020606702 -0.06352835 -0.077829294 0.08549295 0.084326774 0.14515266 -0.09789111 -0.38985965
0.004108735 0.00010393595 0.19302377 -0.1655589 0.34658286 -0.26462182 -0.23214827 -0.027648563
0.13847965 0.09677196 -0.21977258 -0.1387815 0.09499564 0.099125616 0.08456222 -0.24946542
0.28779563 0.23276384 0.0228402 0.10973344 -0.057666916 -0.19391033 0.032673694 0.040535312
-0.24151444 -0.41029322 0.122805834 0.18223566 0.0435861 -0.04689657 -0.03206561 -0.17650054
0.050041847 0.009848673 0.19633047 0.080131635 0.109554194 0.15820941 -0.28103635 -0.15697952
0.0732126 0.13016173 0.27749825 0.17939892 -0.08840259 0.17187068 -0.049302064 0.22863452
0.025229366 0.18591805 -0.2583908 0.20997186 0.05671703 0.34236848 -0.099303134 0.08216687
0.28257203 -0.0013598687 0.18155822 0.2888495 -0.19098264 -0.111314684 0.026401572 0.022574227
-0.02695944 0.2787603 0.025389692 -0.041881084 -0.107822046 0.33216402 0.10177601 0.16311555
-0.109924756 0.031692293 -0.14863162 0.27366504 0.19029889 -0.33825845 0.09011451 -0.10890468
0.097763464 -0.0705873 0.04534477 0.15663035 0.08631407 0.3147082 -0.15797175 0.016547984
0.13813019 -0.15483636 -0.22815199 0.15299594 0.21663702 -0.029755825 -0.20127496 -0.0019966823
0.011302344 -0.17432982 -0.22053775 -0.075492814 -0.17731364 -0.16067623 -0.16623907 0.20539185
-0.08671762 0.12991677 -0.12236274 -0.09327901 0.12376648 0.18269412 0.07531502 0.1893983
0.10493015 -0.13764879 -0.14929715 0.08167407 0.11843294 -0.1378234 -0.14534204 -0.11045318
-0.16459171 0.015869772 0.018892456 -0.20237301 0.16443618 0.19433182 -0.044385206 0.11674278
-0.04851257 -0.071812324 -0.11468073 0.17018946 0.016830023 0.27090162 0.037095033 -0.09868679
0.12733199 -0.03357021 -0.016854126 0.10898562 -0.10628516 0.19542229 -0.20234598 -0.26322326
-0.030802472 0.18016206 -0.06862421 0.032532264 -0.2803909 -0.19669792 -0.18467636 0.046606176
0.08666306 -0.11293792 0.1162384 -0.021497233 0.06307809 -0.08369193 -0.06301777 -0.14005195
-0.070841834 0.026918948 -0.0118133025 0.0031942618 0.063930824 -0.01394682 -0.25032473 0.017243816
0.07986053 0.19202705 -0.16610664 -0.15342069 -0.031799607 -0.15903094 -0.13439201 -0.02295363
-0.2504203 0.0139947 0.009664577 -0.12937826 -0.11514877 0.09792221 -0.023138208 0.029102253
-0.14751028 -0.13858487 0.0046870094 -0.18771933 0.020304298 -0.0025116194 -0.03218176 0.06406607
-0.04938953 0.22168535 -0.093849115 -0.19776028 0.12527801 0.078834064 0.14459397 0.14341114
0.16900146 0.14395785 0.065484464 0.110610515 -0.09020026 0.11233732 -0.22455497 0.1267419
0.13487417 -0.18687655 -0.09803346 -0.048377667 0.057105828 -0.023666821 0.28641856 -0.020786464
0.0209453 -0.17554457 -0.009060347 -0.1721661 0.1425682 -0.01615165 0.046893533 0.06546063

convs.0.bias f4 [512]
00000000: 1b15 41bd 8c3f 323d abd0 443d 984a 5cbd
00000010: 67de 4dbd 7d0e 9c3d e55a 8cbd 2a76 95bc
00000020: 5e20 4dbd fc2a 7cbd fce6 5c3d 3690 5f3c
00000030: 3832 a2bc b508 503d ec86 c3bc 203e 19bd
00000040: d4b8 76bd d41d 53bd d219 413d 1cfd 563d
00000050: b4a6 3a3d 6256 40bd 2bd6 87bc 6328 393d
00000060: afdc 00bd 6e3f 833d fbcb 1d3d 872b cd3c
00000070: 461b 4f3d 267e 4c3c 29a7 21bd d576 253d
00000080: 1d33 4e3d 21f8 853d 3105 51bd 10e9 8bbd
00000090: f1f2 153d f136 463d b4fc 1ebd 3093 b83c
000000a0: 8d9b 403d 7607 3f3d 7601 5e3d 73f4 be3c
000000b0: 615f 193d dd93 773d 76d3 5dbc 0a40 6d3d
000000c0: 5359 4abd c873 983c db29 d4bc 4c0a 043e
000000d0: 64e0 363d 1b42 503d cfc5 fcbb 1d75 dc3c
000000e0: 0c20 393d 219c db3c b247 7d3d 9f83 513c
000000f0: ca8c 483d 0144 f13c a75e 1cbd fbf4 e33d
00000100: 0821 88bd 7ecc 7ebc a1fe babb daad 8fbd
00000110: 838a 103d db25 1f3d e5c8 243d ec00 933d
00000120: 0282 0bbd b1ce fdbc f3ce 813d 1512 2dbc
00000130: 2a93 33bd 2980 8dbd c164 8a3d b098 82bc
00000140: 2234 793d 40ad edbd b945 34bd 6257 3bbd
00000150: cdf7 db3d 8906 a7bd 62ec 2c3d b1f6 7f3d
00000160: 677b 23bd 9f94 27bd 279e 49bd 50de 683d
00000170: 2fcc 6d3d e55d 3bbd 5312 2b3d 3afb 1f3d
00000180: 0310 bf3c 774b 0dbd 7a86 763d 966d 02bd
00000190: da76 a33d 948d 80bd 6635 1cbd a5bb a73d
000001a0: 58ff 81bd 99ae 53bd a077 2fbd 8286 76bd
000001b0: 6d0b de3c c285 8dbd 347e 003d d62b 92bd
000001c0: b9e0 ae3d bba9 a8bd aa92 74bd c993 3a3d
000001d0: 14c0 173c 5f20 ba3c ae08 cd3c 1ac6 393d
000001e0: fe59 0a3d 79b3 953d 761c 2dbd 2100 d43c
000001f0: ca61 f239 6e21 16bd 5c8a 37bd 974a ffbc
00000200: 3185 80bd 9e39 1d3d 97f1 ef3c 5077 6b3d
00000210: a03d 893d 14f4 4a3d 27a3 733c 75c5 2c3d
00000220: d1d1 65bd 73f0 00bc 3b96 b1bd c523 003d
00000230: 82d8 193d e107 bfbc f1b0 2abd 1c7f 5fbd
00000240: fbf8 b13c d71e 533d 1b51 bcbc 5ef0 a23c
00000250: cd3e 393d eaa2 0c3d 053e 17bd 3859 603d
00000260: da15 0b3d eb39 f9bd 785a 4a3d dbd4 11bd
00000270: 34bc cebc ff8a 0a3d 5b89 3abd a9d0 473d
00000280: ad91 163d 1eb5 42bd 324e af3d 2839 3cbd
00000290: f84a 6d3d 426e 3b3d b75f 54bd 79f1 463d
000002a0: dc89 e5bd b903 743d 8760 33bd 7a75 25bd
000002b0: 9d40 db3d 2922 ec3b 48af 833c b3e4 07be
000002c0: 1fc0 403d d9da c53d 50a4 2f3d 468e 953c
000002d0: 08ba d2bd 3a30 e43c 383f 28bd 3c83 9bbd
000002e0: 9eb6 4d3d 3e3a 0e3d bb39 79bd 0cec 66bd
000002f0: 8e92 273d f055 663c 5eb0 9b3d c7e8 8cbd
00000300: 9578 55bc 6cc0 40bd 18e0 083d 138d 8cbd
00000310: 5747 f33c 7696 403d 3755 35bd 988a e33c
00000320: 223a 22bd d84c dc3c 36eb bbbd ab57 583d
00000330: 0689 133d b4ed 8a3d dcf5 903d 80b5 70bd
00000340: 9fbc 9d3d 76c6 a33c 0da7 cb3c 2431 033c
00000350: e88e 1d3d fbd7 17be 9975 b4bc e910 3bbd
00000360: 7649 2a3d a0b4 d0bd 924c 84bd 5cb2 5fbd
00000370: c7b1 2d3d d222 313d 8619 41bd e7b5 363d
00000380: 599f 6abd 7a13 2ebd dc55 bbbd 4820 4fbd
00000390: 7e7e f33c 8001 0dbd 7c1c 913d 50d7 45bd
000003a0: a819 30bd fc29 7ebd 1b4b 6b3d 75e9 52bd
000003b0: 581e 4a3c de2e 4ebd 5cc9 d3bd 40cb 1b3d
000003c0: fb97 023d 482d 99bd 763d 74bd 1d36 0e3e
000003d0: 8871 b93c 468e 83bb 511c 0f3d 49bc a4bd
000003e0: d917 e43c 1fc9 73bd c32d 2abd 28f4 093d
000003f0: 6728 7a3d 2870 3d3d 63b4 8b3d e89c 73bd
-0.04713927 0.043517634 0.048050564 -0.053782076 -0.050260928 0.07619951 -0.06853274 -0.018244822
-0.050079696 -0.06156443 0.05393122 0.013645222 -0.019799337 0.050789554 -0.023868047 -0.037412763
-0.06023486 -0.05154212 0.047143765 0.052487478 0.045569137 -0.04695738 -0.016581615 0.04520453
-0.03146046 0.06408583 0.03852461 0.02504517 0.05056312 0.012481248 -0.039466057 0.04039653
0.050341714 0.065414675 -0.05103034 -0.068315625 0.03660864 0.04839224 -0.038815215 0.022531122
0.047023345 0.046637975 0.054200612 0.023309922 0.037444476 0.060443748 -0.013539186 0.0579224
-0.049401592 0.018609896 -0.025898864 0.12894553 0.04464759 0.050844293 -0.0077140103 0.026911313
0.045196578 0.026807847 0.061835952 0.012787729 0.048962392 0.029451372 -0.038176205 0.11130711
-0.06646925 -0.015551684 -0.0057066237 -0.070155814 0.035288345 0.03885446 0.04023065 0.0717791
-0.034059532 -0.030982347 0.063383006 -0.010563393 -0.04384152 -0.0690921 0.067574985 -0.015941948
0.060840733 -0.116053104 -0.044011805 -0.04573763 0.107406236 -0.08155543 0.04221762 0.062491123
-0.039912608 -0.04091322 -0.04922309 0.05685264 0.058056053 -0.04574384 0.041765522 0.039057948
0.023323065 -0.034495797 0.06018684 -0.03184279 0.079816535 -0.06277004 -0.038136862 0.08190087
-0.06347531 -0.05168018 -0.042838693 -0.06018687 0.027105058 -0.06910278 0.031370357 -0.07137267
0.08538956 -0.082354985 -0.059710182 0.045551095 0.009262104 0.022720514 0.025028553 0.04535494
0.03377723 0.07309622 -0.04226347 0.025878968 0.00046230695 -0.036652975 -0.044809684 -0.031163497
-0.06275404 0.038385026 0.029290004 0.057486832 0.06701207 0.049549177 0.0148704415 0.042180497
-0.0561083 -0.007869828 -0.08671232 0.031284112 0.037559994 -0.023319187 -0.04167265 -0.05456458
0.021725168 0.051543083 -0.022987893 0.019890007 0.045225907 0.034335054 -0.03692438 0.054772586
0.033956386 -0.1216925 0.049402684 -0.035603385 -0.025236227 0.033823963 -0.04554115 0.04878298
0.03676002 -0.047536008 0.085598364 -0.045952946 0.057932824 0.045759447 -0.051849093 0.04857013
-0.11207935 0.059573863 -0.043793228 -0.040395238 0.107056834 0.0072062206 0.016074792 -0.13270836
0.04705822 0.096608825 0.04288131 0.018256318 -0.10289389 0.027855027 -0.041075915 -0.0759339
0.050222985 0.034723513 -0.06084607 -0.056377456 0.04091125 0.014058575 0.07601999 -0.06880336
-0.013029237 -0.047058508 0.033416837 -0.06862845 0.029697103 0.04701849 -0.04427072 0.027776048
-0.03960622 0.02689211 -0.09175722 0.05281798 0.036019348 0.067836195 0.07078144 -0.058766842
0.07701992 0.019992094 0.02485993 0.0080073215 0.038466364 -0.14828484 -0.022028731 -0.045670424
0.041573964 -0.101907015 -0.06459917 -0.054613456 0.04240587 0.043246098 -0.04714348 0.04460707
-0.057280872 -0.042499043 -0.09147236 -0.050567895 0.029723402 -0.03442526 0.07085511 -0.04830104
-0.042993218 -0.06205176 0.057444673 -0.051492173 0.012336336 -0.050337665 -0.10341141 0.03803563
0.03188322 -0.0747934 -0.059628926 0.1388783 0.022637144 -0.004014763 0.034939114 -0.08043725
0.027843403 -0.059517976 -0.041547548 0.03368011 0.061073687 0.04624954 0.068215154 -0.05947581

convs.0.lin_src.weight f4 [512, 17]
00000000: cb3a f43c 63db 583d 2898 e7b9 622d adbc
00000010: bb15 1ebd 2ef1 dfbd ca99 dcbb c299 f1bd
00000020: 9f2a babd 028d 07bd 26df 5bbd cc61 363d
00000030: 03f2 54bd d3ca 90bb e685 d7bd dc37 c6bc
00000040: 1929 733d b56f 5f3d 32a2 e73d 4e2f 11bd
00000050: 2744 aebc 3434 073e 8be0 d23d dbb3 083d
00000060: 952a c03d 3bac 45bd 3d91 b93a 8352 143d
00000070: 7ce5 343e ee66 b73c 7681 7f3d 6e4a ca3d
00000080: 9b48 6abd 0ef7 b7bd 5ff1 d23c 9c59 8fbd
00000090: efd5 023e 6245 883d 7f83 89bb de6e 613d
000000a0: 22c0 d03d a37c 053e d826 1cbc 77d1 8cbb
000000b0: d8fa c1bc 1d63 b43c d7c8 aabc 0ae6 2d39
000000c0: a2af d5bc f983 203d 1c02 083e 7171 2a3d
000000d0: f1ee 04bd f6aa a63d 5068 8d3d 9bb0 183d
000000e0: 88d0 c0bc 1844 3ebd 5be4 4dbc c2b8 583c
000000f0: e96f 15be 042e 5dbd 0477 203d 6a57 753c
00000100: 9c86 823d 6b3c a2bd bc9f 84bd 838f 873b
00000110: 6916 13bd fa35 ae3d 810a fbbd 4109 a8bb
00000120: 9f2e 27bd a55d 193d 03d3 d83c 2bdb 09be
00000130: b49f 94bd 7d8e 96bd d7df de3c 3e2d b7bb
00000140: 4da4 003c 4f06 503d 8e84 0cbc 06c5 c3bd
00000150: e7fa d0b8 026a 1e3c 519a a83d f8dd d73d
00000160: d4d6 7d3c b41a 2eba 6fb5 083d 5c51 b33a
00000170: b29b af3d 76a1 79bd a1db 463d eb1d d3bd
00000180: 132f 7d3d d24e 2b3e f76c 1c3e ea5f e0bd
00000190: 61fb 94bd 4885 b8bd 8be5 a13d 4124 80bd
000001a0: 169e bebd a6a0 edbd 38ef 0f3d ea2d e3bc
000001b0: df53 6c3c 90bd 8bbd d5ee 70bd fb25 c6bd
000001c0: 1e20 583d 9db7 503c 1f6e b1bd c1d1 0dbe
000001d0: f84f 3bbd e7c3 01bd 7694 913c 5885 cb3c
000001e0: 894b 80bd 7094 cf3d 0914 c4bd be3d 7a3d
000001f0: 9208 62bd ba62 73bd 839e da3c 9f77 ae3d
00000200: ba80 b53d 66c4 5abd 2055 e6bd fc65 13bd
00000210: f639 f93d 40e6 9e3d 1130 12bd d659 debd
00000220: d7f5 8c3c d2f9 bfbc b7ff d5bd e792 24bd
00000230: fd96 e93d c431 5fbb 612b 423d 59a7 4c3d
00000240: ec8f cabc cf0e 5fbb 8af3 bebd 628b 8dbd
00000250: 6a13 4a3d 8ee6 88bd fc30 dd3d b6b8 88bd
00000260: 7f49 f1bc dac6 933d 6cfb b23d d80e d23d
00000270: 0de1 db3c 7cb0 4ebd 6419 a0bd 8393 513d
00000280: 4829 93bc d486 24bd dcfa e4bd 0e30 133e
00000290: fe0c 38bd 2fa5 cabd 346a 35bc 09ab 92bb
000002a0: c2ba b5bd 3b38 55bc 2e6e aabc a990 863d
000002b0: cb24 c53d 3900 6cbc 3513 8dbd e387 e83d
000002c0: 6387 8f3d 708f 6d3d 43ee 76bc 9f92 b03b
000002d0: ec6e da3d dbe4 28bd dc86 8a3d 46be d33d
000002e0: a704 853d e59e 413d 21e9 e73d 48cf a2bd
000002f0: 0c9b 16bd 7499 9d3b 8b78 793c bb12 943d
00000300: 0c74 573d 7a08 d5bc 725f bd3d d0b2 a0bd
00000310: ca6e 3a3a 0e33 60bd 2f7d 46bd b3f0 74bd
00000320: 36d5 a43d dbb0 2e3d aa41 c73d f5f8 6dbc
00000330: a75f 5dbd 76a9 22bc ad05 8f3d 1bd4 a5bc
00000340: 83c7 3fbc f6bf c4bd 7042 9a3d 33cb bc3d
00000350: 9ec0 733d 4e6c 8e3d 13ad c9bd 6d41 113d
00000360: 0c1f 53bb dd51 d63d 248b 77bd 0c4c b9bc
00000370: e618 8f3c 6b70 b4bd 3e4c a0bd 5ee6 ef3c
00000380: a31f 40bd 211f ce3d d84b c23c d649 8c3d
00000390: 644d 60bc 346c c5bd 1359 2c3d cf24 9fbd
000003a0: 8655 153e df51 953d f362 98bc d85f 34bd
000003b0: 8b78 b7bd 989c 23bd a953 87bc 61fc eabc
000003c0: 18fa b2bd 0de2 96bd b94a 6dbb 203f 1f3d
000003d0: 1af2 e1bd 264b a63d dbd8 0fbe 48ee 133e
000003e0: b855 8bbd b80d a2be 8b08 a9be 80c0 b43d
000003f0: 5348 763c 0842 8cbb 7962 a1bc 1459 0fbc
0.02981319 0.0529436 -0.0004417312 -0.021139804 -0.038594943 -0.10934673 -0.0067322003 -0.11796905
-0.090901606 -0.03309346 -0.053679608 0.04452686 -0.051988613 -0.00441871 -0.10523586 -0.024196558
0.059365366 0.05454989 0.11310233 -0.035445504 -0.021272732 0.13203508 0.102967344 0.03337465
0.09383122 -0.048259955 0.0014157664 0.0362115 0.17665666 0.022387948 0.062379323 0.098774776
-0.05719815 -0.08982669 0.02574986 -0.069995135 0.12776922 0.06653859 -0.0041965838 0.05503737
0.101928964 0.13035826 -0.009530745 -0.004297431 -0.023679182 0.022019917 -0.020847721 0.00016584262
-0.026084725 0.03918836 0.13282055 0.041612092 -0.032454435 0.08138077 0.06904662 0.0372778
-0.023536935 -0.046451658 -0.012566651 0.013227643 -0.14593472 -0.053998962 0.039176002 0.014974454
0.06373331 -0.0792168 -0.064757794 0.004136981 -0.035910044 0.08506389 -0.12257863 -0.0051280563
-0.040815946 0.037442822 0.026467806 -0.13462512 -0.072570235 -0.07351396 0.027206345 -0.00559011
0.007851672 0.050787266 -0.008576525 -0.095590636 -9.964947e-05 0.009668829 0.082325585 0.10540384
0.015493114 -0.00066415523 0.033376154 0.0013680863 0.085746184 -0.060944997 0.0485493 -0.10308441
0.06181247 0.16729286 0.15275942 -0.10955794 -0.07274509 -0.090097964 0.0790511 -0.06256915
-0.09307496 -0.11602907 0.035140246 -0.027731854 0.014424293 -0.068232656 -0.058821518 -0.09675213
0.052765004 0.012739089 -0.08663582 -0.13849546 -0.04573056 -0.031680968 0.017770987 0.024843857
-0.06264407 0.10135734 -0.09574134 0.06109404 -0.055183955 -0.059420325 0.026686912 0.0851891
0.08862443 -0.053409956 -0.11246705 -0.03598593 0.12169258 0.077587605 -0.03569037 -0.108569786
0.01720707 -0.023434553 -0.10449164 -0.04017916 0.11405752 -0.0034056762 0.04740465 0.049964283
-0.02472683 -0.0034035926 -0.09323795 -0.06911351 0.04933492 -0.066846 0.10800359 -0.06675856
-0.029453991 0.07215662 0.08739361 0.102567375 0.026840711 -0.050461277 -0.07817343 0.05116607
-0.01796402 -0.040167645 -0.1118066 0.143738 -0.044934265 -0.098947875 -0.011072684 -0.0044759554
-0.08873512 -0.013013895 -0.02080449 0.065705605 0.09626158 -0.01440435 -0.06888429 0.11354043
0.07008245 0.05799812 -0.015071454 0.0053885723 0.10665688 -0.04123388 0.06764004 0.10339026
0.06495028 0.047270674 0.11323763 -0.07949692 -0.036768958 0.004809553 0.015226494 0.07230135
0.052600905 -0.026005019 0.092467204 -0.07846606 0.0007111846 -0.05473619 -0.048459228 -0.05979986
0.08048479 0.04264913 0.09729321 -0.014524688 -0.0540463 -0.009928098 0.069835044 -0.020242741
-0.011705282 -0.09606926 0.07532203 0.09218445 0.059509866 0.06954251 -0.098474644 0.035462786
-0.003221455 0.10464833 -0.06043543 -0.02261927 0.017467927 -0.088105045 -0.07827042 0.029284652
-0.04690517 0.10064531 0.023717806 0.068500206 -0.013690326 -0.09639779 0.042077135 -0.077706926
0.14583406 0.07291006 -0.01860187 -0.044036716 -0.089585386 -0.03994426 -0.016519384 -0.028684797
-0.08739108 -0.073673345 -0.0036207868 0.03887856 -0.11032505 0.08119802 -0.14047568 0.14446366
-0.06803459 -0.31651092 -0.3301433 0.08825779 0.015031892 -0.0042803325 -0.019700276 -0.008749265

convs.0.lin_dst.weight f4 [512, 17]
00000000: cb3a f43c 63db 583d 2898 e7b9 622d adbc
00000010: bb15 1ebd 2ef1 dfbd ca99 dcbb c299 f1bd
00000020: 9f2a babd 028d 07bd 26df 5bbd cc61 363d
00000030: 03f2 54bd d3ca 90bb e685 d7bd dc37 c6bc
00000040: 1929 733d b56f 5f3d 32a2 e73d 4e2f 11bd
00000050: 2744 aebc 3434 073e 8be0 d23d dbb3 083d
00000060: 952a c03d 3bac 45bd 3d91 b93a 8352 143d
00000070: 7ce5 343e ee66 b73c 7681 7f3d 6e4a ca3d
00000080: 9b48 6abd 0ef7 b7bd 5ff1 d23c 9c59 8fbd
00000090: efd5 023e 6245 883d 7f83 89bb de6e 613d
000000a0: 22c0 d03d a37c 053e d826 1cbc 77d1 8cbb
000000b0: d8fa c1bc 1d63 b43c d7c8 aabc 0ae6 2d39
000000c0: a2af d5bc f983 203d 1c02 083e 7171 2a3d
000000d0: f1ee 04bd f6aa a63d 5068 8d3d 9bb0 183d
000000e0: 88d0 c0bc 1844 3ebd 5be4 4dbc c2b8 583c
000000f0: e96f 15be 042e 5dbd 0477 203d 6a57 753c
00000100: 9c86 823d 6b3c a2bd bc9f 84bd 838f 873b
00000110: 6916 13bd fa35 ae3d 810a fbbd 4109 a8bb
00000120: 9f2e 27bd a55d 193d 03d3 d83c 2bdb 09be
00000130: b49f 94bd 7d8e 96bd d7df de3c 3e2d b7bb
00000140: 4da4 003c 4f06 503d 8e84 0cbc 06c5 c3bd
00000150: e7fa d0b8 026a 1e3c 519a a83d f8dd d73d
00000160: d4d6 7d3c b41a 2eba 6fb5 083d 5c51 b33a
00000170: b29b af3d 76a1 79bd a1db 463d eb1d d3bd
00000180: 132f 7d3d d24e 2b3e f76c 1c3e ea5f e0bd
00000190: 61fb 94bd 4885 b8bd 8be5 a13d 4124 80bd
000001a0: 169e bebd a6a0 edbd 38ef 0f3d ea2d e3bc
000001b0: df53 6c3c 90bd 8bbd d5ee 70bd fb25 c6bd
000001c0: 1e20 583d 9db7 503c 1f6e b1bd c1d1 0dbe
000001d0: f84f 3bbd e7c3 01bd 7694 913c 5885 cb3c
000001e0: 894b 80bd 7094 cf3d 0914 c4bd be3d 7a3d
000001f0: 9208 62bd ba62 73bd 839e da3c 9f77 ae3d
00000200: ba80 b53d 66c4 5abd 2055 e6bd fc65 13bd
00000210: f639 f93d 40e6 9e3d 1130 12bd d659 debd
00000220: d7f5 8c3c d2f9 bfbc b7ff d5bd e792 24bd
00000230: fd96 e93d c431 5fbb 612b 423d 59a7 4c3d
00000240: ec8f cabc cf0e 5fbb 8af3 bebd 628b 8dbd
00000250: 6a13 4a3d 8ee6 88bd fc30 dd3d b6b8 88bd
00000260: 7f49 f1bc dac6 933d 6cfb b23d d80e d23d
00000270: 0de1 db3c 7cb0 4ebd 6419 a0bd 8393 513d
00000280: 4829 93bc d486 24bd dcfa e4bd 0e30 133e
00000290: fe0c 38bd 2fa5 cabd 346a 35bc 09ab 92bb
000002a0: c2ba b5bd 3b38 55bc 2e6e aabc a990 863d
000002b0: cb24 c53d 3900 6cbc 3513 8dbd e387 e83d
000002c0: 6387 8f3d 708f 6d3d 43ee 76bc 9f92 b03b
000002d0: ec6e da3d dbe4 28bd dc86 8a3d 46be d33d
000002e0: a704 853d e59e 413d 21e9 e73d 48cf a2bd
000002f0: 0c9b 16bd 7499 9d3b 8b78 793c bb12 943d
00000300: 0c74 573d 7a08 d5bc 725f bd3d d0b2 a0bd
00000310: ca6e 3a3a 0e33 60bd 2f7d 46bd b3f0 74bd
00000320: 36d5 a43d dbb0 2e3d aa41 c73d f5f8 6dbc
00000330: a75f 5dbd 76a9 22bc ad05 8f3d 1bd4 a5bc
00000340: 83c7 3fbc f6bf c4bd 7042 9a3d 33cb bc3d
00000350: 9ec0 733d 4e6c 8e3d 13ad c9bd 6d41 113d
00000360: 0c1f 53bb dd51 d63d 248b 77bd 0c4c b9bc
00000370: e618 8f3c 6b70 b4bd 3e4c a0bd 5ee6 ef3c
00000380: a31f 40bd 211f ce3d d84b c23c d649 8c3d
00000390: 644d 60bc 346c c5bd 1359 2c3d cf24 9fbd
000003a0: 8655 153e df51 953d f362 98bc d85f 34bd
000003b0: 8b78 b7bd 989c 23bd a953 87bc 61fc eabc
000003c0: 18fa b2bd 0de2 96bd b94a 6dbb 203f 1f3d
000003d0: 1af2 e1bd 264b a63d dbd8 0fbe 48ee 133e
000003e0: b855 8bbd b80d a2be 8b08 a9be 80c0 b43d
000003f0: 5348 763c 0842 8cbb 7962 a1bc 1459 0fbc
0.02981319 0.0529436 -0.0004417312 -0.021139804 -0.038594943 -0.10934673 -0.0067322003 -0.11796905
-0.090901606 -0.03309346 -0.053679608 0.04452686 -0.051988613 -0.00441871 -0.10523586 -0.024196558
0.059365366 0.05454989 0.11310233 -0.035445504 -0.021272732 0.13203508 0.102967344 0.03337465
0.09383122 -0.048259955 0.0014157664 0.0362115 0.17665666 0.022387948 0.062379323 0.098774776
-0.05719815 -0.08982669 0.02574986 -0.069995135 0.12776922 0.06653859 -0.0041965838 0.05503737
0.101928964 0.13035826 -0.009530745 -0.004297431 -0.023679182 0.022019917 -0.020847721 0.00016584262
-0.026084725 0.03918836 0.13282055 0.041612092 -0.032454435 0.08138077 0.06904662 0.0372778
-0.023536935 -0.046451658 -0.012566651 0.013227643 -0.14593472 -0.053998962 0.039176002 0.014974454
0.06373331 -0.0792168 -0.064757794 0.004136981 -0.035910044 0.08506389 -0.12257863 -0.0051280563
-0.040815946 0.037442822 0.026467806 -0.13462512 -0.072570235 -0.07351396 0.027206345 -0.00559011
0.007851672 0.050787266 -0.008576525 -0.095590636 -9.964947e-05 0.009668829 0.082325585 0.10540384
0.015493114 -0.00066415523 0.033376154 0.0013680863 0.085746184 -0.060944997 0.0485493 -0.10308441
0.06181247 0.16729286 0.15275942 -0.10955794 -0.07274509 -0.090097964 0.0790511 -0.06256915
-0.09307496 -0.11602907 0.035140246 -0.027731854 0.014424293 -0.068232656 -0.058821518 -0.09675213
0.052765004 0.012739089 -0.08663582 -0.13849546 -0.04573056 -0.031680968 0.017770987 0.024843857
-0.06264407 0.10135734 -0.09574134 0.06109404 -0.055183955 -0.059420325 0.026686912 0.0851891
0.08862443 -0.053409956 -0.11246705 -0.03598593 0.12169258 0.077587605 -0.03569037 -0.108569786
0.01720707 -0.023434553 -0.10449164 -0.04017916 0.11405752 -0.0034056762 0.04740465 0.049964283
-0.02472683 -0.0034035926 -0.09323795 -0.06911351 0.04933492 -0.066846 0.10800359 -0.06675856
-0.029453991 0.07215662 0.08739361 0.102567375 0.026840711 -0.050461277 -0.07817343 0.05116607
-0.01796402 -0.040167645 -0.1118066 0.143738 -0.044934265 -0.098947875 -0.011072684 -0.0044759554
-0.08873512 -0.013013895 -0.02080449 0.065705605 0.09626158 -0.01440435 -0.06888429 0.11354043
0.07008245 0.05799812 -0.015071454 0.0053885723 0.10665688 -0.04123388 0.06764004 0.10339026
0.06495028 0.047270674 0.11323763 -0.07949692 -0.036768958 0.004809553 0.015226494 0.07230135
0.052600905 -0.026005019 0.092467204 -0.07846606 0.0007111846 -0.05473619 -0.048459228 -0.05979986
0.08048479 0.04264913 0.09729321 -0.014524688 -0.0540463 -0.009928098 0.069835044 -0.020242741
-0.011705282 -0.09606926 0.07532203 0.09218445 0.059509866 0.06954251 -0.098474644 0.035462786
-0.003221455 0.10464833 -0.06043543 -0.02261927 0.017467927 -0.088105045 -0.07827042 0.029284652
-0.04690517 0.10064531 0.023717806 0.068500206 -0.013690326 -0.09639779 0.042077135 -0.077706926
0.14583406 0.07291006 -0.01860187 -0.044036716 -0.089585386 -0.03994426 -0.016519384 -0.028684797
-0.08739108 -0.073673345 -0.0036207868 0.03887856 -0.11032505 0.08119802 -0.14047568 0.14446366
-0.06803459 -0.31651092 -0.3301433 0.08825779 0.015031892 -0.0042803325 -0.019700276 -0.008749265

convs.1.att_src f4 [1, 1, 4]
00000000: bf73 3bbf 3461 193f 2c6a 69bf 56f6 453f
-0.7322349 0.59913945 -0.9117763 0.77329004

convs.1.att_dst f4 [1, 1, 4]
00000000: 9d33 26bf 61ff 4b3d 7419 693e 5f37 0fbe
-0.64922506 0.049804095 0.22763616 -0.13985966

convs.1.bias f4 [4]
00000000: e642 b13d 699f 0cbe 495d 5fbd a5de 61bd
0.08655338 -0.13732685 -0.054532323 -0.05514397

convs.1.lin_src.weight f4 [4, 512]
00000000: b371 ae3d 40d8 fc3d f2ee 963d 6b57 b1bc
00000010: 828f af3c 8c04 053e 860e 8b3d 0e5f a63d
00000020: 2d57 5fbd 076d 383d b315 d63d ee53 013d
00000030: 8cd0 c6bb 17fc 623d af42 bb3c 65a4 553c
00000040: 81bd 4fba 983f ae3b f806 0b3d 5d8a d33d
00000050: 72ef 413d 4fdb 83bd f298 0c3d 9fe4 0e3e
00000060: ed1d a63c 6af6 fd3d 68d4 e93d b2e8 61bb
00000070: d2e5 cc3d a2c8 3e3c 0709 bcbc 18a1 9b3d
00000080: e1c1 b73d 7d98 473d 0645 303d b7f9 8fbb
00000090: 9ab2 b73d a9f6 d23d 4bf5 ed3b 6f2b 0e3d
000000a0: 99a6 aa3d 3045 9d3d 74c4 533d ab57 1a3c
000000b0: 54a4 fcbb f410 d53d 023c e93c f60e e33d
000000c0: 48d3 d0bb 2fbc 7e3d 2422 813d d72a 8c3d
000000d0: e2fa b93d f021 d53d 11f7 123d 3ee3 3d3d
000000e0: 58a9 123d 6f17 b73d d378 dc3d f249 643d
000000f0: ca83 1d3d 703d e53d 0815 ccbc ab7e 0f3d
00000100: 5db3 d6bc 1026 b23d 3f7b af3d 330c 58bd
00000110: 475b cd3d 4628 0a3d f650 d53d 159e c83d
00000120: 94c8 92bb b32e 803c 12cf 973d c620 013d
00000130: f724 353d 28a7 75bd 3d6c e13d 5d2e 1b3d
00000140: b4c9 ed3d e7aa 263b c70b 81bd 2ba9 0dbd
00000150: 64c9 a63d 60e2 163d ce20 c73c 3aa5 333e
00000160: 2704 843d 1f4d 8e3a 1d53 9cbd 050b 6a3d
00000170: 8299 833d 1fe9 363d 0153 263d 213e a33d
00000180: 62a5 b73d 47dd 1bbd e003 d83c 42d1 5abd
00000190: d59b a33d f257 7fbc 71c2 c33d 6001 c73d
000001a0: bc43 9a3c 7b9c 37bd e703 5fbd e8ec 11bc
000001b0: 6a35 3d3d fc54 99bd 10b4 72bc 5ad1 6abd
000001c0: 15bb 263c 22bf 71bd 1281 843d b161 093e
000001d0: c4e0 bb3d 772a 4ebc 4b90 ef3d de8c 863d
000001e0: e453 cb3d 95c4 133e cc04 eb3b f9b4 393d
000001f0: 355f be3b 6ba8 353d d2ae 72bd 7711 7c3d
00000200: 6c65 cdbc 5cda a83d ce61 db3d f0aa dc3d
00000210: 8270 e13d 6d1f 083e aaa2 a33d e0f8 323c
00000220: 9cfc 52ba c728 bf3c 4851 3e3d 64e7 9a3d
00000230: d06f ae3d b67f 9abc 020a 1b3d d9b3 593c
00000240: da89 b03b 5dd7 d13d e26d 0bbd d60c 633d
00000250: 2b53 993d 4e78 913d a56e 063d 087a 0c3d
00000260: 48b0 063d fa2f 363d 4bfc f73d 8898 28bd
00000270: 198c 243c 122d db3d e5f6 c2bb 1517 e23d
00000280: ba98 c23b f582 bbbc 1156 063e 66e3 00bd
00000290: e878 943c 1a99 833d abbf 26bc 14a6 4a3d
000002a0: 483b 7abc 0ee1 013e 7e18 18bd dd00 f13c
000002b0: ae1e e93d 047f 813d b572 663d 269d 323c
000002c0: e98b e93d 5a8b a03d e7a7 993d 7ee9 d23c
000002d0: 46c6 793d 017b 753d 0ed3 993c dbc1 14bd
000002e0: 95b5 7b3d c103 ed3c 6efc 8abd 9418 7fbd
000002f0: a59f d63d a142 0a3d d496 4e3d d56e e23c
00000300: 267a b4bc 183e 0ebd 82e0 a43d fead 1cbd
00000310: 3bc1 cb3d cc0b 093e 2946 bb3d 921a e03c
00000320: f852 ce3c a942 123d ff20 a1bd a946 9b3d
00000330: 2089 b13d cfcb 743d b178 8c3d 10ef 883c
00000340: 45b9 023e eccd 093e d868 823d 567e a13d
00000350: 3296 e33d 308a 4dbd 4744 6c3d 56b7 c9bc
00000360: d89e ac3d 5a9c c03c 5d2a 2a3d bbf4 4cbb
00000370: a9df 9d3d 3587 ca3d d4f3 d9bc 0b1a 163e
00000380: 68b1 293c 82d9 80bd b9bb 52bd a868 67bd
00000390: b403 a03d aed9 da3c 9acb 7e3d 285e 88bc
000003a0: 1b0b cabc 355f 24bc d7f0 5d3d 8dbc 5cbd
000003b0: 1c0f b13d 2a84 fcbc f5a8 1d3c 21b8 c93d
000003c0: 5315 f33d 91b8 6cbc 3aa6 76bd 4021 cd3d
000003d0: 3aa8 a43d 8007 f33c e739 b43d 40f5 7a3c
000003e0: 2758 463d 6023 1bbd 6a62 55bc 0b4e 7f3d
000003f0: 917b 8b3d db0c 0d3e 3595 c53d 403a e93c
0.0851778 0.12345934 0.07369794 -0.02164813 0.021430735 0.12990016 0.067898795 0.08123599
-0.054526497 0.04502585 0.104533575 0.031574182 -0.006067341 0.055416193 0.022858946 0.013039683
-0.00079246616 0.0053176396 0.033942193 0.10329125 0.047347493 -0.06438314 0.034325548 0.139544
0.020277942 0.124005154 0.114174664 -0.0034470973 0.10004772 0.011644514 -0.022953523 0.075990856
0.08972526 0.04872941 0.043034576 -0.004393782 0.089696124 0.10300953 0.007261907 0.03470939
0.08332557 0.07679212 0.051701024 0.009420316 -0.007710019 0.10403624 0.028470997 0.11086838
-0.006372843 0.062191185 0.0630534 0.068441086 0.09081055 0.10406864 0.035880152 0.046359293
0.03580603 0.089400165 0.10765233 0.055734582 0.038455762 0.11193359 -0.024912372 0.03503291
-0.026208574 0.08698666 0.08568429 -0.05274601 0.100271754 0.033729814 0.10415833 0.09795777
-0.004479477 0.015647268 0.074125424 0.031525396 0.044224706 -0.059973866 0.11006973 0.037886012
0.116107374 0.0025431456 -0.063010745 -0.03458516 0.08143881 0.03683698 0.024307635 0.17543498
0.064461045 0.0010856724 -0.0763304 0.057139415 0.06425764 0.044655915 0.040606502 0.079708345
0.08967091 -0.038052823 0.026369035 -0.05342222 0.07988707 -0.015584933 0.09558571 0.09717059
0.018831126 -0.044826966 -0.05444708 -0.0089065805 0.046193518 -0.074869126 -0.014813438 -0.05732856
0.01017644 -0.05902017 0.06469931 0.13416173 0.0917373 -0.012583367 0.116974436 0.06569837
0.0992811 0.14430459 0.0071722027 0.045338605 0.0058096894 0.04435007 -0.059248753 0.061540093
-0.025072776 0.08244774 0.10712014 0.10774791 0.11007787 0.13293238 0.0799001 0.010923594
-0.0008048506 0.023334874 0.046464235 0.075636655 0.0851742 -0.018859725 0.03785134 0.013287508
0.005387527 0.102461554 -0.03404034 0.055432163 0.07486566 0.071030244 0.032820363 0.034296066
0.03288296 0.044479348 0.12108668 -0.04116109 0.0100431675 0.10701956 -0.0059498423 0.11039559
0.0059386166 -0.022889594 0.13118769 -0.031466864 0.018124059 0.06425686 -0.010177533 0.04947479
-0.015272923 0.12683508 -0.037132733 0.029419357 0.11382805 0.063230544 0.056261737 0.010901725
0.11403639 0.07839079 0.07502728 0.025746103 0.060980104 0.05993176 0.018777397 -0.036317687
0.061452467 0.028932454 -0.067864284 -0.0622793 0.104796685 0.03375495 0.05043681 0.02764074
-0.022030901 -0.034727186 0.08050634 -0.03825187 0.09948965 0.13383406 0.09144241 0.02735642
0.025186047 0.035708103 -0.07867622 0.07581837 0.08668733 0.05976468 0.068589576 0.016715556
0.12765987 0.13457459 0.063676536 0.07885425 0.11112632 -0.050180614 0.0576823 -0.024623554
0.084287345 0.023512054 0.041544307 -0.00312738 0.077086754 0.0988907 -0.026605524 0.14658372
0.010357238 -0.06291486 -0.051448558 -0.056496292 0.07813206 0.026715126 0.06220589 -0.01664646
-0.024663499 -0.010032465 0.05418476 -0.053890754 0.0864546 -0.03082474 0.009622802 0.09849573
0.11869302 -0.014448301 -0.06021712 0.100161076 0.08039899 0.029666662 0.088001065 0.015317261
0.048423912 -0.037875533 -0.013023952 0.062330287 0.06810678 0.13774435 0.096475996 0.028470159

convs.1.lin_dst.weight f4 [4, 512]
00000000: b371 ae3d 40d8 fc3d f2ee 963d 6b57 b1bc
00000010: 828f af3c 8c04 053e 860e 8b3d 0e5f a63d
00000020: 2d57 5fbd 076d 383d b315 d63d ee53 013d
00000030: 8cd0 c6bb 17fc 623d af42 bb3c 65a4 553c
00000040: 81bd 4fba 983f ae3b f806 0b3d 5d8a d33d
00000050: 72ef 413d 4fdb 83bd f298 0c3d 9fe4 0e3e
00000060: ed1d a63c 6af6 fd3d 68d4 e93d b2e8 61bb
00000070: d2e5 cc3d a2c8 3e3c 0709 bcbc 18a1 9b3d
00000080: e1c1 b73d 7d98 473d 0645 303d b7f9 8fbb
00000090: 9ab2 b73d a9f6 d23d 4bf5 ed3b 6f2b 0e3d
000000a0: 99a6 aa3d 3045 9d3d 74c4 533d ab57 1a3c
000000b0: 54a4 fcbb f410 d53d 023c e93c f60e e33d
000000c0: 48d3 d0bb 2fbc 7e3d 2422 813d d72a 8c3d
000000d0: e2fa b93d f021 d53d 11f7 123d 3ee3 3d3d
000000e0: 58a9 123d 6f17 b73d d378 dc3d f249 643d
000000f0: ca83 1d3d 703d e53d 0815 ccbc ab7e 0f3d
00000100: 5db3 d6bc 1026 b23d 3f7b af3d 330c 58bd
00000110: 475b cd3d 4628 0a3d f650 d53d 159e c83d
00000120: 94c8 92bb b32e 803c 12cf 973d c620 013d
00000130: f724 353d 28a7 75bd 3d6c e13d 5d2e 1b3d
00000140: b4c9 ed3d e7aa 263b c70b 81bd 2ba9 0dbd
00000150: 64c9 a63d 60e2 163d ce20 c73c 3aa5 333e
00000160: 2704 843d 1f4d 8e3a 1d53 9cbd 050b 6a3d
00000170: 8299 833d 1fe9 363d 0153 263d 213e a33d
00000180: 62a5 b73d 47dd 1bbd e003 d83c 42d1 5abd
00000190: d59b a33d f257 7fbc 71c2 c33d 6001 c73d
000001a0: bc43 9a3c 7b9c 37bd e703 5fbd e8ec 11bc
000001b0: 6a35 3d3d fc54 99bd 10b4 72bc 5ad1 6abd
000001c0: 15bb 263c 22bf 71bd 1281 843d b161 093e
000001d0: c4e0 bb3d 772a 4ebc 4b90 ef3d de8c 863d
000001e0: e453 cb3d 95c4 133e cc04 eb3b f9b4 393d
000001f0: 355f be3b 6ba8 353d d2ae 72bd 7711 7c3d
00000200: 6c65 cdbc 5cda a83d ce61 db3d f0aa dc3d
00000210: 8270 e13d 6d1f 083e aaa2 a33d e0f8 323c
00000220: 9cfc 52ba c728 bf3c 4851 3e3d 64e7 9a3d
00000230: d06f ae3d b67f 9abc 020a 1b3d d9b3 593c
00000240: da89 b03b 5dd7 d13d e26d 0bbd d60c 633d
00000250: 2b53 993d 4e78 913d a56e 063d 087a 0c3d
00000260: 48b0 063d fa2f 363d 4bfc f73d 8898 28bd
00000270: 198c 243c 122d db3d e5f6 c2bb 1517 e23d
00000280: ba98 c23b f582 bbbc 1156 063e 66e3 00bd
00000290: e878 943c 1a99 833d abbf 26bc 14a6 4a3d
000002a0: 483b 7abc 0ee1 013e 7e18 18bd dd00 f13c
000002b0: ae1e e93d 047f 813d b572 663d 269d 323c
000002c0: e98b e93d 5a8b a03d e7a7 993d 7ee9 d23c
000002d0: 46c6 793d 017b 753d 0ed3 993c dbc1 14bd
000002e0: 95b5 7b3d c103 ed3c 6efc 8abd 9418 7fbd
000002f0: a59f d63d a142 0a3d d496 4e3d d56e e23c
00000300: 267a b4bc 183e 0ebd 82e0 a43d fead 1cbd
00000310: 3bc1 cb3d cc0b 093e 2946 bb3d 921a e03c
00000320: f852 ce3c a942 123d ff20 a1bd a946 9b3d
00000330: 2089 b13d cfcb 743d b178 8c3d 10ef 883c
00000340: 45b9 023e eccd 093e d868 823d 567e a13d
00000350: 3296 e33d 308a 4dbd 4744 6c3d 56b7 c9bc
00000360: d89e ac3d 5a9c c03c 5d2a 2a3d bbf4 4cbb
00000370: a9df 9d3d 3587 ca3d d4f3 d9bc 0b1a 163e
00000380: 68b1 293c 82d9 80bd b9bb 52bd a868 67bd
00000390: b403 a03d aed9 da3c 9acb 7e3d 285e 88bc
000003a0: 1b0b cabc 355f 24bc d7f0 5d3d 8dbc 5cbd
000003b0: 1c0f b13d 2a84 fcbc f5a8 1d3c 21b8 c93d
000003c0: 5315 f33d 91b8 6cbc 3aa6 76bd 4021 cd3d
000003d0: 3aa8 a43d 8007 f33c e739 b43d 40f5 7a3c
000003e0: 2758 463d 6023 1bbd 6a62 55bc 0b4e 7f3d
000003f0: 917b 8b3d db0c 0d3e 3595 c53d 403a e93c
0.0851778 0.12345934 0.07369794 -0.02164813 0.021430735 0.12990016 0.067898795 0.08123599
-0.054526497 0.04502585 0.104533575 0.031574182 -0.006067341 0.055416193 0.022858946 0.013039683
-0.00079246616 0.0053176396 0.033942193 0.10329125 0.047347493 -0.06438314 0.034325548 0.139544
0.020277942 0.124005154 0.114174664 -0.0034470973 0.10004772 0.011644514 -0.022953523 0.075990856
0.08972526 0.04872941 0.043034576 -0.004393782 0.089696124 0.10300953 0.007261907 0.03470939
0.08332557 0.07679212 0.051701024 0.009420316 -0.007710019 0.10403624 0.028470997 0.11086838
-0.006372843 0.062191185 0.0630534 0.068441086 0.09081055 0.10406864 0.035880152 0.046359293
0.03580603 0.089400165 0.10765233 0.055734582 0.038455762 0.11193359 -0.024912372 0.03503291
-0.026208574 0.08698666 0.08568429 -0.05274601 0.100271754 0.033729814 0.10415833 0.09795777
-0.004479477 0.015647268 0.074125424 0.031525396 0.044224706 -0.059973866 0.11006973 0.037886012
0.116107374 0.0025431456 -0.063010745 -0.03458516 0.08143881 0.03683698 0.024307635 0.17543498
0.064461045 0.0010856724 -0.0763304 0.057139415 0.06425764 0.044655915 0.040606502 0.079708345
0.08967091 -0.038052823 0.026369035 -0.05342222 0.07988707 -0.015584933 0.09558571 0.09717059
0.018831126 -0.044826966 -0.05444708 -0.0089065805 0.046193518 -0.074869126 -0.014813438 -0.05732856
0.01017644 -0.05902017 0.06469931 0.13416173 0.0917373 -0.012583367 0.116974436 0.06569837
0.0992811 0.14430459 0.0071722027 0.045338605 0.0058096894 0.04435007 -0.059248753 0.061540093
-0.025072776 0.08244774 0.10712014 0.10774791 0.11007787 0.13293238 0.0799001 0.010923594
-0.0008048506 0.023334874 0.046464235 0.075636655 0.0851742 -0.018859725 0.03785134 0.013287508
0.005387527 0.102461554 -0.03404034 0.055432163 0.07486566 0.071030244 0.032820363 0.034296066
0.03288296 0.044479348 0.12108668 -0.04116109 0.0100431675 0.10701956 -0.0059498423 0.11039559
0.0059386166 -0.022889594 0.13118769 -0.031466864 0.018124059 0.06425686 -0.010177533 0.04947479
-0.015272923 0.12683508 -0.037132733 0.029419357 0.11382805 0.063230544 0.056261737 0.010901725
0.11403639 0.07839079 0.07502728 0.025746103 0.060980104 0.05993176 0.018777397 -0.036317687
0.061452467 0.028932454 -0.067864284 -0.0622793 0.104796685 0.03375495 0.05043681 0.02764074
-0.022030901 -0.034727186 0.08050634 -0.03825187 0.09948965 0.13383406 0.09144241 0.02735642
0.025186047 0.035708103 -0.07867622 0.07581837 0.08668733 0.05976468 0.068589576 0.016715556
0.12765987 0.13457459 0.063676536 0.07885425 0.11112632 -0.050180614 0.0576823 -0.024623554
0.084287345 0.023512054 0.041544307 -0.00312738 0.077086754 0.0988907 -0.026605524 0.14658372
0.010357238 -0.06291486 -0.051448558 -0.056496292 0.07813206 0.026715126 0.06220589 -0.01664646
-0.024663499 -0.010032465 0.05418476 -0.053890754 0.0864546 -0.03082474 0.009622802 0.09849573
0.11869302 -0.014448301 -0.06021712 0.100161076 0.08039899 0.029666662 0.088001065 0.015317261
0.048423912 -0.037875533 -0.013023952 0.062330287 0.06810678 0.13774435 0.096475996 0.028470159
