model.pt (torch, 52111 bytes, 10 tensors)

convs.0.att_src f4 [1, 4, 128]
000000 72 50 37 be 13 6a 89 bd 93 e8 4c 3e cc fe 14 3e
       -0.17901781 -0.06709685 0.20010595 0.14550322
000010 9c b3 94 3d 51 71 02 3e 2f a7 a0 3d d5 1f bc bd
       0.0726082 0.1273854 0.07844388 -0.09185759
000020 84 a8 93 bd 88 cf 76 bd 76 78 b1 3d 4c f0 d8 bd
       -0.07209876 -0.06025651 0.08665554 -0.10592708
000030 cd 92 1d 3d 92 ee 3d 3e 95 66 b1 bd 92 c8 e0 bd
       0.03847008 0.18548039 -0.08662144 -0.10975756
000040 d1 33 02 be 17 79 6b bd 99 a0 41 3e df 5a 07 be
       -0.12715079 -0.057488527 0.1890892 -0.13218258
000050 80 03 fb 3d 2b a7 e4 bd 86 c5 2e 3e f9 6c 95 bd
       0.12256527 -0.11164697 0.17067537 -0.072961755
000060 a3 21 3a 3d 5a 8c 1e be 41 a5 46 3e 10 cb 49 ba
       0.045442235 -0.15483227 0.19398977 -0.00076978
000070 d5 b6 29 3e 8a 42 3b be 8e 93 9c 3d e7 62 84 bd
       0.16573651 -0.18287101 0.07645331 -0.064641766
000080 e2 c4 f8 3d 38 66 7f 3d 42 88 16 3c b3 75 88 bd
       0.121469274 0.062353343 0.00918776 -0.06663074
000090 84 bf 1e bd cb 16 77 3d db 36 3d 3e bf 84 dc 3d
       -0.038756862 0.06032447 0.18477957 0.10767507
0000a0 e5 ad ea 3d e7 33 09 be 65 b6 f2 bd 3a cf 2b bc
       0.11458949 -0.13398705 -0.11851195 -0.010486418
0000b0 0c ea cc bd 24 96 9a 3d 4b 36 4d bd 58 78 df 3d
       -0.100055784 0.07548168 -0.050100606 0.109116256
0000c0 01 45 20 3e 93 ca 17 be 07 ff e3 3d 73 f0 e3 bd
       0.15651323 -0.1482337 0.11132627 -0.111298464
0000d0 8a e4 4a be e4 3e 07 bd bb e4 86 3b c7 df 18 be
       -0.19813743 -0.03301896 0.0041166223 -0.14929114
0000e0 65 95 13 3e 12 41 df 3d 7f ef 3c be 48 88 24 3e
       0.14412458 0.10901083 -0.18450736 0.16067612
0000f0 28 57 00 be 80 e8 26 be b1 ca 32 bd a5 22 a7 bd
       -0.12533247 -0.16299629 -0.043650333 -0.08160905
000100 04 a3 07 be e3 2a d8 3d 6f 5c a0 3d 04 f3 07 be
       -0.1324578 0.10555055 0.0783013 -0.13276297
000110 d1 96 23 bd 4e 6e 4c 3e bc da 22 3e e7 43 28 3e
       -0.03993875 0.19963953 0.15903753 0.16432153
000120 40 27 17 3e 00 35 13 be a9 7c 91 bc 12 0f 37 3e
       0.14761066 -0.14375687 -0.017759638 0.17876843
000130 fd 04 80 3d 50 86 0e be 8f 5e 10 be ca d9 19 3e
       0.062509514 -0.13918424 -0.14098571 0.15024486
000140 5d 0d 25 bb 74 e6 4b 3c f5 fa a8 bd c4 9d 2f 3e
       -0.0025184967 0.012445081 -0.08250991 0.17150027
000150 2a cb 22 3e 82 a4 a9 3b cb 70 3d bd b0 5d 73 3e
       0.15897813 0.0051770816 -0.046250146 0.23766208
000160 21 de ad bc d5 ae cb 3d 32 bc 1b be 23 0e e8 bd
       -0.021224083 0.09945456 -0.1520851 -0.11330821
000170 03 0b 33 be 4f 28 92 3d 86 19 ee bd 53 22 3a be
       -0.1748467 0.071365945 -0.11625962 -0.18177156
000180 d7 48 21 3e 33 63 8d 3c 34 8c c3 bd 9c ce 41 be
       0.15750442 0.017259216 -0.09548226 -0.18926471
000190 09 f3 5f be 8c 86 34 3e 98 c7 22 3d 83 c3 0f 3c
       -0.21870054 0.1762945 0.03974113 0.008774641
0001a0 13 8d 1c be 45 3b f8 3d 87 4e f8 bd 25 8d 3d 3e
       -0.1528819 0.1212068 -0.12124353 0.18510874
0001b0 8b eb b0 bc 4d 5e a5 3d 6b 57 d5 bc 21 be 7b 3e
       -0.02159669 0.08074627 -0.02604266 0.24584247
0001c0 f5 c6 fa 3d 31 78 d8 bd 8d 1b 42 3e f5 51 d2 bc
       0.12244979 -0.105698 0.18955822 -0.025673846
0001d0 38 f4 ab 3d da 8a 1f 3e a5 80 62 3c 22 8f 2c be
       0.083961904 0.15580311 0.013824617 -0.16851476
0001e0 d6 52 b3 3d 5f b3 c5 bc 5d bd ed bc 95 82 9e bd
       0.08756034 -0.024133382 -0.02902096 -0.0773975
0001f0 50 a9 69 bd a4 7c a9 bd 39 45 f3 bd ee a6 72 3e
       -0.057046235 -0.082757264 -0.118784375 0.23696491
000200 cd f8 27 3e f0 2f fc 3d 2d d7 1e 3d 03 fd 8f bc
       0.16403504 0.12313831 0.038779426 -0.0175767
000210 b9 35 03 be 50 97 a4 bd a7 e5 9e 3b 20 65 34 3e
       -0.12813462 -0.08036673 0.004849154 0.17616701
000220 c7 dd b6 bd 19 38 ac bd 2f 34 8b 3d 09 37 91 3d
       -0.089290194 -0.08409137 0.067970626 0.07090575
000230 43 16 0d be 77 76 7a bd ec 11 a9 3d ac eb 56 3d
       -0.13778023 -0.061148133 0.082553715 0.052470848
000240 19 e5 43 3d e0 46 88 bc 06 dc 41 3e 1a db 1e bd
       0.047825906 -0.016635358 0.18931589 -0.03878317
000250 20 aa af 3d 77 70 19 3e fa 70 81 bc dd 47 8a 3c
       0.08577371 0.14984308 -0.015800942 0.01687997
000260 26 2b 03 bd d0 81 da 3c 11 cb 4d bd cf e6 84 3d
       -0.03202357 0.026673228 -0.050242487 0.06489336
000270 d7 11 1b be 71 5c 02 be 7c 7c 81 bd 3e 7d 9e 3c
       -0.15143524 -0.12730576 -0.06322572 0.01934683
000280 d8 54 a9 bd 5d 84 5a 3c d5 67 cc 3d 8b 9b 55 bb
       -0.08268136 0.013337222 0.09980742 -0.0032593932
000290 60 60 0a be fc e1 3e 3d 9c 42 24 3b 53 f9 56 be
       -0.13513327 0.046602234 0.0025064116 -0.20993547
0002a0 20 98 ad bc 0b 20 01 bd 0b 4f 5e bc c5 d5 d2 3d
       -0.021190703 -0.0315247 -0.01356865 0.102946796
0002b0 3c dd 56 3c 0b 1b 72 b9 80 f1 cb bd 1e 93 12 3e
       0.01311427 -0.00023088993 -0.09958172 0.14313933
0002c0 f9 0d 1b 3d a8 7e ee bc e8 fe 78 3e 2f 17 90 3d
       0.037855122 -0.029113129 0.24315989 0.07035672
0002d0 15 b2 b6 3d 22 e7 71 3d f4 10 b1 3b 71 37 00 3e
       0.08920685 0.059058316 0.0054036323 0.12521149
0002e0 04 75 d3 bd 56 1f 35 be 78 a6 8e 3d 26 cf f7 3c
       -0.10325053 -0.17687735 0.06965345 0.030250143
0002f0 34 f8 a4 bd e2 90 5a be 9a f1 84 3d 82 3b 39 3d
       -0.080551535 -0.21344331 0.06491394 0.045222767
000300 7c 9a 6d be 44 97 02 3e 87 ee 51 be 21 35 82 bd
       -0.23203462 0.12753016 -0.20501147 -0.0635779
000310 1c cd aa bd 1e c2 d0 3d 1f eb e2 3d f8 d1 f4 3d
       -0.08339903 0.10193275 0.11080002 0.11954111
000320 90 2a 00 3e 76 55 9d bb b8 de f3 bd 8b 5f d4 3d
       0.12516236 -0.0048014475 -0.119077146 0.10369786
000330 19 9e 84 bd bb ed c1 bd c5 c5 a4 3d c9 01 2a 3d
       -0.06475467 -0.094691716 0.08045534 0.04150561
000340 7b c0 01 3d e6 8b 9c 3d 3a 8c fc bc dd d7 05 be
       0.031677704 0.07643871 -0.030828584 -0.13070627
000350 93 a9 2c be c2 57 bc bb 27 ce dd bd 02 4b ee 3c
       -0.16861562 -0.0057477662 -0.10830336 0.0290885
000360 fd 7a 0b be e3 f1 d9 3d 4f 8d 67 3d 57 47 5b bc
       -0.13621135 0.10641839 0.056531247 -0.013383708
000370 6b cc d1 3d 3e 46 16 bd cb ae 2b bd cf 7a 28 3e
       0.10244068 -0.036688082 -0.041914742 0.16453098
000380 4a 98 54 bc 80 97 22 be 0c cc 47 3e 1d 18 72 3c
       -0.012975762 -0.15878105 0.19511431 0.014776257
000390 2c 2e 06 bc 8c 9f 98 3d 14 cf ad 3d bd f2 5d 3c
       -0.008189719 0.07452306 0.08486763 0.013546643
0003a0 e8 d0 a6 bc b5 2f 8b bd 8b b1 2b 3e 12 1d 81 3d
       -0.020363286 -0.06796209 0.16766946 0.06304373
0003b0 3f 94 48 3d e6 00 7d be fb 4e 1d bd a5 92 d7 bc
       0.048969503 -0.24707374 -0.0384054 -0.026315043
0003c0 d2 6e cb bd ca bf 78 3d 4c dc 02 3e 41 68 0b 3e
       -0.09933247 0.06072978 0.12779349 0.13613988
0003d0 6a 93 e5 3d 46 8b 45 be a5 b7 11 3e 1c d3 09 3e
       0.112097576 -0.1929141 0.14230211 0.13459438
0003e0 69 22 03 be 17 36 f6 3d f5 e5 7d bd 3b 9c 41 3d
       -0.12806095 0.120220356 -0.061986882 0.047268134
0003f0 fe 2f 75 3c aa 26 07 bd 62 ec 1d 3e 51 d2 ac 3d
       0.0149650555 -0.032995857 0.15422204 0.08438552

convs.0.att_dst f4 [1, 4, 128]
000000 c5 b3 86 3e fa 72 31 3e a0 08 93 be 08 7a aa bd
       0.26309028 0.17329016 -0.28717518 -0.08324057
000010 ff f5 01 3a 8c 3a 4d bd 74 d3 05 bd 8f 64 b5 bd
       0.0004957616 -0.050104663 -0.03267236 -0.08857071
000020 8e d0 ec 3d 13 c3 83 3e 91 b9 90 be 9f f1 3b 3e
       0.11563216 0.25734767 -0.28266576 0.1835389
000030 64 0f e8 3d 7c 3a 29 bd 90 49 80 3d 3e 28 41 3e
       0.113310605 -0.04131554 0.06264031 0.18863007
000040 4a 37 d5 bd ed e8 34 3e 8f fb 0c be f3 8f 60 3e
       -0.10410936 0.17666979 -0.13767837 0.21929912
000050 7f a3 d9 bd d4 de 34 3e 9b 37 1f bd 3a cf 20 3d
       -0.106268875 0.17663127 -0.03887139 0.039260127
000060 29 2d 65 3e 9c 8c a7 bd 50 61 0a bd d0 a6 de 3e
       0.22380508 -0.08181116 -0.03378421 0.43486643
000070 d1 7b b0 3b 95 60 8b 3e 67 d3 3a bd 25 1c 7f 3d
       0.005385854 0.27222124 -0.045611765 0.0622827
000080 3c 8a 84 be 81 38 74 be 42 5d 83 bd ad e5 54 3d
       -0.25886714 -0.2384968 -0.06414272 0.05197685
000090 f6 f3 a8 3d 82 16 ad bc 20 82 3a be 3a 92 13 3e
       0.08249657 -0.021128897 -0.18213701 0.1441125
0000a0 25 dc 49 be d4 e2 20 3e c5 46 05 3e 7c c6 64 be
       -0.19712885 0.15711528 0.13015278 -0.22341341
0000b0 81 61 a5 3e 54 6e b9 bd b3 b0 89 3e bd ba a5 bd
       0.32300952 -0.090542465 0.26892623 -0.08092258
0000c0 b0 a0 39 3e 6c 05 6f 3d 19 9c 2b be 0e 70 d0 3e
       0.18127704 0.05835478 -0.16758765 0.4071049
0000d0 94 15 1c be e7 a3 af bd 7c 0f 68 be 94 88 71 3e
       -0.15242606 -0.08576184 -0.22662157 0.23587257
0000e0 53 43 2d bd 72 4f 33 be 1a 55 5d 3e 0f 37 de 3c
       -0.042300534 -0.17510775 0.21614495 0.027125863
0000f0 16 37 86 3e f6 3d 7d 3d 5a b0 ae be e2 30 e0 3d
       0.26213902 0.06182667 -0.3411892 0.10946824
000100 95 b4 8a 3d f5 7a e6 3c 90 73 bd 3d 4c 8d 2f 3d
       0.067727245 0.028134802 0.092505574 0.04285936
000110 c1 7e b1 3e 08 33 34 bc ca bf 7c be 30 b4 45 3e
       0.34667018 -0.010998495 -0.24682537 0.19307017
000120 02 f2 79 3e 6a aa 24 3e 78 ab 30 3e 1c b1 9f bd
       0.24408725 0.16080633 0.1725291 -0.07797453
000130 e1 dd 41 be 7e 0b 48 3d 51 ec d6 bd e8 f5 41 be
       -0.18932296 0.048839085 -0.104942925 -0.18941462
000140 34 64 91 be 07 a2 f6 3d 04 fd 0e be 2c e8 31 be
       -0.2839676 0.12042623 -0.13963705 -0.17373723
000150 c3 3e 7b 3c 3c 95 77 3d 02 f0 0a bd ed b4 48 be
       0.015334788 0.060445055 -0.033920296 -0.19600268
000160 5e a3 3d 3e b5 af 99 bd 90 47 84 3e 31 9c 4e 3e
       0.18519351 -0.075042166 0.25835848 0.2017677
000170 e3 2f b7 3e cf fa 71 bd 0d 11 bb 3e 5c 56 10 3d
       0.35778722 -0.05907708 0.36536446 0.03523861
000180 31 99 ac bd 90 4a 3f 3d 1b 3e c8 3e f9 11 43 3e
       -0.084276564 0.046701968 0.39109883 0.19049825
000190 21 d4 c4 3d 34 7f 42 be 09 0f ca 3c 74 94 d6 3c
       0.09610773 -0.18993837 0.024665372 0.026193835
0001a0 be ce 45 3e e5 55 14 be 97 60 5d be ee 9b 50 be
       0.19317147 -0.14485891 -0.21618877 -0.20371982
0001b0 9c fb 0d be 7f f6 01 be ae 2b d4 bd 3d 76 00 be
       -0.13865513 -0.12691687 -0.10359894 -0.12545104
0001c0 8c f8 20 3c bb 3a 90 3e 68 3c 9e be e5 4b 2b 3c
       0.009824883 0.28169808 -0.3090546 0.010455106
0001d0 2e c8 99 be 7f c1 3f be 88 33 d3 3d db 42 e8 3d
       -0.30035537 -0.18726157 0.10312563 0.11340877
0001e0 be 4c b4 bd ce 79 38 3d 48 9a 30 be 61 84 cf 3e
       -0.088037 0.045038037 -0.17246354 0.40530685
0001f0 d4 06 54 bb 10 b2 27 3e 86 12 22 bc 1d de a1 bc
       -0.0032352703 0.16376519 -0.009892112 -0.019759232
000200 0d af d6 3c b1 87 b4 3d 91 f3 2c be 33 66 3d bc
       0.026206518 0.088149436 -0.16889788 -0.011560011
000210 ec af 45 3d 82 d1 b2 be 55 c6 74 bd bf 82 3b bd
       0.048263475 -0.34925467 -0.059759457 -0.045778986
000220 e5 3e c7 3e 23 05 34 3d d1 2a 24 3e 3b 7f bd bd
       0.38915172 0.04395021 0.16031958 -0.09252783
000230 9f 70 5c 3e 34 49 0f 3d 32 9b 63 3e 67 5f b8 3b
       0.21527337 0.03498192 0.22227171 0.005626607
000240 f2 d4 6f 3b eb 73 58 be e8 4c b2 bb 97 f6 d7 3e
       0.003659543 -0.21137969 -0.005441297 0.4218032
000250 31 b1 1d 3c e2 3a 2c be 28 35 ac 3d da e6 c7 be
       0.009624765 -0.16819337 0.08408576 -0.39043313
000260 8d 35 66 3e 31 52 34 be 30 ea 71 3d f2 d8 93 bd
       0.22481366 -0.17609479 0.05906123 -0.072191134
000270 ee 77 b4 be 13 c6 01 be 8d 0d 86 3d 44 7b ab 3d
       -0.3524775 -0.12673216 0.06545553 0.083731204
000280 e8 11 f6 3c 2c 11 88 3e 59 84 68 bd e5 4c 8d 3c
       0.030037835 0.265756 -0.05676684 0.01724858
000290 83 0f 49 be e6 a5 70 3e 21 de ae 3e d1 40 c7 bb
       -0.19634824 0.23500785 0.34153846 -0.0060807248
0002a0 c2 3e 0c be 6a 35 cf 3d b8 23 84 3e 77 95 96 3d
       -0.13695815 0.1011761 0.258085 0.07352727
0002b0 44 e3 56 3d ab 43 30 3e fe ac ea 3d 33 eb 43 bc
       0.05246283 0.17213313 0.11458777 -0.011957931
0002c0 da cc a5 3c 9d 7d bd bd 63 81 d3 3e 9e 57 3f be
       0.020239282 -0.092524745 0.41309652 -0.18685767
0002d0 b1 e8 0f 3e 2e 28 14 3e 88 57 8a be 45 98 aa 3e
       0.14053608 0.14468452 -0.27019906 0.33319297
0002e0 5d e0 80 3d 73 44 a6 bd da ae e2 3d 30 44 96 3e
       0.06292794 -0.081185244 0.110685065 0.29348898
0002f0 e9 a5 34 be 11 e1 a3 3e f2 ae bf 3e e2 f5 04 3e
       -0.17641415 0.3200765 0.3743816 0.12984422
000300 2c 4c e0 3d f1 04 f4 bc 8c 00 c7 bd 3f 0f a1 be
       0.10952029 -0.029787512 -0.09716901 -0.31456944
000310 18 a0 96 3e 63 f0 02 be 5c a1 a7 3e 24 52 bb 3e
       0.29419017 -0.12787013 0.32740295 0.36586106
000320 00 7a 48 3e f7 b2 73 be 63 9d 8f 3e 35 a2 db bd
       0.1957779 -0.23798738 0.28049764 -0.10724298
000330 ca 5f 05 bd d8 4c 80 be 4d 21 d4 3d 0b ca 87 3d
       -0.032562055 -0.25058627 0.10357914 0.066303335
000340 9a b1 ec bc 69 05 76 be d4 6b 60 bd 8d e5 5c 3d
       -0.02889328 -0.24025501 -0.054790333 0.053929854
000350 98 fe 0d 3e 71 73 bf bd 3d 3f 88 be ed c0 8d bb
       0.13866651 -0.093481906 -0.26610747 -0.004325977
000360 6c 02 5f 3d 45 f4 05 be 80 25 06 be 71 63 42 be
       0.05444567 -0.13081463 -0.13100243 -0.18983246
000370 51 1b 3c be 08 23 d5 bd a2 6a 66 be 66 88 f8 3d
       -0.18369795 -0.10407072 -0.22501615 0.12135391
000380 0c 54 eb bd 26 59 15 3e 39 6b ab 3e 61 08 d7 bd
       -0.1149064 0.14584789 0.33480242 -0.10499645
000390 4e a7 80 be 8e ce 2f bd ff 01 61 be 20 99 33 be
       -0.25127643 -0.042921595 -0.21973418 -0.17538881
0003a0 bc 8d 0f bd 55 51 43 3e 8c 37 d3 3e 89 cc 9d bd
       -0.035047278 0.19073994 0.41253316 -0.077050276
0003b0 5d 65 80 3c 30 6e 18 be 20 00 76 bd d4 96 46 3e
       0.015673334 -0.14885783 -0.060058713 0.19393474
0003c0 61 1b 6f be 8f fc 80 3e 3d 77 be 3e 3a e1 62 be
       -0.23350288 0.25192687 0.37200347 -0.2215623
0003d0 74 40 4c 3e b7 13 72 3c 62 4f 3f 3e a6 7f 28 bd
       0.19946462 0.014775208 0.18682626 -0.04113736
0003e0 11 eb a1 be e0 13 68 3e c4 d6 51 be 08 81 5a be
       -0.31624654 0.22663832 -0.20492083 -0.21338284
0003f0 17 0b 28 3e c4 73 9a bd 02 41 93 bd dd ef 20 3e
       0.1641048 -0.07541612 -0.07190134 0.157165

convs.0.bias f4 [512]
000000 2a 5c d3 3c 03 a1 6c bd ab 59 ad 3c 76 57 ad 3d
       0.025800783 -0.05777074 0.021160921 0.084639475
000010 e2 ef 11 3d 87 70 b1 bd 94 d4 4b bd 20 56 09 3d
       0.03562916 -0.08664041 -0.049763277 0.0335294
000020 1c 90 6c 3d 5e 39 ac bd bb 83 8a 3c 18 0b 32 3d
       0.05775462 -0.084093794 0.016908517 0.04346761
000030 ab 38 1f 3d 63 75 9b 3c db 32 50 bc 3c dd 16 be
       0.038872402 0.018976873 -0.012707437 -0.14732832
000040 e1 6a 0f be 5e bf c7 3d b6 69 81 3d 0f 2e 01 3d
       -0.14005615 0.09753297 0.06318991 0.031538066
000050 75 ef 4e 3d af 7f 97 3d 9f db 0d 3c 20 96 9d bc
       0.050521333 0.073974006 0.008658319 -0.019236624
000060 5d 3f 65 bd 9c 92 4b bd 3f ae a8 bd c9 1c 63 bd
       -0.05596863 -0.049700364 -0.0823636 -0.055447374
000070 a9 b5 91 bd 4b 3d fe 3c 18 53 52 bd 17 17 24 3d
       -0.07114727 0.031035086 -0.051348776 0.040061083
000080 90 5a 62 bc 3a 6d 4c 3d 20 84 7f 3d 81 ae d6 3c
       -0.013815537 0.049908854 0.062381864 0.026206257
000090 50 78 ec 3c ac e1 e4 bd 5b 28 2c 3a bf 29 8d bd
       0.028865963 -0.11175856 0.0006567293 -0.06892728
0000a0 31 55 05 3d ab c1 5f 3b 6f 78 c1 3b 7a 37 26 3d
       0.032551948 0.0034142535 0.0059042494 0.04058025
0000b0 b5 f5 c4 3d f0 73 47 3d 4e d0 45 bd f2 b3 77 3e
       0.096171774 0.04869455 -0.048294358 0.24189737
0000c0 b0 36 3a bd 06 a5 30 bd 44 0a 4f 3c 43 ae 80 bd
       -0.04546231 -0.04312613 0.012636725 -0.06283238
0000d0 ef 2f e6 bd dd 0e 81 3b aa 49 87 bc 3b 0c c3 3b
       -0.11239611 0.0039385394 -0.016514618 0.0059523857
0000e0 e7 eb 43 3c 27 25 11 be 51 1a 95 3d 12 64 2c 3d
       0.011958099 -0.14174329 0.0728041 0.042087622
0000f0 b1 9b 4a bd 27 0d 11 3c 66 ad 46 39 e5 01 1f be
       -0.049464885 0.008853233 0.00018947347 -0.15528066
000100 87 c9 1e 3d 01 85 44 3d c5 44 8a bd 4f 33 35 bd
       0.03876641 0.047978405 -0.06751398 -0.044238385
000110 89 75 f2 3c 16 05 94 bd a9 73 ba bc c8 eb 7c 3d
       0.02959706 -0.072275326 -0.02276023 0.061748296
000120 26 95 12 3d 9f ca 24 bd d3 4f 9f 3c e2 d0 2e bd
       0.03578677 -0.040232297 0.019447243 -0.042679675
000130 a1 9a 96 3d 73 41 64 bb 21 e1 b9 3c c6 43 21 3c
       0.07353712 -0.003482905 0.022690358 0.009842819
000140 7d a1 27 bd 6c ca 4d 3d dd 97 bf 3d 17 c1 6a 3d
       -0.04092549 0.050241873 0.093551375 0.05731305
000150 9c 7e 27 3d 48 c5 30 3d f5 90 ac bc 14 7b 0f bd
       0.04089223 0.043156892 -0.021065215 -0.035029486
000160 e3 3a 65 3d 7a 74 5d 3c 22 30 35 bd 1e 1f a4 3c
       0.055964362 0.01351654 -0.044235356 0.02003437
000170 df 5a 53 bd 5d 05 76 3d 47 38 8e bd d4 71 55 3c
       -0.051600333 0.06006371 -0.06944328 0.013027627
000180 97 a7 c4 bd 38 73 69 bd c7 cf 51 3b e0 9e 43 bd
       -0.09602278 -0.056994647 0.0032014714 -0.047758937
000190 ef 21 8a bd 3f b2 a0 3d 6a e5 d9 3a 80 c7 eb 3c
       -0.067447536 0.07846498 0.0016624157 0.028781652
0001a0 92 19 17 bd 60 91 37 bd 75 af 91 3d de 8f 49 bd
       -0.03688962 -0.044816375 0.07113544 -0.049209468
0001b0 43 07 b7 bc 90 98 1d be fc c1 2e 3d 24 27 e2 3c
       -0.02234233 -0.15390229 0.042665467 0.027606554
0001c0 ef 37 a3 3d 33 e1 9d 3d 85 bb ef bc b8 15 a6 bc
       0.07969653 0.07708969 -0.029264221 -0.020274028
0001d0 92 a8 54 bd 3b f1 a5 bc d4 99 0e bd c4 cd af bc
       -0.051918574 -0.02025663 -0.03481467 -0.021460421
0001e0 9d 0a 6b 3d ba 7f 7b 3d e0 0f 5e 3d b0 6b 3f bd
       0.05738317 0.061401106 0.05421436 -0.04673356
0001f0 e2 7e 05 3d 97 95 84 3c cb 13 99 3d 55 22 25 bc
       0.032591708 0.016184611 0.07474478 -0.010078986
000200 4b 28 6b 3d cc bb 73 bd 82 05 1f 3e c9 a9 82 3d
       0.057411473 -0.05950527 0.15529445 0.0638004
000210 c1 0a 0d bd a0 72 83 bd 49 69 8b bc ea 4d 77 3d
       -0.034434084 -0.06418347 -0.017017977 0.06037704
000220 61 77 6f 3d 3b dd bd 3d 9e 06 f5 3d c0 41 d9 3c
       0.058463458 0.09270712 0.11964153 0.02652061
000230 2a e7 97 3d 64 fb 74 bd f0 11 42 3d ad 33 76 bd
       0.07417138 -0.059810057 0.047380388 -0.060107876
000240 4c de 8f bd 7f 5b 82 bd 8c 02 c9 3a f3 fe b3 3d
       -0.07024822 -0.06365108 0.0015335842 0.08788862
000250 75 33 80 bd 09 e0 d2 3d 1c a2 d3 bd f7 67 cf 3c
       -0.06259815 0.102966376 -0.10333654 0.025318129
000260 14 79 99 3d 71 5c 63 bd 8b 2d 8d bd 8a de 8f bd
       0.07493797 -0.05550808 -0.06893452 -0.07024868
000270 d1 82 84 3d 97 9b e7 bc a3 aa 31 bd 0e 3f 60 bd
       0.06470264 -0.028272433 -0.043375622 -0.054747634
000280 48 a9 a2 3d 93 70 55 3e 5a f6 f5 3d 00 56 fc bc
       0.07942444 0.20843725 0.120098785 -0.030802727
000290 49 ca b4 bd 29 1a 2d 3d 76 74 33 bd 77 d6 9e 3d
       -0.08827645 0.042261276 -0.043812238 0.0775575
0002a0 a9 db 97 bd 7e 7b ec 3d aa db ac 3d da b7 c7 3d
       -0.07414944 0.11546992 0.08440335 0.09751864
0002b0 83 fc a3 3d 79 45 81 3d 18 ce 28 3d f5 97 ba bd
       0.08007147 0.06312079 0.04121217 -0.09111015
0002c0 60 0d 06 3e 2a c5 39 bd 34 13 9f bd 47 bc 16 3e
       0.1309104 -0.045354046 -0.077673346 0.1472026
0002d0 87 cb f1 3c ec 5e 89 3d 13 18 7a 3d 46 9c c1 3d
       0.029515995 0.06707558 0.061058115 0.09453635
0002e0 a4 36 ac 3d 11 99 12 3d cc 4f 1a bd a4 28 89 3d
       0.08408859 0.035790507 -0.037673756 0.06697205
0002f0 61 2e 4d 3e ce 27 4f 3d 7e 1b 96 bd a8 6c 1b 3d
       0.20037223 0.05057507 -0.073294625 0.03794542
000300 b8 38 9f 3e 5a d4 a3 bd fd 8e aa 3d 0b 05 a4 3c
       0.3109796 -0.07999487 0.08328054 0.020021936
000310 a8 b2 58 3d cd 43 cc bd bc 7f 9c 3d a8 2e 99 bd
       0.052904755 -0.099738695 0.07641551 -0.07479602
000320 6e 1d b4 bd 0c e6 e0 3d 35 96 5a 3d 1c ac 80 bd
       -0.08794676 0.10981378 0.053365905 -0.06282827
000330 b7 94 97 bd fa 4a c8 3c 12 88 9e 3d f1 0e 10 3e
       -0.07401412 0.024449814 0.07740797 0.140682
000340 e5 f7 35 bd 83 3e 23 3e 7b 3d 69 bd 97 5e 83 bd
       -0.044425864 0.15941815 -0.056943398 -0.06414526
000350 00 d6 cf 3d e8 d4 29 3d 20 d5 d4 bd 4f 48 f8 3d
       0.10148239 0.04146281 -0.10392213 0.12123167
000360 1d dd ac 3d e7 86 a5 bd 58 6a 8e 3e 53 67 4e 3e
       0.084406115 -0.08082371 0.2781551 0.20156603
000370 8d c1 1a be fb a3 c7 bc 5a af 98 3d 58 f4 89 bd
       -0.15112896 -0.024370184 0.07455321 -0.06736058
000380 3a 85 98 3d df 51 db 3c 4f 7c ba 3b 7a e0 5f 3d
       0.07447286 0.026772438 0.0056910883 0.054657437
000390 df 34 33 bd 34 b4 72 bd 02 db f7 bd 94 e8 c4 bd
       -0.043751594 -0.059253886 -0.12102319 -0.09614673
0003a0 41 7c 53 3e 25 88 3b bd f9 81 3e 3d 34 af c2 3d
       0.20652868 -0.045784134 0.04651067 0.095060736
0003b0 6d 2f 91 bd 13 c9 ef 3d 86 7f d8 3d bb 7a fe b8
       -0.07089124 0.11708274 0.10571198 -0.00012134524
0003c0 0b 29 4d bd b9 18 b3 3d 49 67 26 3d 1e 2c 77 bd
       -0.05008797 0.0874495 0.040625844 -0.060344808
0003d0 77 95 c6 bd a8 5b 1a 3e e2 16 9b 3a 31 34 87 bd
       -0.09696477 0.15074027 0.0011832381 -0.066017516
0003e0 94 f4 b9 3d 71 96 21 bd 5f c2 64 3d 88 6f 64 3e
       0.09079853 -0.039450113 0.05584943 0.22308171
0003f0 77 13 d9 3d 6c 54 63 bd 34 62 0f 3e 87 46 6a 3d
       0.10599416 -0.055500433 0.14002305 0.057196166

convs.0.lin_src.weight f4 [512, 17]
000000 2b fc d0 3d 8b f9 42 bd bf 29 9c bd 48 e4 8b bc
       0.10204347 -0.047601264 -0.0762515 -0.017076626
000010 f0 9d 9d bd c3 3e 08 3e ba d8 ac 3d e8 63 f9 3d
       -0.0769614 0.13305192 0.08439775 0.12177259
000020 db 96 c0 3c 51 b9 db bd 1f be a8 bc b5 bc 71 bd
       0.023509433 -0.10728706 -0.02059847 -0.059017856
000030 42 60 15 be 76 03 28 bd 45 da 5b bd 1f 43 89 3d
       -0.145875 -0.041018926 -0.053674955 0.067022555
000040 53 fa 17 bd db 57 0a bd e0 a4 1a bc aa fc 50 bd
       -0.037103962 -0.03377519 -0.009438723 -0.05102221
000050 97 77 3f bc 02 a5 39 bc 90 41 41 bd 94 fa 3d bd
       -0.011686227 -0.011330845 -0.047181666 -0.046381548
000060 26 e7 c1 3d eb 23 08 3d 35 f9 81 bd 68 39 c1 3c
       0.09467916 0.03323738 -0.063463606 0.023586944
000070 e7 15 7d bd 97 45 8b bd a6 d9 cb bb 37 79 e8 3c
       -0.061788466 -0.068003826 -0.006221014 0.028378112
000080 73 50 81 3c b8 1c 82 bd 95 85 4c 3d 4a 67 bd 3d
       0.015785431 -0.06353134 0.04993208 0.092482165
000090 f2 72 1d 3e ed 9b c7 3d 9b 64 25 bc 67 6f 29 3d
       0.1537588 0.09746537 -0.010094787 0.041366007
0000a0 ca bf 89 3d a9 11 51 3a 4d 51 35 3d d9 05 3e 3c
       0.06726034 0.0007975349 0.044266988 0.011598074
0000b0 d4 94 28 bd 62 4f bb 3d 1f 19 a7 3d da 0a cc bc
       -0.04115756 0.091460004 0.08159088 -0.024907518
0000c0 f8 94 e2 3c f0 92 85 3d 68 cd 6e bd b5 df fc 3c
       0.027658924 0.06522167 -0.05830136 0.03086839
0000d0 a0 e4 f4 bd 92 c6 ff 3d c1 c7 2e bd aa 6a 50 bd
       -0.11957669 0.12489046 -0.04267097 -0.050882973
0000e0 04 d3 33 3b 10 98 9f bd ff 12 75 bc 21 75 ce bd
       0.0027439008 -0.077926755 -0.014958142 -0.10080934
0000f0 50 50 fe 3c 85 d1 11 be f2 70 a2 3e b3 13 dc 3d
       0.031044155 -0.14240082 0.31726795 0.10745945
000100 0d 5d e4 39 0a db 6a 3d ff 99 a7 3d 79 d1 00 be
       0.00043556877 0.0573378 0.08183669 -0.12579907
000110 23 da be bc 3e a3 c8 bd fb fd 67 3e bc a3 1d be
       -0.023297375 -0.09796761 0.2265548 -0.15394491
000120 a3 cf d7 bc a0 98 1c 3d 5e af b3 3b d3 f2 be bc
       -0.026344126 0.038231492 0.005483552 -0.023309147
000130 ce c1 80 bd 41 60 c7 bd dd 19 05 be 67 17 a8 3e
       -0.06286965 -0.09735156 -0.12998147 0.32830355
000140 2c a5 34 3e bc 7d 80 3d a4 9a 53 be 93 07 14 3e
       0.17641133 0.06273982 -0.2066446 0.14456014
000150 2c f2 df bd ed 18 ec bc e7 05 2f be 0c 48 19 bd
       -0.109348625 -0.02882048 -0.17092095 -0.037422225
000160 bd 31 79 bd 0f 45 a2 3d 21 a7 a0 3d cb 70 9a bd
       -0.06083845 0.07923328 0.07844377 -0.07541045
000170 1e 22 bb 3d 8c 5c ec 3c 4e 4f 92 3c a9 1f bd bd
       0.09137367 0.028852724 0.017860081 -0.09234554
000180 00 02 ef 3a cd c0 5f bd 68 63 0c bd 6a 54 b7 bc
       0.0018234849 -0.05462723 -0.03427449 -0.022379119
000190 77 45 2c 3d 3a 68 6c 3d 3d 9e 3a be e8 1e 11 be
       0.042058434 0.057716586 -0.18224426 -0.14171946
0001a0 2b b2 a5 3d 3a 28 93 bd fc d7 ac bd 89 29 b6 bd
       0.080906235 -0.07185407 -0.08439633 -0.08894641
0001b0 33 ab 50 3b 60 16 df 3b 38 b6 1c bc 83 90 01 3d
       0.0031840324 0.006808087 -0.009564929 0.031631958
0001c0 74 da c3 bd bd dc 0d 3e 8f 8f 82 bd b1 a5 0a bc
       -0.09563151 0.13853736 -0.06375038 -0.0084623555
0001d0 e6 8a eb 3c 55 74 fe bd 40 55 30 bd 9a 92 56 bc
       0.028752755 -0.12424532 -0.04305005 -0.013096476
0001e0 0e 4e 72 3d 2f af da bb 01 37 02 3d a0 0d ed 3d
       0.05915647 -0.0066737155 0.031790737 0.115748644
0001f0 0c f7 0a 3c 27 a3 f1 bc 12 b8 02 be b7 56 e9 bd
       0.008481752 -0.029496742 -0.1276553 -0.11393493
000200 66 d9 1f bd e5 83 23 3d 39 21 0c be dc 6c e6 bc
       -0.039025687 0.039920706 -0.13684548 -0.02812808
000210 1c 24 42 bd 66 8a e8 bc 49 6c 27 3d 02 06 0b 3e
       -0.047397718 -0.028386306 0.040874753 0.1357651
000220 23 20 0a 3e 7c 73 96 3d 41 c0 2b bc 76 af 6e bd
       0.13488822 0.07346246 -0.010482849 -0.0582728
000230 7f 21 e1 3d 66 ca 84 3d ea 7c 25 3d c4 2d 80 bd
       0.10992717 0.06483917 0.04040233 -0.06258729
000240 51 2f 05 bd ea 0e c4 3d 1f c0 24 be 32 0e fa bc
       -0.032515828 0.09573157 -0.16088913 -0.030524347
000250 f7 5c 0f bd 45 5c 84 3d c3 04 23 ba 25 b2 bc bd
       -0.035000768 0.064629115 -0.0006218666 -0.09213666
000260 85 a3 28 be 7e 07 04 be ee fc ad 3a d7 5d 45 bb
       -0.16468628 -0.12893483 0.0013274231 -0.0030115747
000270 8a 63 ec 3d 5a f3 9b 3d 6d f9 b0 3d 39 45 eb bc
       0.11542423 0.07614775 0.08641324 -0.028719531
000280 88 05 06 3e 74 dc 25 3d ef 62 65 bd 8a 29 14 be
       0.13088048 0.040493444 -0.056002554 -0.14468971
000290 46 d0 af 3c 4a 2b e5 bd ed f0 80 bc fb 7e 37 3b
       0.021461617 -0.11189897 -0.015739882 0.002799927
0002a0 a8 97 e4 bd a7 32 3a be d8 0b b1 bd 6d c4 d8 3d
       -0.11161739 -0.18183385 -0.08644837 0.1058434
0002b0 8b 6f 09 3e 82 1f 5b 3d c0 17 36 bd 48 68 03 bd
       0.13421457 0.053496845 -0.044456244 -0.032081872
0002c0 ce 6b 0d bd c4 5f cf 3d 71 75 32 bd c0 38 39 bc
       -0.03452664 0.10125688 -0.043569032 -0.011305034
0002d0 aa 1c 16 3c ca 52 10 3d 7b 0d 9f bd 8f 7a d6 3d
       0.0091621075 0.035235204 -0.07766243 0.10472595
0002e0 5a b2 85 bd ac d2 20 3e c1 19 57 bc 0d a1 34 bd
       -0.065281585 0.15705365 -0.013128699 -0.044098902
0002f0 1c 5a 03 bb ea 68 b0 bc 61 d6 6a 3d b7 a5 a9 3d
       -0.0020042723 -0.021534402 0.057333354 0.08283561
000300 ff e7 f2 3a 4a 38 bd bd 2d 24 29 bc 32 5d 75 bd
       0.0018532275 -0.09239252 -0.010323566 -0.05990333
000310 55 bc 95 3d a9 64 bd bd 8b 52 31 be a4 c8 82 be
       0.07311312 -0.09247715 -0.17316644 -0.25543702
000320 52 19 2b 3d 1b 3e 84 bd c4 42 b1 3d d4 ab 2d bd
       0.041772194 -0.06457158 0.08655313 -0.042400196
000330 95 13 6b 3b c9 95 d6 bd 41 11 e2 3d 45 50 2d be
       0.0035869826 -0.10477788 0.11038447 -0.16925152
000340 0b 10 14 bd bc 90 bd 3d 63 87 4e bd 4d ed 60 3d
       -0.036148112 0.092561215 -0.050422084 0.054913808
000350 31 11 cf bd 62 65 89 3d 21 fa 9c bd ec d4 05 3e
       -0.10110701 0.0670879 -0.07664896 0.13069504
000360 45 47 14 3e 05 ab 2f 3d 34 3a a3 3c fd 06 88 bd
       0.14480312 0.042887706 0.019925214 -0.06641958
000370 a3 1e 74 bd b5 e4 cb bd 5c 80 dc 3c 42 7b aa bd
       -0.05959953 -0.09955732 0.026916675 -0.08324291
000380 ea 2a a5 bd 96 6f a6 bd ef 05 b4 3c b1 f1 f2 bd
       -0.08064826 -0.08126752 0.021975486 -0.11862505
000390 1f 69 a4 3d 8e a3 bb bd 0e b7 98 bd a6 4c 31 bd
       0.08027863 -0.09162055 -0.0745679 -0.04328599
0003a0 b6 d2 3b 3c 59 bd 0e bd 4e 72 95 3d 86 dd 9e bd
       0.011463812 -0.034848545 0.072971925 -0.07757096
0003b0 e0 f5 7d bd c5 cd 91 3d a6 0d d1 bc a7 f3 05 3e
       -0.062002063 0.071193255 -0.025519203 0.13081227
0003c0 01 c5 a2 3d 79 de 07 bd 00 f9 a9 bc 6d a9 57 bd
       0.07947732 -0.03317115 -0.020748615 -0.05265181
0003d0 0e b5 6b 3c fe 80 c7 ba dd b6 85 3d a3 13 73 bd
       0.0143864285 -0.0015220938 0.06529019 -0.0593449
0003e0 48 0b 0b be cd c9 4b 3e 4e c3 7e 3d 50 c5 05 3d
       -0.13578522 0.199012 0.062197976 0.032658875
0003f0 1f 80 b6 bd 16 a9 56 3e c9 d2 6e bd e5 92 6c bc
       -0.08911156 0.20962939 -0.05830649 -0.014439319

convs.0.lin_dst.weight f4 [512, 17]
000000 2b fc d0 3d 8b f9 42 bd bf 29 9c bd 48 e4 8b bc
       0.10204347 -0.047601264 -0.0762515 -0.017076626
000010 f0 9d 9d bd c3 3e 08 3e ba d8 ac 3d e8 63 f9 3d
       -0.0769614 0.13305192 0.08439775 0.12177259
000020 db 96 c0 3c 51 b9 db bd 1f be a8 bc b5 bc 71 bd
       0.023509433 -0.10728706 -0.02059847 -0.059017856
000030 42 60 15 be 76 03 28 bd 45 da 5b bd 1f 43 89 3d
       -0.145875 -0.041018926 -0.053674955 0.067022555
000040 53 fa 17 bd db 57 0a bd e0 a4 1a bc aa fc 50 bd
       -0.037103962 -0.03377519 -0.009438723 -0.05102221
000050 97 77 3f bc 02 a5 39 bc 90 41 41 bd 94 fa 3d bd
       -0.011686227 -0.011330845 -0.047181666 -0.046381548
000060 26 e7 c1 3d eb 23 08 3d 35 f9 81 bd 68 39 c1 3c
       0.09467916 0.03323738 -0.063463606 0.023586944
000070 e7 15 7d bd 97 45 8b bd a6 d9 cb bb 37 79 e8 3c
       -0.061788466 -0.068003826 -0.006221014 0.028378112
000080 73 50 81 3c b8 1c 82 bd 95 85 4c 3d 4a 67 bd 3d
       0.015785431 -0.06353134 0.04993208 0.092482165
000090 f2 72 1d 3e ed 9b c7 3d 9b 64 25 bc 67 6f 29 3d
       0.1537588 0.09746537 -0.010094787 0.041366007
0000a0 ca bf 89 3d a9 11 51 3a 4d 51 35 3d d9 05 3e 3c
       0.06726034 0.0007975349 0.044266988 0.011598074
0000b0 d4 94 28 bd 62 4f bb 3d 1f 19 a7 3d da 0a cc bc
       -0.04115756 0.091460004 0.08159088 -0.024907518
0000c0 f8 94 e2 3c f0 92 85 3d 68 cd 6e bd b5 df fc 3c
       0.027658924 0.06522167 -0.05830136 0.03086839
0000d0 a0 e4 f4 bd 92 c6 ff 3d c1 c7 2e bd aa 6a 50 bd
       -0.11957669 0.12489046 -0.04267097 -0.050882973
0000e0 04 d3 33 3b 10 98 9f bd ff 12 75 bc 21 75 ce bd
       0.0027439008 -0.077926755 -0.014958142 -0.10080934
0000f0 50 50 fe 3c 85 d1 11 be f2 70 a2 3e b3 13 dc 3d
       0.031044155 -0.14240082 0.31726795 0.10745945
000100 0d 5d e4 39 0a db 6a 3d ff 99 a7 3d 79 d1 00 be
       0.00043556877 0.0573378 0.08183669 -0.12579907
000110 23 da be bc 3e a3 c8 bd fb fd 67 3e bc a3 1d be
       -0.023297375 -0.09796761 0.2265548 -0.15394491
000120 a3 cf d7 bc a0 98 1c 3d 5e af b3 3b d3 f2 be bc
       -0.026344126 0.038231492 0.005483552 -0.023309147
000130 ce c1 80 bd 41 60 c7 bd dd 19 05 be 67 17 a8 3e
       -0.06286965 -0.09735156 -0.12998147 0.32830355
000140 2c a5 34 3e bc 7d 80 3d a4 9a 53 be 93 07 14 3e
       0.17641133 0.06273982 -0.2066446 0.14456014
000150 2c f2 df bd ed 18 ec bc e7 05 2f be 0c 48 19 bd
       -0.109348625 -0.02882048 -0.17092095 -0.037422225
000160 bd 31 79 bd 0f 45 a2 3d 21 a7 a0 3d cb 70 9a bd
       -0.06083845 0.07923328 0.07844377 -0.07541045
000170 1e 22 bb 3d 8c 5c ec 3c 4e 4f 92 3c a9 1f bd bd
       0.09137367 0.028852724 0.017860081 -0.09234554
000180 00 02 ef 3a cd c0 5f bd 68 63 0c bd 6a 54 b7 bc
       0.0018234849 -0.05462723 -0.03427449 -0.022379119
000190 77 45 2c 3d 3a 68 6c 3d 3d 9e 3a be e8 1e 11 be
       0.042058434 0.057716586 -0.18224426 -0.14171946
0001a0 2b b2 a5 3d 3a 28 93 bd fc d7 ac bd 89 29 b6 bd
       0.080906235 -0.07185407 -0.08439633 -0.08894641
0001b0 33 ab 50 3b 60 16 df 3b 38 b6 1c bc 83 90 01 3d
       0.0031840324 0.006808087 -0.009564929 0.031631958
0001c0 74 da c3 bd bd dc 0d 3e 8f 8f 82 bd b1 a5 0a bc
       -0.09563151 0.13853736 -0.06375038 -0.0084623555
0001d0 e6 8a eb 3c 55 74 fe bd 40 55 30 bd 9a 92 56 bc
       0.028752755 -0.12424532 -0.04305005 -0.013096476
0001e0 0e 4e 72 3d 2f af da bb 01 37 02 3d a0 0d ed 3d
       0.05915647 -0.0066737155 0.031790737 0.115748644
0001f0 0c f7 0a 3c 27 a3 f1 bc 12 b8 02 be b7 56 e9 bd
       0.008481752 -0.029496742 -0.1276553 -0.11393493
000200 66 d9 1f bd e5 83 23 3d 39 21 0c be dc 6c e6 bc
       -0.039025687 0.039920706 -0.13684548 -0.02812808
000210 1c 24 42 bd 66 8a e8 bc 49 6c 27 3d 02 06 0b 3e
       -0.047397718 -0.028386306 0.040874753 0.1357651
000220 23 20 0a 3e 7c 73 96 3d 41 c0 2b bc 76 af 6e bd
       0.13488822 0.07346246 -0.010482849 -0.0582728
000230 7f 21 e1 3d 66 ca 84 3d ea 7c 25 3d c4 2d 80 bd
       0.10992717 0.06483917 0.04040233 -0.06258729
000240 51 2f 05 bd ea 0e c4 3d 1f c0 24 be 32 0e fa bc
       -0.032515828 0.09573157 -0.16088913 -0.030524347
000250 f7 5c 0f bd 45 5c 84 3d c3 04 23 ba 25 b2 bc bd
       -0.035000768 0.064629115 -0.0006218666 -0.09213666
000260 85 a3 28 be 7e 07 04 be ee fc ad 3a d7 5d 45 bb
       -0.16468628 -0.12893483 0.0013274231 -0.0030115747
000270 8a 63 ec 3d 5a f3 9b 3d 6d f9 b0 3d 39 45 eb bc
       0.11542423 0.07614775 0.08641324 -0.028719531
000280 88 05 06 3e 74 dc 25 3d ef 62 65 bd 8a 29 14 be
       0.13088048 0.040493444 -0.056002554 -0.14468971
000290 46 d0 af 3c 4a 2b e5 bd ed f0 80 bc fb 7e 37 3b
       0.021461617 -0.11189897 -0.015739882 0.002799927
0002a0 a8 97 e4 bd a7 32 3a be d8 0b b1 bd 6d c4 d8 3d
       -0.11161739 -0.18183385 -0.08644837 0.1058434
0002b0 8b 6f 09 3e 82 1f 5b 3d c0 17 36 bd 48 68 03 bd
       0.13421457 0.053496845 -0.044456244 -0.032081872
0002c0 ce 6b 0d bd c4 5f cf 3d 71 75 32 bd c0 38 39 bc
       -0.03452664 0.10125688 -0.043569032 -0.011305034
0002d0 aa 1c 16 3c ca 52 10 3d 7b 0d 9f bd 8f 7a d6 3d
       0.0091621075 0.035235204 -0.07766243 0.10472595
0002e0 5a b2 85 bd ac d2 20 3e c1 19 57 bc 0d a1 34 bd
       -0.065281585 0.15705365 -0.013128699 -0.044098902
0002f0 1c 5a 03 bb ea 68 b0 bc 61 d6 6a 3d b7 a5 a9 3d
       -0.0020042723 -0.021534402 0.057333354 0.08283561
000300 ff e7 f2 3a 4a 38 bd bd 2d 24 29 bc 32 5d 75 bd
       0.0018532275 -0.09239252 -0.010323566 -0.05990333
000310 55 bc 95 3d a9 64 bd bd 8b 52 31 be a4 c8 82 be
       0.07311312 -0.09247715 -0.17316644 -0.25543702
000320 52 19 2b 3d 1b 3e 84 bd c4 42 b1 3d d4 ab 2d bd
       0.041772194 -0.06457158 0.08655313 -0.042400196
000330 95 13 6b 3b c9 95 d6 bd 41 11 e2 3d 45 50 2d be
       0.0035869826 -0.10477788 0.11038447 -0.16925152
000340 0b 10 14 bd bc 90 bd 3d 63 87 4e bd 4d ed 60 3d
       -0.036148112 0.092561215 -0.050422084 0.054913808
000350 31 11 cf bd 62 65 89 3d 21 fa 9c bd ec d4 05 3e
       -0.10110701 0.0670879 -0.07664896 0.13069504
000360 45 47 14 3e 05 ab 2f 3d 34 3a a3 3c fd 06 88 bd
       0.14480312 0.042887706 0.019925214 -0.06641958
000370 a3 1e 74 bd b5 e4 cb bd 5c 80 dc 3c 42 7b aa bd
       -0.05959953 -0.09955732 0.026916675 -0.08324291
000380 ea 2a a5 bd 96 6f a6 bd ef 05 b4 3c b1 f1 f2 bd
       -0.08064826 -0.08126752 0.021975486 -0.11862505
000390 1f 69 a4 3d 8e a3 bb bd 0e b7 98 bd a6 4c 31 bd
       0.08027863 -0.09162055 -0.0745679 -0.04328599
0003a0 b6 d2 3b 3c 59 bd 0e bd 4e 72 95 3d 86 dd 9e bd
       0.011463812 -0.034848545 0.072971925 -0.07757096
0003b0 e0 f5 7d bd c5 cd 91 3d a6 0d d1 bc a7 f3 05 3e
       -0.062002063 0.071193255 -0.025519203 0.13081227
0003c0 01 c5 a2 3d 79 de 07 bd 00 f9 a9 bc 6d a9 57 bd
       0.07947732 -0.03317115 -0.020748615 -0.05265181
0003d0 0e b5 6b 3c fe 80 c7 ba dd b6 85 3d a3 13 73 bd
       0.0143864285 -0.0015220938 0.06529019 -0.0593449
0003e0 48 0b 0b be cd c9 4b 3e 4e c3 7e 3d 50 c5 05 3d
       -0.13578522 0.199012 0.062197976 0.032658875
0003f0 1f 80 b6 bd 16 a9 56 3e c9 d2 6e bd e5 92 6c bc
       -0.08911156 0.20962939 -0.05830649 -0.014439319

convs.1.att_src f4 [1, 1, 4]
000000 8e 0f 9e be b3 9d 8e 3d d5 f0 a7 3e 28 35 06 bf
       -0.30871242 0.069636725 0.32800928 -0.5242486

convs.1.att_dst f4 [1, 1, 4]
000000 b4 a5 18 bf 19 5b 28 be 46 54 ea bd 8f a9 86 bf
       -0.5962784 -0.16441001 -0.11441855 -1.0520495

convs.1.bias f4 [4]
000000 cc 16 f0 3d d9 ea 36 be 15 00 81 bd 00 d1 81 bd
       0.11723098 -0.17863025 -0.06298844 -0.06338692

convs.1.lin_src.weight f4 [4, 512]
000000 00 4f 51 3d 9e 31 87 3d 31 f1 af 3d 7a 07 02 3e
       0.05110073 0.066012606 0.085909255 0.12698165
000010 fa a6 56 3d 26 39 97 bd 3a 71 f9 bc bb 59 dd 3d
       0.052405335 -0.07383947 -0.030449498 0.1080813
000020 50 1a ee 3c 13 8d 6a bd a8 7c dc 3d 23 27 a6 3d
       0.029065281 -0.057263445 0.10765964 0.081129335
000030 6f d7 cd 3d 89 33 9a 3d ee c1 3e bc 7d 5a 35 bd
       0.10050856 0.07529361 -0.011642916 -0.04427575
000040 7b be ac bd b2 a5 4e 3d b1 53 ec 3d 88 8d ac 3d
       -0.08434769 0.050450988 0.115394 0.084254324
000050 dd 38 f4 3d ea ef fd 3d 97 6f 2e bc f9 22 92 3c
       0.11924908 0.123992756 -0.010646722 0.017838942
000060 16 66 2e bd f7 84 3d 3a 90 63 4f 3c 99 5b 4a bb
       -0.042577825 0.0007229591 0.012658015 -0.003087735
000070 6a b0 b5 bd 30 1e b9 3d e0 e1 21 3d 82 df 01 3e
       -0.08871539 0.09038961 0.03952205 0.12682918
000080 83 cc 6e bd c7 80 70 3d 4d b8 68 3d fe 89 ce 3c
       -0.058300506 0.05871656 0.056816388 0.025212284
000090 cd 6e 96 bc f6 f5 eb 3b 2e fe 34 ba a9 5e 09 bd
       -0.01836338 0.0072009517 -0.0006904331 -0.03353754
0000a0 fc 99 a4 3d db ed e7 3c c0 b3 3d 3d 28 1d 07 3e
       0.08037183 0.02831166 0.046314 0.13194716
0000b0 7a f4 a2 3d d6 55 1b 3e b0 89 35 bd f1 46 d5 3d
       0.079567865 0.15169463 -0.044320762 0.104139216
0000c0 58 37 52 3d 64 4e 27 bb 90 31 c6 3d 96 9f 52 3c
       0.05132231 -0.0025528902 0.09677422 0.012855431
0000d0 a8 9f 3a bd 60 9d 90 3d 8b 54 a8 3c 9b 07 20 3d
       -0.045562416 0.07061267 0.020548126 0.039069753
0000e0 b4 f4 69 bc da 46 cd bc c7 94 88 3d 9b 86 b3 3d
       -0.014279533 -0.025058199 0.06669002 0.08765908
0000f0 8c da 37 bd ca 39 ba 3d a5 9f 0a 3e 78 60 19 3d
       -0.044886157 0.09093054 0.13537462 0.037445515
000100 20 f9 de 3d 51 94 1c 3d 50 52 19 bd ed a7 3c 3d
       0.108873606 0.038227383 -0.037432015 0.046058584
000110 12 ae 81 3d 64 a2 0f bd 67 3f 83 3d 4e 1c d6 3d
       0.063320294 -0.035066977 0.064085774 0.104546174
000120 c4 2d 54 bc 0f 56 4c 3c d4 f6 d2 3d 36 8f 04 bd
       -0.0129503645 0.01247169 0.10300985 -0.03236314
000130 18 a8 ea 3d 21 9e 88 3d 89 9f b4 3d d8 7c ab 3d
       0.114578426 0.06670786 0.088194914 0.083734214
000140 49 cf c0 3c 57 aa 8c 3d 56 b6 ce 3d e9 6e 03 3e
       0.023536341 0.06868427 0.100933716 0.12835278
000150 ed 2c 33 3d 5a db dd 3d ca 49 6e 3d a4 0f 78 bd
       0.043744016 0.108328536 0.05817584 -0.06056179
000160 32 94 72 3d cc 6a f8 3c ca 3b 53 3d ba 1a 9f 3d
       0.05922336 0.030324362 0.05157069 0.077687696
000170 4c 1c 24 bd 23 60 f9 3d 70 69 65 bd 8b 9e 35 3d
       -0.04006605 0.1217654 -0.056008756 0.04434065
000180 ea c5 61 3d 7a 0e ca bc 8a ee c7 3c cd ee 2f bd
       0.055120386 -0.024665106 0.024405736 -0.042952348
000190 ec 65 94 3d d1 5d e8 3d 5e 47 3f bd 4b b1 e5 3d
       0.072460026 0.11346019 -0.04669892 0.112154566
0001a0 f5 18 08 bd 67 c8 c3 bb 0b ac 11 3e d3 9b a8 bd
       -0.033226926 -0.0059748176 0.14225785 -0.08232846
0001b0 4e 2d e3 bb 0e 75 46 3d 2b f1 c9 3d c9 40 8f 3d
       -0.006932891 0.048451476 0.09860452 0.06994779
0001c0 25 59 b5 3c f2 3d a2 3d af e0 27 bb 91 a9 ab 3d
       0.022137234 0.079219714 -0.00256161 0.083819516
0001d0 7c d3 2a bd 2d 8e 93 3d f3 b6 c9 3c dc bd 6b bb
       -0.041705593 0.07204852 0.02462337 -0.003597132
0001e0 e5 33 1e 3e 68 8f 9d 3d 38 7e d1 3d ab d8 80 3c
       0.15449484 0.07693368 0.102291524 0.015728315
0001f0 6f eb 2f 3d 89 0f 35 3d 1d ee 7c 3d e5 8b 46 bc
       0.042949136 0.04420427 0.06175052 -0.012118314
000200 0d ec d4 3d 0d 83 6f bd 54 93 81 3d bd 74 51 3d
       0.103965856 -0.05847459 0.06326929 0.05113672
000210 c9 0b bd bc 8b 96 a1 3b f0 cb 86 3d 63 67 9c 3d
       -0.023076909 0.004931276 0.06581867 0.07636907
000220 72 63 05 3e 1f c1 c9 3d fb 56 61 3d 46 af 83 3d
       0.13026217 0.09851288 0.05501459 0.06429915
000230 b5 4b 21 3d 69 7e 27 bd 23 21 11 3e a1 80 7f bd
       0.03937884 -0.04089204 0.14172797 -0.06237853
000240 dd 63 86 3b ae ce cb bc ba 64 ab 3c 9d 5f 8e bc
       0.00410126 -0.024878826 0.020922054 -0.017379576
000250 8c 35 28 bd 3a 68 9f 3d fe c1 2f bc 79 f4 83 bd
       -0.04106669 0.077835515 -0.010727404 -0.06443114
000260 26 55 c0 3d 98 bf 14 bd b1 c8 80 bd 1d 95 76 3c
       0.09391241 -0.03631553 -0.06288279 0.0150502
000270 36 11 a7 3d 35 b8 78 bb 34 36 e3 bc bb 84 44 bc
       0.081575796 -0.0037951593 -0.027735807 -0.011994536
000280 9b 26 24 3d f4 42 34 b9 87 0b 0d 3d 55 83 a5 bc
       0.04007588 -0.0001719108 0.03443482 -0.020204226
000290 4a 2d 83 bd 7d d7 c1 3c 9b 01 87 3d d0 5a f6 3b
       -0.064051226 0.023662323 0.06592103 0.00751815
0002a0 a3 85 ba bc fb 63 d0 3d 74 35 fb 3d 63 cd dd 3d
       -0.022768801 0.1017532 0.12266055 0.1083019
0002b0 46 b4 f1 3d 0c 58 d3 3d 9b 6b 15 3e 26 a4 6d bd
       0.118019626 0.10319528 0.1459183 -0.058017872
0002c0 d6 f7 1a 3e 0b d5 2d bd 4c 72 f0 bc 5c 40 84 3d
       0.15133604 -0.0424395 -0.029351376 0.06457588
0002d0 a9 7a a9 3d b9 4e 08 3e f9 18 13 3d 0a 79 08 3e
       0.08275349 0.1331128 0.035912488 0.13327423
0002e0 db c5 82 3c 07 a2 90 bc e9 93 65 3d 0b 56 e6 3d
       0.015963485 -0.017655386 0.05604926 0.1124688
0002f0 ca 73 d4 3b 72 5b b1 3d 85 12 0d bd 2f 55 74 3d
       0.0064835297 0.0866002 -0.03444149 0.05965155
000300 70 00 85 3d e7 6d 00 3d 47 5a 0b 3e 25 3e 9d bc
       0.06494224 0.03135481 0.13608657 -0.019194672
000310 a6 6f ea 3d 7c 7e a8 bd 6c b9 9c 3d 23 8f 11 3c
       0.114470765 -0.0822725 0.07652554 0.008884224
000320 fb 1f f8 3c 4d 1e 9c 3c 8e eb a1 3d f9 63 a2 bd
       0.030288687 0.019057417 0.079062566 -0.079292245
000330 50 f5 bd bc 1e a1 e1 bc 77 0b d8 3c 9d 52 f0 3d
       -0.023188263 -0.027542647 0.026372654 0.11734507
000340 fe 83 0a bd a7 0b 38 bb f1 ee 39 3d e1 ce 1f bd
       -0.033817284 -0.0028083117 0.045393888 -0.039015654
000350 15 ef 19 3d 05 e1 f4 b8 c8 92 a5 bd fc 1c 9e bc
       0.037581522 -0.0001167674 -0.08084637 -0.01930093
000360 ce 44 fb 3d 93 15 25 bd 7d 4f d1 3d 47 47 9e 3c
       0.12268983 -0.040303778 0.10220239 0.019321097
000370 b1 4d 28 3c ea 59 97 bb 82 bb b2 3d 16 a3 63 bd
       0.010272429 -0.004618873 0.087271705 -0.055575453
000380 c0 3e f6 3d cf 70 b4 3d d7 2b db 3d 7c 8c f2 3d
       0.12023687 0.08810579 0.10701721 0.118432015
000390 3e fc e0 3c 67 18 52 bd 20 4a dd bc 9a 6e 72 bd
       0.027464028 -0.051292803 -0.027012885 -0.05918751
0003a0 85 c2 15 3e ef 8e 6b ba 39 36 98 3d a4 7a 87 3d
       0.14624985 -0.00089858373 0.07432217 0.06615189
0003b0 45 f5 57 bb ac a8 09 3e cd ba 47 3d 31 e1 16 3c
       -0.0032952589 0.1344325 0.04876213 0.009208963
0003c0 35 fc f7 bc 17 ef 0b 3e 2c ff 03 3e a4 1c 90 bd
       -0.030271629 0.13665424 0.12890309 -0.07036713
0003d0 53 d5 0b 3d d6 cf 87 3d ee f8 2f 3d f1 9e a6 bc
       0.03413899 0.066314384 0.042962007 -0.020339461
0003e0 bb 7b 9a bc a4 d7 45 3d 37 35 d4 3d 93 62 0d 3d
       -0.018857827 0.048301354 0.103617124 0.034517836
0003f0 78 89 07 3d db e7 19 bd 6b 5e a4 bc 7f 57 40 3d
       0.033090085 -0.03757463 -0.020064553 0.046958443

convs.1.lin_dst.weight f4 [4, 512]
000000 00 4f 51 3d 9e 31 87 3d 31 f1 af 3d 7a 07 02 3e
       0.05110073 0.066012606 0.085909255 0.12698165
000010 fa a6 56 3d 26 39 97 bd 3a 71 f9 bc bb 59 dd 3d
       0.052405335 -0.07383947 -0.030449498 0.1080813
000020 50 1a ee 3c 13 8d 6a bd a8 7c dc 3d 23 27 a6 3d
       0.029065281 -0.057263445 0.10765964 0.081129335
000030 6f d7 cd 3d 89 33 9a 3d ee c1 3e bc 7d 5a 35 bd
       0.10050856 0.07529361 -0.011642916 -0.04427575
000040 7b be ac bd b2 a5 4e 3d b1 53 ec 3d 88 8d ac 3d
       -0.08434769 0.050450988 0.115394 0.084254324
000050 dd 38 f4 3d ea ef fd 3d 97 6f 2e bc f9 22 92 3c
       0.11924908 0.123992756 -0.010646722 0.017838942
000060 16 66 2e bd f7 84 3d 3a 90 63 4f 3c 99 5b 4a bb
       -0.042577825 0.0007229591 0.012658015 -0.003087735
000070 6a b0 b5 bd 30 1e b9 3d e0 e1 21 3d 82 df 01 3e
       -0.08871539 0.09038961 0.03952205 0.12682918
000080 83 cc 6e bd c7 80 70 3d 4d b8 68 3d fe 89 ce 3c
       -0.058300506 0.05871656 0.056816388 0.025212284
000090 cd 6e 96 bc f6 f5 eb 3b 2e fe 34 ba a9 5e 09 bd
       -0.01836338 0.0072009517 -0.0006904331 -0.03353754
0000a0 fc 99 a4 3d db ed e7 3c c0 b3 3d 3d 28 1d 07 3e
       0.08037183 0.02831166 0.046314 0.13194716
0000b0 7a f4 a2 3d d6 55 1b 3e b0 89 35 bd f1 46 d5 3d
       0.079567865 0.15169463 -0.044320762 0.104139216
0000c0 58 37 52 3d 64 4e 27 bb 90 31 c6 3d 96 9f 52 3c
       0.05132231 -0.0025528902 0.09677422 0.012855431
0000d0 a8 9f 3a bd 60 9d 90 3d 8b 54 a8 3c 9b 07 20 3d
       -0.045562416 0.07061267 0.020548126 0.039069753
0000e0 b4 f4 69 bc da 46 cd bc c7 94 88 3d 9b 86 b3 3d
       -0.014279533 -0.025058199 0.06669002 0.08765908
0000f0 8c da 37 bd ca 39 ba 3d a5 9f 0a 3e 78 60 19 3d
       -0.044886157 0.09093054 0.13537462 0.037445515
000100 20 f9 de 3d 51 94 1c 3d 50 52 19 bd ed a7 3c 3d
       0.108873606 0.038227383 -0.037432015 0.046058584
000110 12 ae 81 3d 64 a2 0f bd 67 3f 83 3d 4e 1c d6 3d
       0.063320294 -0.035066977 0.064085774 0.104546174
000120 c4 2d 54 bc 0f 56 4c 3c d4 f6 d2 3d 36 8f 04 bd
       -0.0129503645 0.01247169 0.10300985 -0.03236314
000130 18 a8 ea 3d 21 9e 88 3d 89 9f b4 3d d8 7c ab 3d
       0.114578426 0.06670786 0.088194914 0.083734214
000140 49 cf c0 3c 57 aa 8c 3d 56 b6 ce 3d e9 6e 03 3e
       0.023536341 0.06868427 0.100933716 0.12835278
000150 ed 2c 33 3d 5a db dd 3d ca 49 6e 3d a4 0f 78 bd
       0.043744016 0.108328536 0.05817584 -0.06056179
000160 32 94 72 3d cc 6a f8 3c ca 3b 53 3d ba 1a 9f 3d
       0.05922336 0.030324362 0.05157069 0.077687696
000170 4c 1c 24 bd 23 60 f9 3d 70 69 65 bd 8b 9e 35 3d
       -0.04006605 0.1217654 -0.056008756 0.04434065
000180 ea c5 61 3d 7a 0e ca bc 8a ee c7 3c cd ee 2f bd
       0.055120386 -0.024665106 0.024405736 -0.042952348
000190 ec 65 94 3d d1 5d e8 3d 5e 47 3f bd 4b b1 e5 3d
       0.072460026 0.11346019 -0.04669892 0.112154566
0001a0 f5 18 08 bd 67 c8 c3 bb 0b ac 11 3e d3 9b a8 bd
       -0.033226926 -0.0059748176 0.14225785 -0.08232846
0001b0 4e 2d e3 bb 0e 75 46 3d 2b f1 c9 3d c9 40 8f 3d
       -0.006932891 0.048451476 0.09860452 0.06994779
0001c0 25 59 b5 3c f2 3d a2 3d af e0 27 bb 91 a9 ab 3d
       0.022137234 0.079219714 -0.00256161 0.083819516
0001d0 7c d3 2a bd 2d 8e 93 3d f3 b6 c9 3c dc bd 6b bb
       -0.041705593 0.07204852 0.02462337 -0.003597132
0001e0 e5 33 1e 3e 68 8f 9d 3d 38 7e d1 3d ab d8 80 3c
       0.15449484 0.07693368 0.102291524 0.015728315
0001f0 6f eb 2f 3d 89 0f 35 3d 1d ee 7c 3d e5 8b 46 bc
       0.042949136 0.04420427 0.06175052 -0.012118314
000200 0d ec d4 3d 0d 83 6f bd 54 93 81 3d bd 74 51 3d
       0.103965856 -0.05847459 0.06326929 0.05113672
000210 c9 0b bd bc 8b 96 a1 3b f0 cb 86 3d 63 67 9c 3d
       -0.023076909 0.004931276 0.06581867 0.07636907
000220 72 63 05 3e 1f c1 c9 3d fb 56 61 3d 46 af 83 3d
       0.13026217 0.09851288 0.05501459 0.06429915
000230 b5 4b 21 3d 69 7e 27 bd 23 21 11 3e a1 80 7f bd
       0.03937884 -0.04089204 0.14172797 -0.06237853
000240 dd 63 86 3b ae ce cb bc ba 64 ab 3c 9d 5f 8e bc
       0.00410126 -0.024878826 0.020922054 -0.017379576
000250 8c 35 28 bd 3a 68 9f 3d fe c1 2f bc 79 f4 83 bd
       -0.04106669 0.077835515 -0.010727404 -0.06443114
000260 26 55 c0 3d 98 bf 14 bd b1 c8 80 bd 1d 95 76 3c
       0.09391241 -0.03631553 -0.06288279 0.0150502
000270 36 11 a7 3d 35 b8 78 bb 34 36 e3 bc bb 84 44 bc
       0.081575796 -0.0037951593 -0.027735807 -0.011994536
000280 9b 26 24 3d f4 42 34 b9 87 0b 0d 3d 55 83 a5 bc
       0.04007588 -0.0001719108 0.03443482 -0.020204226
000290 4a 2d 83 bd 7d d7 c1 3c 9b 01 87 3d d0 5a f6 3b
       -0.064051226 0.023662323 0.06592103 0.00751815
0002a0 a3 85 ba bc fb 63 d0 3d 74 35 fb 3d 63 cd dd 3d
       -0.022768801 0.1017532 0.12266055 0.1083019
0002b0 46 b4 f1 3d 0c 58 d3 3d 9b 6b 15 3e 26 a4 6d bd
       0.118019626 0.10319528 0.1459183 -0.058017872
0002c0 d6 f7 1a 3e 0b d5 2d bd 4c 72 f0 bc 5c 40 84 3d
       0.15133604 -0.0424395 -0.029351376 0.06457588
0002d0 a9 7a a9 3d b9 4e 08 3e f9 18 13 3d 0a 79 08 3e
       0.08275349 0.1331128 0.035912488 0.13327423
0002e0 db c5 82 3c 07 a2 90 bc e9 93 65 3d 0b 56 e6 3d
       0.015963485 -0.017655386 0.05604926 0.1124688
0002f0 ca 73 d4 3b 72 5b b1 3d 85 12 0d bd 2f 55 74 3d
       0.0064835297 0.0866002 -0.03444149 0.05965155
000300 70 00 85 3d e7 6d 00 3d 47 5a 0b 3e 25 3e 9d bc
       0.06494224 0.03135481 0.13608657 -0.019194672
000310 a6 6f ea 3d 7c 7e a8 bd 6c b9 9c 3d 23 8f 11 3c
       0.114470765 -0.0822725 0.07652554 0.008884224
000320 fb 1f f8 3c 4d 1e 9c 3c 8e eb a1 3d f9 63 a2 bd
       0.030288687 0.019057417 0.079062566 -0.079292245
000330 50 f5 bd bc 1e a1 e1 bc 77 0b d8 3c 9d 52 f0 3d
       -0.023188263 -0.027542647 0.026372654 0.11734507
000340 fe 83 0a bd a7 0b 38 bb f1 ee 39 3d e1 ce 1f bd
       -0.033817284 -0.0028083117 0.045393888 -0.039015654
000350 15 ef 19 3d 05 e1 f4 b8 c8 92 a5 bd fc 1c 9e bc
       0.037581522 -0.0001167674 -0.08084637 -0.01930093
000360 ce 44 fb 3d 93 15 25 bd 7d 4f d1 3d 47 47 9e 3c
       0.12268983 -0.040303778 0.10220239 0.019321097
000370 b1 4d 28 3c ea 59 97 bb 82 bb b2 3d 16 a3 63 bd
       0.010272429 -0.004618873 0.087271705 -0.055575453
000380 c0 3e f6 3d cf 70 b4 3d d7 2b db 3d 7c 8c f2 3d
       0.12023687 0.08810579 0.10701721 0.118432015
000390 3e fc e0 3c 67 18 52 bd 20 4a dd bc 9a 6e 72 bd
       0.027464028 -0.051292803 -0.027012885 -0.05918751
0003a0 85 c2 15 3e ef 8e 6b ba 39 36 98 3d a4 7a 87 3d
       0.14624985 -0.00089858373 0.07432217 0.06615189
0003b0 45 f5 57 bb ac a8 09 3e cd ba 47 3d 31 e1 16 3c
       -0.0032952589 0.1344325 0.04876213 0.009208963
0003c0 35 fc f7 bc 17 ef 0b 3e 2c ff 03 3e a4 1c 90 bd
       -0.030271629 0.13665424 0.12890309 -0.07036713
0003d0 53 d5 0b 3d d6 cf 87 3d ee f8 2f 3d f1 9e a6 bc
       0.03413899 0.066314384 0.042962007 -0.020339461
0003e0 bb 7b 9a bc a4 d7 45 3d 37 35 d4 3d 93 62 0d 3d
       -0.018857827 0.048301354 0.103617124 0.034517836
0003f0 78 89 07 3d db e7 19 bd 6b 5e a4 bc 7f 57 40 3d
       0.033090085 -0.03757463 -0.020064553 0.046958443
